MLA_Lab4/results/Economic/Economic/Economic-183528.onnx (onnx, 76961 bytes, 8 tensors)

action_model._continuous_distribution.log_sigma f4 [1, 5]
0.021900633 0.019879771 0.026895741 0.028275687 0.02107646
00000000: f568 b33c e7da a23c 7554 dc3c 6aa2 e73c
00000010: 8aa8 ac3c

action_model._continuous_distribution.mu.bias f4 [5]
-3.6344103e-05 0.00044138846 0.0004895336 6.4495565e-05 2.3874934e-05
00000000: 2f70 18b8 286a e739 0b54 003a cb41 8738
00000010: 0847 c837

action_model._continuous_distribution.mu.weight f4 [5, 128]
0.014966238 0.0069009895 -0.014650291 -0.0014294962 -0.0052400627 -0.014129832 -0.00043637268 0.0013447597
-0.0010016001 0.024350356 0.0023351794 0.010501304 -0.002801618 0.0029979849 0.0036920356 0.007932375
0.0075412574 0.009047285 -0.015684556 -0.01606333 0.025867058 0.0069345664 0.0039468417 0.008946264
-0.02243074 0.00070783345 -0.017089443 0.003275949 -0.029069468 -0.014368418 -0.00796122 -0.0057699536
0.019931002 -0.0063908715 0.0062219207 0.0034623076 -0.03151739 0.000202173 -0.027273588 -0.002278142
0.0077133104 0.042207796 0.0015700511 -0.011777817 -0.0017058271 -0.004920517 0.015849352 -0.023821866
0.005685914 -0.0034380243 0.0021848255 0.0046645957 -0.004962515 0.006723028 -0.011952855 -0.004941437
-0.02264137 0.007342205 0.0063812993 0.030035459 -0.009786164 0.0032104186 0.021337233 0.006141633
0.045153882 -0.01086756 -0.009094214 -0.0030289418 -0.032843936 0.0019621963 0.0024691345 -0.007159901
-0.005798071 -0.0052100276 -0.004301772 -0.008266538 -0.005269363 0.0052410876 0.0021415825 -0.0028333147
-0.055535056 0.010446691 0.00020749195 -0.01810522 -0.035216574 0.0135134095 -0.007902339 0.01246399
-0.010980992 0.030392349 0.0034250475 0.01864145 -0.0034876014 0.009900371 -0.0077352603 0.033295464
-0.009278256 -0.007251852 0.0101752365 -0.008965354 0.0015146516 0.012302677 0.0027729867 0.024075767
-0.007269163 0.04396706 0.0033498341 0.031039955 -0.0034168547 -0.008412554 0.0055970605 0.026624087
-0.015349345 0.0019142712 -0.03855474 -0.008544534 -0.005450381 0.0006006733 0.013025403 -0.022206083
0.021851901 0.017687898 0.024160571 0.029027196 0.0071306922 -0.0069316356 -0.025757596 0.010514725
-0.03678227 -0.0010632208 0.01619611 -0.025378127 -0.014022355 0.01816605 0.029796463 0.0032623245
-0.017928133 0.0076046777 0.026995176 -0.020466298 0.012175892 -0.0010646442 -0.004531848 0.00052922376
-0.011001282 0.004409614 -0.028391639 0.024103055 0.011400823 0.019895134 -0.0034554736 0.011191826
0.0111307 0.0087020695 -0.015889121 0.0012790945 0.01099842 -0.014114971 0.037694845 -0.022858074
-0.015968561 0.02045372 0.0054713883 -0.030084904 0.0022575646 0.009342951 0.004254895 -0.0056165433
0.016003897 -0.019403566 -0.010594441 -0.020080153 0.008061348 0.0016218253 0.021145273 0.0026207191
-0.0035011983 0.00276299 -0.0143557 -0.005073727 -0.026414946 0.0134140365 0.021719623 -0.030347979
0.017707705 -0.0065656384 -0.011388509 0.014379487 -0.010136421 0.003127646 0.003063301 -0.009422695
0.0037370108 0.01682739 -0.0012708995 -0.0062460857 -0.00996936 -0.017307147 -0.022205062 0.0003193783
-0.0052961125 0.008368332 0.0078994 -0.0076310555 0.008318439 -0.0029159081 0.012769072 -0.010159055
0.030624343 -0.020585738 0.0054894025 -0.0066632144 -0.0003815476 0.009776401 -0.007061478 0.015314455
0.012849834 -0.019988952 -0.008147119 -0.007462699 -0.0053620855 0.020626899 0.012980968 8.556966e-05
-0.010370278 -0.018895825 -0.019767223 -0.020360647 0.01600665 0.0064062653 0.049530573 -0.0045281127
0.01058898 0.0014999037 0.009032672 -0.009215167 -0.027578756 -0.0036523726 -0.0050007356 -0.0027318376
-0.0038606494 0.00045565964 -0.024577646 0.014742568 -0.0019951365 0.027113305 -0.007094031 -0.0014421536
-0.012451059 -0.004399272 0.0007275158 -0.011307746 0.02099215 0.041125998 0.029101431 0.020006584
00000000: f434 753c b221 e23b c607 70bc ef5d bbba
00000010: d5b4 abbb d080 67bc f3c8 e4b9 a642 b03a
00000020: 1f48 83ba 667a c73c cf09 193b a90d 2c3c
00000030: 5a9b 37bb d779 443b 14f6 713b cbf6 013c
00000040: a71c f73b 103b 143c e67c 80bc 3f97 83bc
00000050: 27e7 d33c 5c3b e33b 8254 813b 5a93 123c
00000060: acc0 b7bc e68d 393a 29ff 8bbc 4eb1 563b
00000070: 1823 eebc 8369 6bbc c76f 02bc e111 bdbb
00000080: 5746 a33c 846a d1bb 41e1 cb3b e2e7 623b
00000090: 6118 01bd 67fe 5339 dc6c dfbc e14c 15bb
000000a0: f0bf fc3b 15e2 2c3d 2cca cd3a bff7 40bc
000000b0: 0f96 dfba 4a3c a1bb 80d6 813c 1326 c3bc
000000c0: e750 ba3b 7a50 61bb 4a2f 0f3b 77d9 983b
000000d0: 989c a2bb d94c dc3b e8d5 43bc c7eb a1bb
000000e0: 657a b9bc e196 f03b 381a d13b ec0c f63c
000000f0: 2656 20bc e365 523b 6ccb ae3c c03f c93b
00000100: 47f3 383d da0d 32bc e6ff 14bc 3681 46bb
00000110: 5d87 06bd 3198 003b 34d1 213b 9a9d eabb
00000120: bffd bdbb e1b8 aabb e1f5 8cbb 6070 07bc
00000130: 9faa acbb 6ebd ab3b cb59 0c3b 22af 39bb
00000140: ba78 63bd 9928 2b3c 3292 5939 6651 94bc
00000150: 413f 10bd 5967 5d3c d078 01bc c335 4c3c
00000160: 9ee9 33bc 60f9 f83c c376 603b f4b5 983c
00000170: 3e90 64bb 2a35 223c 1178 fdbb d360 083d
00000180: d403 18bc f2a0 edbb 09b6 263c 6ce3 12bc
00000190: 4687 c63a 2b91 493c ffba 353b 8b3a c53c
000001a0: 2932 eebb ce16 343d e488 5b3b 8147 fe3c
000001b0: 4fed 5fbb cfd4 09bc 8c67 b73b c21a da3c
000001c0: d27b 7bbc 48e8 fa3a 93eb 1dbd 60fe 0bbc
000001d0: 1c99 b2bb 8176 1d3a 8068 553c 88e9 b5bc
000001e0: c202 b33c 36e6 903c 64ec c53c 71ca ed3c
000001f0: 95a8 e93b c622 e3bb 9801 d3bc f445 2c3c
00000200: 01a9 16bd c55b 8bba b4ad 843c cae5 cfbc
00000210: 05be 65bc f8d0 943c b617 f43c b9cc 553b
00000220: 05de 92bc a930 f93b fd24 dd3c f0a8 a7bc
00000230: 647d 473c 888b 8bba e57f 94bb 9bbb 0a3a
00000240: b93e 34bc 867e 903b 9595 e8bc c573 c53c
00000250: 84ca 3a3c 1ffb a23c 3a75 62bb ec5d 373c
00000260: 8a5d 363c 2093 0e3c e729 82bc 4aa7 a73a
00000270: b832 343c 7b42 67bc e965 1a3d db40 bbbc
00000280: 80d0 82bc 8f8e a73c 5549 b33b 9e74 f6bc
00000290: a6f3 133b 2d13 193c a56c 8b3b fb0a b8bb
000002a0: 9b1a 833c 3af4 9ebc 4e94 2dbc 227f a4bc
000002b0: bf13 043c 6d93 d43a da38 ad3c 5fc0 2b3b
000002c0: 5c74 65bb 4813 353b 2c34 6bbc 8241 a6bb
000002d0: 2864 d8bc 8cc6 5b3c 5aed b13c 539c f8bc
000002e0: c00f 913c 9124 d7bb de96 3abc f197 6b3c
000002f0: 3b13 26bc 31f9 4c3b aac1 483b a661 1abc
00000300: a3e8 743b 98d9 893c 5094 a6ba f7ab ccbb
00000310: 8756 23bc b8c7 8dbc 64e7 b5bc 3b72 a739
00000320: 038b adbb 541b 093c 7c6c 013c ef0d fabb
00000330: 104a 083c d218 3fbb 5f35 513c 2a72 26bc
00000340: e7df fa3c 6ca3 a8bc 72e0 b33b 1857 dabb
00000350: 740a c8b9 332d 203c f963 e7bb 7be9 7a3c
00000360: 1c88 523c dfbf a3bc 7e7b 05bc a889 f4bb
00000370: 6fb4 afbb bef9 a83c 20ae 543c dd73 b338
00000380: 19e8 29bc 6bcb 9abc dfee a1bc 5fcb a6bc
00000390: 6120 833c a6eb d13b 92e0 4a3d 9060 94bb
000003a0: 677d 2d3c 6b98 c43a c6fd 133c 36fb 16bc
000003b0: d8ec e1bc a55c 6fbb 36dd a3bb a108 33bb
000003c0: f302 7dbb 9ae5 ee39 0f57 c9bc d08a 713c
000003d0: d6c0 02bb b91c de3c 0c75 e8bb a506 bdba
000003e0: 87ff 4bbc c527 90bb c2b6 3e3a 2044 39bc
000003f0: bbf7 ab3c bc73 283d 2066 ee3c d9e4 a33c

action_model._discrete_distribution.branches.0.weight f4 [1, 128]
0.020261884 -0.0037714515 0.0008915321 0.00627068 -0.001448111 -0.007600605 -0.006630195 0.0025208846
0.0103770895 -0.009093788 0.00179355 -0.016846059 0.0043893903 -0.0015050899 0.0023871704 0.0019718036
0.0009428986 -0.008864965 0.0128975455 0.0027689158 0.012173964 -0.0013797363 -0.010576514 -0.007904164
0.0018897726 -0.005403736 -0.0037981078 0.013653517 -0.0014557549 -0.00435301 -0.0016654248 -0.0006372612
0.005445353 0.0140514765 -0.011665532 0.0031065256 -0.0072519006 -0.0010233636 0.002722322 0.005055382
-0.017961426 -0.0011796115 -0.01564893 0.002921855 -0.0079557225 0.0080970405 -0.0132480515 -0.007110312
-0.009271563 -0.014920731 -0.0034757864 0.00070324645 0.0007406084 -0.011530685 0.0062585967 -0.020156918
-0.006149934 -0.007502537 -0.015421435 -0.007892446 0.009652974 0.0010197855 -0.023041485 -0.018126292
-0.0074368864 0.006665966 0.0038656064 0.006102707 -0.00034677816 -0.012588206 0.0036690242 0.007862428
-0.009070338 -0.0008979925 -0.0037953965 0.01237373 0.004082036 0.0018542709 -0.003620943 -0.009169655
0.0041744346 -0.00037938714 0.0005820542 0.0052977977 0.0041423566 0.0023591795 -0.0003403141 0.005177194
0.014899309 0.016311971 0.013601053 -0.004217312 0.0012148168 -0.014945564 -0.0075088344 -0.00792588
-0.00539935 -0.01687286 0.015138 0.0048209806 -0.00024823274 0.008920108 -0.011963809 0.010737649
-0.0045138886 -0.005047548 -0.00017352783 0.00352197 -0.009828317 0.005597386 -6.6114684e-05 0.009716815
-0.0027463487 -0.012675643 0.00069171394 4.6819154e-05 -0.0044189007 0.006064837 -0.008279068 0.0060226074
-0.0029639297 0.0079995515 -0.014044779 -0.008139149 0.0038303123 -0.0034308515 0.0026331013 -0.0011382356
00000000: 40fc a53c 752a 77bb b5b5 693a 477a cd3b
00000010: 8bce bdba 7f0e f9bb 1b42 d9bb 6d35 253b
00000020: ab04 2a3c 1dfe 14bc 8d15 eb3a bf00 8abc
00000030: e0d4 8f3b 7046 c5ba 1372 1c3b 6039 013b
00000040: db2c 773a 5c3e 11bc 3a50 533c b376 353b
00000050: 4e75 473c 45d8 b4ba 1d49 2dbc 7780 01bc
00000060: 3fb2 f73a d311 b1bb ade9 78bb 00b3 5f3c
00000070: 07cf beba b2a3 8ebb 624a daba e00d 27ba
00000080: ef6e b23b 2a38 663c ca20 3fbc da96 4b3b
00000090: 5aa1 edbb 6222 86ba fc68 323b 9ea7 a53b
000000a0: d723 93bc 329d 9aba 2f32 80bc 987c 3f3b
000000b0: b858 02bc 73a9 043c 5b0e 59bc 9ffd e8bb
000000c0: c1e7 17bc 1576 74bc 05ca 63bb 125a 383a
000000d0: 6325 423a 33eb 3cbc ea14 cd3b 1f20 a5bc
000000e0: 6385 c9bb d8d7 f5bb 30aa 7cbc 514f 01bc
000000f0: 8227 1e3c 53aa 853a 7fc1 bcbc 977d 94bc
00000100: 20b1 f3bb 2d6e da3b 1d56 7d3b 37f9 c73b
00000110: c7cf b5b9 c33e 4ebc 0374 703b 6ad1 003c
00000120: c19b 14bc 4267 6bba 30bc 78bb 2fbb 4a3c
00000130: 9ac2 853b 020b f33a 584d 6dbb 523c 16bc
00000140: b2c9 883b 7be8 c6b9 ff94 183a 2699 ad3b
00000150: 9bbc 873b 779c 1a3b 2f6c b2b9 73a5 a93b
00000160: 3b1c 743c afa0 853c f3d6 5e3c 6131 8abb
00000170: 7d3a 9f3a 3dde 74bc ab0c f6bb 8ddb 01bc
00000180: 08ed b0bb f438 8abc 6005 783c 51f9 9d3b
00000190: 3c25 82b9 a525 123c da03 44bc f7ec 2f3c
000001a0: 3ee9 93bb e765 a5bb 06f5 35b9 dad0 663b
000001b0: f306 21bc 476a b73b 0da7 8ab8 4733 1f3c
000001c0: 16fc 33bb 80ad 4fbc 2354 353a af5f 4438
000001d0: 6dcc 90bb 8abb c63b eea4 07bc 4b59 c53b
000001e0: 7d3e 42bb 8d10 033c 131c 66bc 115a 05bc
000001f0: fa05 7b3b 23d8 60bb 1c90 2c3b d930 95ba

network_body._body_endoder.seq_layers.0.bias f4 [128]
-0.0021747593 -0.0013364434 0.0037715223 -0.0015861397 -0.003922291 -0.0035081632 6.523303e-06 -7.4825904e-05
-0.0009182399 0.00020472397 -0.0019418551 0.0032552753 -0.0015505564 0.0018497343 -0.00065557624 0.0012917795
-0.0015860497 -0.0017252875 -0.0041339784 -0.0014120893 -0.0006182817 -1.5755582e-05 0.0009145072 4.0265288e-05
0.0002768764 0.0003489135 0.0028934546 -0.0016724402 -0.0003903556 -0.0019623986 0.00015383365 0.0025170168
0.0009839762 -0.0005509193 0.004235422 -0.004067609 -0.007134058 -0.0012356464 -0.002435985 -0.0012266046
-0.0017885059 -0.0009764021 0.0016724758 0.0021153474 -3.038223e-05 -4.3436303e-05 -0.0006070373 0.0006845614
0.0025702408 -0.00057921273 -9.14626e-05 0.0023350776 -0.0010538233 -0.0004977178 -0.0012448906 -0.0014954195
-0.002179112 -0.00047838115 0.000751786 0.0012727785 -0.0021894076 -0.0011670104 -0.0013357883 -0.0054599736
0.0014986552 0.005671255 0.0048110937 -0.0013772339 -0.002124009 -0.0028239954 -0.0001306442 -0.00073071127
0.0011293091 -0.00030573714 0.0035962304 -0.0046242536 0.00044126593 0.00045047665 -0.0017020262 -0.0061859344
0.00043994503 -0.0010769258 -0.0012421904 -6.847342e-05 0.004000675 -0.0010343295 -0.00032048312 -0.0011023413
-0.0008732844 -0.0023579989 -0.001361368 0.0017061485 -0.0075793304 0.0006216914 0.0043211677 -0.0015241231
0.0013328713 0.0010123857 0.00032711888 -0.0038348762 -0.0011773246 -0.0008590743 -0.00030181772 0.0027144607
0.0036132813 -0.002854034 -0.0027645219 -0.005109325 -0.00092098425 -0.0011368255 -0.0051564607 -8.05686e-05
0.00070027215 -0.0017291275 -0.0011146001 -0.00025139528 -0.0020492196 -0.0012198371 -0.0015263675 -0.0026144958
-0.0007980581 -0.0018740101 -0.0005395868 -0.0034688693 -0.00027428858 -0.00017413199 -0.0007425323 0.0034242861
00000000: 6886 0ebb 992b afba a52b 773b 04e6 cfba
00000010: 9086 80bb 36e9 65bb bfe2 da36 daeb 9cb8
00000020: 09b6 70ba 2cab 5639 d885 feba 7556 553b
00000030: 0a3c cbba c972 f23a fada 2bba ed50 a93a
00000040: ffe2 cfba 0b23 e2ba 5376 87bb db15 b9ba
00000050: 2f14 22ba db2a 84b7 8abb 6f3a 86e2 2838
00000060: b929 9139 61ee b639 1da0 3d3b c835 dbba
00000070: a4a8 ccb9 969b 00bb 684e 2139 89f4 243b
00000080: c3f8 803a 926b 10ba 4bc9 8a3b 9449 85bb
00000090: d1c4 e9bb 6af5 a1ba 0ca5 1fbb 05c6 a0ba
000000a0: 4d6c eaba 3cf5 7fba fa36 db3a a4a1 0a3b
000000b0: 58dd feb7 602f 36b8 9521 1fba 2374 333a
000000c0: 7c71 283b 4fd6 17ba 9ccf bfb8 1a08 193b
000000d0: 7120 8aba 4779 02ba 992b a3ba f401 c4ba
000000e0: 6fcf 0ebb 3bcf fab9 8113 453a 5cd3 a63a
000000f0: 2a7c 0fbb 5ff6 98ba 9e15 afba 94e9 b2bb
00000100: 866e c43a efd5 b93b 61a6 9d3b 4d84 b4ba
00000110: f532 0bbb c812 39bb 89fd 08b9 348d 3fba
00000120: 5305 943a 584b a0b9 bcae 6b3b 0d87 97bb
00000130: b659 e739 f42d ec39 8616 dfba 61b3 cabb
00000140: 6ca8 e639 a227 8dba fed0 a2ba 6399 8fb8
00000150: 1818 833b 5792 87ba 8406 a8b9 707c 90ba
00000160: 20ed 64ba a888 1abb ee6f b2ba d8a0 df3a
00000170: 085c f8bb 01f9 223a 9598 8d3b 16c5 c7ba
00000180: bdb3 ae3a 07b2 843a 2781 ab39 8c52 7bbb
00000190: 7550 9aba 8033 61ba 4a3d 9eb9 18e5 313b
000001a0: cdcc 6c3b bf0a 3bbb fb2c 35bb 206c a7bb
000001b0: 356e 71ba 8901 95ba 87f7 a8bb f0f6 a8b8
000001c0: 7892 373a e4a3 e2ba c617 92ba b4cd 83b9
000001d0: 334c 06bb f1e2 9fba 6510 c8ba f657 2bbb
000001e0: c634 51ba 58a1 f5ba 0f73 0dba f855 63bb
000001f0: 64ce 8fb9 3397 36b9 80a6 42ba fd69 603b

network_body._body_endoder.seq_layers.0.weight f4 [128, 8]
-0.16936313 -0.1593243 0.16424708 0.15200442 0.5109809 -0.58045816 -0.40887505 0.03449298
0.00032433143 0.21281998 -0.03141856 0.32499647 -0.4902856 -0.3616345 0.4071683 0.67409366
-0.15760396 -0.028293347 -0.15163715 -0.08547776 0.04427715 0.44753605 0.29142374 0.31298888
-0.22660875 -0.08158071 0.22478034 0.21780676 0.17007458 -0.4017011 0.37753358 0.08112767
0.1970894 -0.3725219 0.27973995 -0.4676147 -0.0018700596 0.6033678 -0.080267824 0.08991951
-0.4001205 -0.024302341 0.3512213 -0.17608215 -0.5661217 -0.3353369 0.12199916 0.025591178
-0.25569168 -0.1181294 -0.1993023 -0.31126928 -0.14566644 0.4305645 0.09642695 -0.075067304
0.19627908 0.03651017 0.2616922 0.2242542 0.381932 0.14886662 -0.35648564 0.27419558
-0.4866456 -0.37827322 0.124951355 -0.05370309 0.23546994 0.12999985 -0.59426343 0.22307555
-0.16178082 0.08239684 -0.26851735 0.012313322 0.5776603 -0.11311533 0.10080477 0.06814362
-0.06961691 0.10499521 -0.19479735 -0.05077343 0.25584182 0.15387805 0.38268232 0.039880097
0.14815319 -0.0062090876 0.21904126 0.022527603 -0.2687442 -0.61222076 0.76943773 0.6650183
1.0177971 -0.015300584 -0.68876773 0.04465196 0.43817025 0.15517442 -0.15048288 0.2508955
0.09435414 -0.37304237 -0.22629666 -0.006467765 -0.25710437 -0.0706968 0.06967665 -0.23262347
-0.12052034 0.3067726 0.17023902 -0.03744712 -0.26283658 -0.005835802 0.2869326 -0.45828527
0.21727811 -0.18151672 0.19341612 -0.36002883 0.40722457 0.13637596 0.2918437 -0.15392537
0.0043687955 0.3443951 -0.15815729 0.47978932 0.100533426 -0.15361899 -0.024334101 -0.61770254
-1.2181754 0.17381221 0.106357366 -0.084713235 0.424051 0.12309575 0.3105363 -0.11091906
-0.5634183 -0.005241058 -0.07380669 -0.06283855 0.08988831 -0.71109074 0.27392966 -0.21231884
0.7959509 -0.26236758 0.10358345 0.21196227 0.01314707 0.3479888 0.03850567 0.15515904
-0.38572547 0.03133982 -0.052853335 -0.025009787 -0.043279987 -0.63891464 -0.1208137 -0.34473553
-0.8416107 -0.121084146 -0.22349241 0.2773162 0.50568765 -0.12429233 -0.16532956 0.3219907
0.5041943 0.0039178627 0.31077525 -0.39017263 0.29166713 -0.19747955 -0.31745762 -0.021440996
0.13018782 0.17195879 -0.15381972 -0.45907867 -0.27609363 0.22304167 0.17045933 0.013105775
0.06877062 -0.31306097 0.37197718 0.119886436 -0.122462854 0.35388225 0.19662127 0.027744235
-0.28858176 0.12001883 -0.2563132 -0.012963956 -0.6063664 0.28942934 0.3277351 -0.5061064
-0.09216981 0.18237185 -0.15085481 -0.39938834 0.14419374 -0.5616773 0.3680766 -0.34467083
-0.34213486 0.017062936 0.4428993 0.46713606 0.030838262 -0.6802306 0.29144636 -0.5483805
0.30873987 0.09894703 -0.6229313 -0.27498767 0.65203214 -0.25012138 0.04571888 0.79696774
0.2149853 0.34531194 0.068908885 0.2609463 0.8202821 0.8387443 0.5627048 0.10561623
0.582028 -0.33516023 0.31442174 0.06896343 0.30651283 0.07994449 -0.05611671 0.42554867
-0.33688942 -0.5088184 -0.27970034 -0.101009496 -0.5489645 -0.27166215 0.11219514 -0.01652826
00000000: 876d 2dbe e925 23be 6330 283e 0ca7 1b3e
00000010: a5cf 023f e898 14bf 1258 d1be 8348 0d3d
00000020: 070b aa39 7bed 593e bfb0 00bd f065 a63e
00000030: b706 fbbe 2828 b9be 5d78 d03e 6791 2c3f
00000040: ef62 21be 73c7 e7bc c546 1bbe f70e afbd
00000050: f55b 353d 7223 e53e 7e35 953e 1440 a03e
00000060: 200c 68be ca13 a7bd d12c 663e bc08 5f3e
00000070: 0828 2e3e c4ab cdbe 154c c13e 4426 a63d
00000080: ced1 493e 31bb bebe 133a 8f3e 326b efbe
00000090: ca1c f5ba 5076 1a3f 7563 a4bd b827 b83d
000000a0: 98dc ccbe b415 c7bc 47d3 b33e e14e 34be
000000b0: 5aed 10bf 47b1 abbe b2da f93d 97a4 d13c
000000c0: 05ea 82be d4ed f1bd e715 4cbe b05e 9fbe
000000d0: 9529 15be f372 dc3e 7e7b c53d e3bc 99bd
000000e0: 62fd 483e b08b 153d 85fc 853e e5a2 653e
000000f0: 978c c33e 7e70 183e 4985 b6be 5d63 8c3e
00000100: 9d29 f9be 07ad c1be 7fe6 ff3d c5f7 5bbd
00000110: 081f 713e ae1e 053e a621 18bf eb6d 643e
00000120: dfa9 25be adbf a83d 1b7b 89be d1bd 493c
00000130: 8ce1 133f 03a9 e7bd bb72 ce3d e28e 8b3d
00000140: 4f93 8ebd bb07 d73d f578 47be cdf7 4fbd
00000150: b3fd 823e 3592 1d3e f0ee c33e 5059 233d
00000160: 78b5 173e 9a75 cbbb 5a4c 603e cf8b b83c
00000170: d798 89be 80ba 1cbf dff9 443f a43e 2a3f
00000180: 2d47 823f 4daf 7abc 1553 30bf f9e4 363d
00000190: da57 e03e 0be6 1e3e 2f18 1abe 6075 803e
000001a0: be3c c13d 69ff bebe 50ba 67be 8cef d3bb
000001b0: 2fa3 83be 7cc9 90bd a2b2 8e3d d934 6ebe
000001c0: 5ed3 f6bd 4c11 9d3e 2353 2e3e 2762 19bd
000001d0: 8492 86be 413a bfbb d4e8 923e 5ea4 eabe
000001e0: 277e 5e3e 85df 39be e00e 463e b355 b8be
000001f0: bd7f d03e 24a6 0b3e 8a6c 953e 9d9e 1dbe
00000200: 1d28 8f3b 8e54 b03e fcf3 21be f2a6 f53e
00000210: 78e4 cd3d 4c4e 1dbe 4f58 c7bc c121 1ebf
00000220: 2ced 9bbf d4fb 313e e4d1 d93d 227e adbd
00000230: 361d d93e a019 fc3d 9dfe 9e3e 8829 e3bd
00000240: 2f3c 10bf 2ebd abbb f627 97bd 7fb1 80bd
00000250: 5d17 b83d 0b0a 36bf 8240 8c3e 1c6a 59be
00000260: 70c3 4b3f 0b55 86be 8f23 d43d a30c 593e
00000270: cf66 573c 972b b23e 1fb8 1d3d 03e2 1e3e
00000280: cf7d c5be 2f5e 003d bd7c 58bd 53e1 ccbc
00000290: 5b46 31bd e98f 23bf 2c6d f7bd 2d81 b0be
000002a0: cd73 57bf f7fa f7bd 32db 64be 64fc 8d3e
000002b0: bf74 013f fa8c febd 274c 29be f7db a43e
000002c0: e112 013f 6a61 803b ef1d 9f3e b5c4 c7be
000002d0: 6555 953e 1438 4abe ce89 a2be 07a5 afbc
000002e0: f54f 053e f715 303e eb82 1dbe 5c0c ebbe
000002f0: 255c 8dbe 0965 643e e48c 2e3e 9bb9 563c
00000300: 9cd7 8c3d 8749 a0be cb73 be3e 0587 f53d
00000310: cecd fabd 0e30 b53e 1657 493e e147 e33c
00000320: fdc0 93be 6fcc f53d 7c3b 83be c666 54bc
00000330: d43a 1bbf 1530 943e e5cc a73e 3090 01bf
00000340: 86c3 bcbd b0bf 3a3e af79 1abe a17c ccbe
00000350: 86a7 133e 15ca 0fbf 8974 bc3e b278 b0be
00000360: 4d2c afbe 92c7 8b3c b2c3 e23e 752c ef3e
00000370: 86a0 fc3c 9823 2ebf 7538 953e aa62 0cbf
00000380: 2713 9e3e bea4 ca3d 6d78 1fbf 2fcb 8cbe
00000390: 94eb 263f e90f 80be b843 3b3d 1406 4c3f
000003a0: 1b25 5c3e bacc b03e 1a20 8d3d c19a 853e
000003b0: 02fe 513f f2b7 563f 6c0d 103f 524d d83d
000003c0: c9ff 143f 1f9a abbe e3fb a03e b33c 8d3d
000003d0: 40ef 9c3e f0b9 a33d a3da 65bd 84e1 d93e
000003e0: c57c acbe ec41 02bf e234 8fbe 11de cebd
000003f0: f088 0cbf 4d17 8bbe 91c6 e53d 4666 87bc

network_body._body_endoder.seq_layers.2.bias f4 [128]
-0.004266862 -0.0015848874 -0.0008225404 -0.0014613508 0.0007023432 -0.0011663013 -0.00048399853 -0.00092331046
-0.00091989356 -0.0004381377 0.003443614 -0.0060970383 -0.0013144601 -0.0010495255 -0.0026156367 -0.00065978453
0.0019894599 -0.0022546537 -0.00109073 -0.00089756545 -0.0023981151 -0.0023282135 -0.0031404838 -0.0010506088
-0.0011274946 -0.0015305035 -0.003112791 -0.0018025705 -0.0008217443 -0.0010593059 -0.00030951746 -0.001130973
-0.0009298983 -0.001027027 -0.0017576708 -0.0047192625 -0.0006750039 -0.00072913524 -0.0011634161 -0.0011017967
-0.000557093 -0.00085236935 -0.001390505 -0.000498393 0.0053024753 0.0021314046 -0.00059548474 -0.00069818605
-0.0013877216 -0.00088364066 -0.0014039439 -0.0005369465 -0.00079769077 -0.0010123721 -0.00034431432 0.0004020448
-0.0014772292 -0.0026384923 -0.005728219 0.0004454965 -0.0031514668 -0.0012744332 -0.0013793152 -0.003758469
-0.00235751 0.0011811041 -0.0006942301 -0.00092814094 -0.0007099477 -0.00084502227 -0.005472553 -0.0012121759
-0.0028770056 0.0004907653 -0.0006352414 -0.0010247201 -0.001744839 -0.0013813686 -0.0029649108 -0.0012345352
-0.00021823913 -0.004909908 -0.0012726928 -0.0006728414 -0.0016942444 -0.00063824607 0.00096797134 -0.0022234395
0.0024244292 -0.0040492923 -0.0010419202 0.001623955 -0.0019066872 0.0031663002 0.001702545 -0.00017470654
-0.0026663498 -0.0029298225 -0.00075193384 -0.0029821033 0.002438112 -0.0012748998 -0.00021640117 -0.0011995987
-0.0007565756 0.00014643274 -0.0010586005 -0.0010927895 -0.0005282668 -0.001147301 -0.0027320145 0.002710936
-0.0009690274 -0.0021226322 -0.0010269603 0.0015039132 -0.0021489407 -0.0009954023 -0.0034938147 0.0008358739
-0.004632371 -0.0009120469 -0.0027791962 -0.001140545 -0.00039360987 -0.00019783963 -0.00080733723 -0.00011538475
00000000: 08d1 8bbb ffbb cfba c09f 57ba cc8a bfba
00000010: 741d 383a 94de 98ba 2fc1 fdb9 510a 72ba
00000020: 0325 71ba d9b5 e5b9 42ae 613b aac9 c7bb
00000030: f649 acba 3b90 89ba 1a6b 2bbb 64f5 2cba
00000040: 9961 023b d0c2 13bb d3f6 8eba 994a 6bba
00000050: b229 1dbb f194 18bb 93d0 4dbb 95b4 89ba
00000060: 71c8 93ba 2d9b c8ba f8ff 4bbb 3b44 ecba
00000070: 546a 57ba 68d8 8aba bb46 a2b9 283d 94ba
00000080: 6bc4 73ba 4f9d 86ba a561 e6ba 0ba4 9abb
00000090: bff2 30ba 7023 3fba c47d 98ba 2a6a 90ba
000000a0: e109 12ba 8a71 5fba 9b41 b6ba 97a6 02ba
000000b0: 63c0 ad3b 09af 0b3b 4e1a 1cba 7906 37ba
000000c0: 36e4 b5ba 1fa4 67ba 8a04 b8ba dfc1 0cba
000000d0: 1f1c 51ba 92b1 84ba 1685 b4b9 8ac9 d239
000000e0: 969f c1ba 8eea 2cbb c9b3 bbbb 8791 e939
000000f0: d788 4ebb e20a a7ba 23ca b4ba a550 76bb
00000100: 7480 1abb 47cf 9a3a fefc 35ba 7c4e 73ba
00000110: c91b 3aba 7c84 5dba 1a53 b3bb e0e1 9eba
00000120: 258c 3cbb b4a6 003a 5486 26ba e74f 86ba
00000130: 15b3 e4ba 0a0f b5ba f34e 42bb 21d0 a1ba
00000140: 1fd7 64b9 4be3 a0bb 7cd0 a6ba 9f61 30ba
00000150: 6911 deba f84f 27ba 75bf 7d3a 20b7 11bb
00000160: 2ce3 1e3b edaf 84bb 0a91 88ba e3da d43a
00000170: cee9 f9ba b481 4f3b ee27 df3a 6e31 37b9
00000180: edbd 2ebb 4402 40bb 6d1d 45ba 646f 43bb
00000190: bbc8 1f3b 8a1a a7ba bfe9 62b9 da3b 9dba
000001a0: ee54 46ba bd8b 1939 bdc0 8aba ee3b 8fba
000001b0: 637b 0aba 0961 96ba 990b 33bb f5a9 313b
000001c0: 5406 7eba dc1b 0bbb 129b 86ba f41e c53a
000001d0: 3ed5 0cbb 2978 82ba 7cf8 64bb 8c1e 5b3a
000001e0: 25cb 97bb 6e16 6fba 2d23 36bb 577e 95ba
000001f0: 6c5d ceb9 2c73 4fb9 7ca3 53ba b7fa f1b8

network_body._body_endoder.seq_layers.2.weight f4 [128, 128]
-0.054090977 0.0168693 0.12275525 -0.042723585 -0.054480527 0.040852234 -0.06904466 -0.006712388
0.020519767 -0.13945106 0.25186917 -0.02481023 0.124353394 -0.00864255 0.03395035 0.0957578
-0.017119097 0.04232241 -0.03745017 -0.1301766 -0.024837939 0.020279204 0.022975946 -0.08142246
0.0049302257 0.057992257 0.124521464 -0.040332537 0.07411695 0.1074643 -0.033786744 -0.08429291
-0.047101986 0.1891333 -0.043676216 0.12989306 0.01880433 -0.014614981 -0.089906394 -0.06150979
0.047621757 -0.10054557 -0.017071392 0.015317466 0.1316004 -0.01919409 0.015444745 0.022881698
-0.021925645 -0.100300506 0.010562081 -0.030370321 -0.07340024 -0.102362365 0.1438965 -0.013706156
0.07998021 0.054814942 -0.039745603 -0.14681067 0.028497696 0.015629442 0.06612785 0.04150311
-0.014355149 0.0021189346 0.19375475 0.012817198 -0.049356237 0.10080502 -0.109216474 -0.038125332
0.059353482 -0.06572325 -0.027692854 -0.045593675 0.091133565 -0.03124253 -0.10276325 -0.29344112
-0.056160554 0.055625092 -0.017987486 -0.041000567 0.06966729 0.17262189 -0.009687164 0.17227145
0.017680867 -0.011033885 -0.024773823 0.09854221 0.15188774 -0.104772806 -0.0056716087 -0.056543585
0.05974349 -0.08096545 0.08192171 -0.007305238 0.010851032 -0.052761145 -0.047296938 -0.048312083
-0.034738384 -0.097957194 -0.029880282 -0.083862945 0.12981547 0.08152163 -0.14796177 -0.04245877
0.13408034 -0.03065756 -0.0025639152 0.04916145 0.16233493 0.0137281995 0.0742442 0.019520774
0.0029321888 0.09974171 0.017930813 0.11819029 0.046730295 0.11070407 0.08805818 -0.1314113
-0.015375178 0.2423356 0.053871162 0.06507758 0.18035573 0.045326717 0.0651788 -0.027650872
-0.05558811 0.06286746 0.13080905 0.17835888 -0.06643631 -0.054669503 -0.08866692 -0.0022030557
0.10069511 0.10285572 -0.035326254 0.032042522 -0.044476993 0.05265858 -0.0227441 0.14757912
-0.049150255 -0.11884227 -0.12056224 -0.12660953 0.09883678 -0.009921161 0.03265785 -0.029960359
0.08268272 -0.010496559 0.116214596 -0.05661824 -0.022071099 -0.0546335 -0.0014846616 -0.0059850616
0.06036317 0.08281659 0.0436044 -0.036374394 0.02278681 -0.12900424 -0.037692048 0.10167333
0.15558624 0.023504168 0.008755367 0.011354911 -0.055943012 0.08159145 0.18295987 0.009692841
-0.079652034 -0.07604011 -0.06707077 0.19017933 -0.022077858 0.08636787 0.19757244 0.024740368
-0.06936865 -0.08921097 -0.013502834 0.035880398 0.12612388 0.027248912 -0.108194724 0.03916481
0.0917124 0.08428934 -0.030979311 -0.06734085 0.086479165 0.09915063 -0.06739044 0.009023491
0.19944458 -0.029541608 0.17572019 0.083728194 0.031431556 0.013950546 -0.18257685 0.09511842
0.062244672 -0.024703506 0.17118326 0.17132449 0.22509179 -0.10267048 -0.054604664 -0.09050422
-0.06136333 0.06476265 0.015775407 -0.0013147722 0.24564196 -0.08857434 -0.09146461 0.031986363
0.015392567 -0.031918775 0.036503598 -0.006436521 0.015835416 -0.02330548 0.10127682 -0.033857364
-0.020794697 -0.07340942 -0.08988486 0.041199807 0.053359408 -0.10185509 0.014531018 -0.09972419
-0.103605464 -0.06689106 0.13747534 -0.034251865 0.040868964 -0.060099363 -0.16012697 -0.15296419
00000000: 808e 5dbd 7c31 8a3c 1b67 fb3d edfe 2ebd
00000010: f926 5fbd ac54 273d 4967 8dbd 97f3 dbbb
00000020: 1219 a83c 42cc 0ebe fff4 803e d33e cbbc
00000030: feac fe3d 7b99 0dbc 860f 0b3d aa1c c43d
00000040: 593d 8cbc 435a 2d3d 5965 19bd 044d 05be
00000050: ef78 cbbc 9320 a63c 0d38 bc3c d2c0 a6bd
00000060: bb8d a13b 4a89 6d3d 1c05 ff3d bb33 25bd
00000070: a1ca 973d 3e16 dc3d f863 0abd c3a1 acbd
00000080: 03ee 40bd 29ac 413e d5e5 32bd b002 053e
00000090: 8a0b 9a3c ac73 6fbc d820 b8bd b1f1 7bbd
000000a0: 080f 433d d6ea cdbd 4ed9 8bbc 1cf6 7a3c
000000b0: 41c2 063e ed3c 9dbc f50b 7d3c 6672 bb3c
000000c0: 699d b3bc 5a6a cdbd 940c 2d3c 2ecb f8bc
000000d0: dd52 96bd 5ca3 d1bd 9b59 133e c98f 60bc
000000e0: aacc a33d a285 603d 49cc 22bd 8955 16be
000000f0: 0074 e93c 5109 803c 0a6e 873d 2aff 293d
00000100: dc31 6bbc d3dd 0a3b a567 463e 3aff 513c
00000110: c429 4abd dd72 ce3d e3ac dfbd 4f29 1cbd
00000120: a31c 733d e999 86bd 20dc e2bc 6fc0 3abd
00000130: 3ca4 ba3d 56f0 ffbc 8a75 d2bd ea3d 96be
00000140: 9c08 66bd 23d7 633d 7e5a 93bc 36f0 27bd
00000150: b9ad 8e3d cbc3 303e e9b6 1ebc ed67 303e
00000160: 77d7 903c 78c7 34bc 79f2 cabc 80d0 c93d
00000170: 7688 1b3e 2093 d6bd e7d8 b9bb 3f9a 67bd
00000180: 97b5 743d 37d1 a5bd 92c6 a73d c760 efbb
00000190: 87c8 313c 121c 58bd 6fba 41bd e4e2 45bd
000001a0: d649 0ebd c89d c8bd 7ec7 f4bc 56c0 abbd
000001b0: 59ee 043e d0f4 a63d 4a83 17be 3fe9 2dbd
000001c0: 5b4c 093e 9025 fbbc 5c07 28bb 845d 493d
000001d0: 213b 263e 3eec 603c 580d 983d 08ea 9f3c
000001e0: f729 403b 6245 cc3d a4e3 923c c00d f23d
000001f0: 4468 3f3d d1b8 e23d d957 b43d af90 06be
00000200: 2ce8 7bbc d326 783e 02a8 5c3d 6547 853d
00000210: 2caf 383e 82a8 393d 767c 853d 1584 e2bc
00000220: 5cb0 63bd a8c0 803d cff2 053e b6a3 363e
00000230: c30f 88bd 21ed 5fbd 0197 b5bd 2461 10bb
00000240: 3d39 ce3d 05a6 d23d 43b2 10bd 053f 033d
00000250: 822d 36bd 86b0 573d d651 babc fb1e 173e
00000260: c751 49bd 9363 f3bd 56e9 f6bd eea5 01be
00000270: f06a ca3d 5e8c 22bc 3dc4 053d 6d6f f5bc
00000280: 8f55 a93d c2f9 2bbc eb01 ee3d 87e8 67bd
00000290: 73ce b4bc 60c7 5fbd fa98 c2ba 561e c4bb
000002a0: 5f3f 773d bf9b a93d 879a 323d 51fd 14bd
000002b0: 67ab ba3c b019 04be fa62 1abd 1b3a d03d
000002c0: 0052 1f3e d08b c03c ac72 0f3c f309 3a3c
000002d0: 8024 65bd 6b19 a73d d559 3b3e b9ce 1e3c
000002e0: 9b20 a3bd ebba 9bbd 665c 89bd 5fbe 423e
000002f0: a0dc b4bc a3e1 b03d 6e50 4a3e 50ac ca3c
00000300: 2711 8ebd 3eb4 b6bd fe3a 5dbc 53f7 123d
00000310: 9e26 013e 1c39 df3c 3295 ddbd 486b 203d
00000320: b6d3 bb3d e49f ac3d 53c8 fdbc 00ea 89bd
00000330: fd1b b13d 7c0f cb3d 0004 8abd 44d7 133c
00000340: 333b 4c3e 3e01 f2bc feef 333e b079 ab3d
00000350: 60be 003d d590 643c 6df5 3abe 72cd c23d
00000360: 45f4 7e3d 025f cabc aa4a 2f3e b06f 2f3e
00000370: 767e 663e e744 d2bd 24a9 5fbd 475a b9bd
00000380: 1d58 7bbd 48a2 843d 6d3b 813c 6f54 acba
00000390: 9189 7b3e 7766 b5bd cc51 bbbd 2204 033d
000003a0: 1b31 7c3c 43bd 02bd cc84 153d 74e9 d2bb
000003b0: 46b9 813c 22eb bebc 396a cf3d 05ae 0abd
000003c0: a459 aabc ae57 96bd 8e15 b8bd 21c1 283d
000003d0: 658f 5a3d 6799 d0bd 8213 6e3c 323c ccbd
000003e0: 1a2f d4bd 2efe 88bd 56c6 0c3e af4b 0cbd
000003f0: 3766 273d c02a 76bd 53f8 23be a5a2 1cbe
