MLA_Lab4/results/Economic/Economic/Economic-33576.pt (torch, 453647 bytes, 39 tensors)

network_body._body_endoder.seq_layers.0.weight f4 [128, 8]
000000 11 b5 14 bf 46 a9 06 39 b5 f7 98 3d b0 0f c1 be
       -0.58088785 0.00012842295 0.07469121 -0.3770728
000010 ef 02 67 bd fb f5 1e 3f ea f8 e6 3c bf a1 52 3e
       -0.056399282 0.62094086 0.028194863 0.20569514
000020 01 45 7b 3d b2 a8 01 3e 01 fa 01 bf 6a 53 55 bd
       0.061345104 0.12662008 -0.507721 -0.052081503
000030 bb 2a 57 3d 67 89 04 bf 17 1f c9 3e 28 a2 78 bb
       0.052530985 -0.5177216 0.39281532 -0.003793845
000040 c5 6a 36 be 7e 84 87 3d 2c 71 e1 3e d2 8c 15 be
       -0.17814167 0.06617068 0.44031656 -0.146045
000050 44 96 80 3e cf 37 0f be 2b 83 27 3f a1 99 b6 3d
       0.25114644 -0.13986133 0.6543452 0.08916021
000060 bf a2 9d 3e de 60 24 3d 18 8f 98 be 16 1c c7 3b
       0.30788228 0.040131442 -0.29796672 0.006076346
000070 04 e0 1b bf aa 45 21 be c7 48 05 be e1 3d 90 be
       -0.60888696 -0.15749231 -0.13016044 -0.2817221
000080 fd d2 e9 be 53 92 8d be 02 70 a4 3e 23 2a cc bd
       -0.45668784 -0.276507 0.32116705 -0.099689744
000090 f5 80 89 3e 9d dc b9 be 71 0d 81 be 34 35 5f 3d
       0.268562 -0.36301127 -0.25205567 0.054494098
0000a0 39 45 0a bd cb b0 08 bd 4a dd ef be 5a f5 aa 3d
       -0.033757422 -0.033371728 -0.46848518 0.08347578
0000b0 7a ac fb bd 64 0a 49 be 5c 55 71 be 12 91 b2 3e
       -0.12288757 -0.1963287 -0.23567718 0.34876305
0000c0 9b a0 d4 be c8 de c4 bd 88 e2 0a 3e ba 1e e1 be
       -0.41528782 -0.09612805 0.13562977 -0.43968755
0000d0 53 aa 93 3e 71 45 c1 bd 53 a6 9e bd 06 da 1e 3e
       0.28840885 -0.09437073 -0.077465676 0.15512857
0000e0 fd e6 12 3f 91 6a 34 bb a7 a2 c0 bd ef c3 23 3f
       0.5738371 -0.002752934 -0.094060235 0.63970846
0000f0 b1 19 49 bd c2 fb 02 3e bf ac 4d bf 15 1c 10 bf
       -0.049096767 0.1279135 -0.80341715 -0.5629285
000100 5a 68 62 bf 8d 90 24 bf 6f b0 3f bd bd 6f d3 3c
       -0.8844048 -0.64283067 -0.04679912 0.025810117
000110 04 9c 2a 3e 1c 05 6b 3e 96 8c 59 bf f7 b8 bf bd
       0.16661078 0.22951168 -0.8498014 -0.09361451
000120 4c 22 8b be 5d c3 e8 3e 98 a6 2d 3f 28 53 fb 3e
       -0.27174604 0.4546155 0.67832327 0.4908688
000130 d0 ea ae bd 34 c3 30 bc 6c 97 23 bf 2a 5b 81 3e
       -0.08540881 -0.010788728 -0.63902926 0.25264865
000140 52 f2 3b 3f 4a 77 05 bd 17 28 81 3e ad 5c c0 bd
       0.73416626 -0.032584466 0.252259 -0.093926765
000150 89 ef 25 bd 61 dc 15 3e c3 64 5d 3e 7e b2 dc be
       -0.04051164 0.14634849 0.21620469 -0.4310493
000160 a7 db e5 be c5 a6 0b bf 51 a7 d9 3d 12 72 02 bf
       -0.44894144 -0.54551345 0.10627616 -0.5095531
000170 a4 e1 62 bd 34 a8 f6 be a5 f5 82 be 43 82 a6 be
       -0.05539097 -0.48175204 -0.25578037 -0.32521257
000180 00 56 d4 3d 3a 31 64 be bb ef 88 be 75 62 23 be
       0.10367966 -0.22284403 -0.267454 -0.15955527
000190 09 cd d5 3e 89 24 20 be 7f 61 a2 be ae ca 17 3e
       0.41757992 -0.15638937 -0.3171501 0.1482341
0001a0 3d 55 52 be 7d 9d 1c 3f a6 52 14 3e 86 50 1a 3f
       -0.20540328 0.6117781 0.14484653 0.6027912
0001b0 43 20 d6 be 57 05 aa be 55 c8 b8 bd 79 b2 f7 3e
       -0.4182149 -0.332072 -0.09022585 0.4837835
0001c0 8a a5 33 3d d9 73 b4 3e 06 ca e0 bc 37 81 06 3f
       0.043859042 0.35244635 -0.027440082 0.52540916
0001d0 1c 74 17 bf b0 1c 79 bc 8c 48 91 be 6a 13 9b bd
       -0.59161544 -0.015204594 -0.2837566 -0.07572062
0001e0 bd 4b 85 3d 2e 4d 75 3e 79 03 55 3d 87 04 1f 3d
       0.065085866 0.23955223 0.052005265 0.038822677
0001f0 0b b4 83 be 70 4e 69 be ab c4 82 3e 05 a9 04 3e
       -0.257233 -0.22783828 0.2554067 0.12955101
000200 96 bb 69 3c ad 5a e1 3e 62 70 b8 be 7c 69 25 be
       0.014265915 0.44014493 -0.3602324 -0.1615352
000210 5b 1d e1 be 03 49 aa 3e f7 b9 12 3f 41 9a b4 3e
       -0.4396771 0.3325883 0.5731501 0.35273936
000220 64 b0 58 bf 99 c6 10 be 1f 78 ba 3e 83 3e c1 bc
       -0.8464415 -0.14138259 0.3641977 -0.023589378
000230 51 46 81 be c5 9e b4 3e fe 87 b9 3c b7 c5 2f 3f
       -0.2524896 0.35277382 0.022647854 0.68661064
000240 17 3a 9e 3e bc 7a 49 bd bf 83 04 3f d3 8f 5f 3e
       0.30903694 -0.049189314 0.5176353 0.21832208
000250 1b 38 a0 be 2c 9b a8 bd 34 32 56 be d6 06 cf 3e
       -0.31292805 -0.08232722 -0.20917588 0.40434903
000260 78 85 94 3e d0 98 47 3f 87 a6 65 be ca b1 96 3e
       0.2900808 0.7796755 -0.22426806 0.29432517
000270 ec 06 f2 be 46 e7 5c 3e 26 fa 9d be 77 21 a0 3e
       -0.47270906 0.21572599 -0.3085491 0.31275532
000280 55 d7 d4 3e be 83 90 be 45 65 4a 3f 1f 49 89 be
       0.41570535 -0.2822551 0.79060775 -0.268136
000290 d3 8d 61 3e 84 1f 00 bd cd 72 d2 be 1f cb c4 3e
       0.22026758 -0.031280056 -0.4110321 0.3843622
0002a0 e2 2b cf 3d d6 25 2d 3f bc e7 08 be ee 75 0a bd
       0.10115792 0.6763586 -0.1336965 -0.033803873
0002b0 b2 d6 82 bd 01 1a 9e 3d d5 81 f1 be b6 b7 ab 3e
       -0.06388606 0.077198036 -0.47169366 0.33538598
0002c0 d0 3c bf bd 1e 93 bc be cf 70 51 bd c2 d0 da bd
       -0.09337771 -0.36830992 -0.051132973 -0.10684349
0002d0 e8 e6 20 bf a0 b4 fc be 62 5a 1d 3d 5f fb 8c 3e
       -0.62852335 -0.49356556 0.038416274 0.2753553
0002e0 7e 47 85 3c a6 8a 3a 3f 98 45 70 bd 6d 9a 9c bd
       0.016269442 0.7286781 -0.05866012 -0.07646642
0002f0 a9 f2 22 ba 47 e9 c8 be 0a 8c 01 bf 93 24 94 be
       -0.0006215969 -0.39240476 -0.5060431 -0.28934154
000300 ca 49 86 bd c3 88 bd 3e dc 8c dd be ad 25 21 3f
       -0.06557043 0.37018403 -0.4327153 0.62948114
000310 36 ae 39 bd c1 b7 5b be 62 de 0f bf 7a 64 22 3c
       -0.045332156 -0.21456815 -0.56198704 0.009911651
000320 92 4d 0b 3f f6 2b cd bd f8 68 55 3e 98 3f d3 3d
       0.5441524 -0.100181505 0.20840824 0.10314864
000330 14 20 ee 3d 03 5b 16 3f 1a fd 10 be 64 20 3b bf
       0.11627212 0.5873262 -0.1415905 -0.730963
000340 fd 14 2a 3e 58 8d 73 be f6 02 df bc ef 6d 84 3e
       0.16609569 -0.23784387 -0.027223092 0.25865123
000350 fb 52 80 3e 1c 16 8f be 8c e1 42 3f 9e ef 23 bd
       0.2506331 -0.27946556 0.7612541 -0.04002344
000360 2b 3a 41 3f 62 77 b6 3e bd be fa 3d d7 6c 8d be
       0.7547938 0.35637957 0.12243412 -0.276221
000370 86 ab ad bc f9 94 25 3f e0 0a f0 3e 3d 82 8f bd
       -0.021199953 0.6468044 0.46883297 -0.07007263
000380 3e 92 32 3e 38 3d 9c 3e 94 35 31 bf 1c 13 4d 3d
       0.174386 0.30515456 -0.6922238 0.050067052
000390 91 86 21 3d 24 17 ac be 84 16 f0 be e2 d8 80 bd
       0.039434973 -0.33611405 -0.46892178 -0.06291367
0003a0 ad e8 a0 be 5b f4 e4 be 49 fa b3 be 93 29 e2 bc
       -0.31427518 -0.44717678 -0.3515189 -0.027607715
0003b0 02 17 1a be dc 85 24 be eb 81 ea 3e 6b 1f 95 be
       -0.1504784 -0.16066688 0.45802245 -0.29125533
0003c0 c0 87 a0 3d e7 2b 7e 3e 80 2d 3c 3e 41 b4 77 3e
       0.07838392 0.24821435 0.18376732 0.24189855
0003d0 64 86 10 bf 70 d9 c5 bf aa d0 19 3f fe 92 5a be
       -0.56455064 -1.5456982 0.6008402 -0.21345136
0003e0 4b b6 55 bf 0d 69 d6 be 10 04 3f 3f af f4 37 3e
       -0.8348128 -0.41877022 0.74615574 0.17964433
0003f0 57 1a 2d bd f2 fe 03 be 07 ad 11 3f 70 d9 00 3f
       -0.042261448 -0.12890223 0.56904644 0.50331783

network_body._body_endoder.seq_layers.0.bias f4 [128]
000000 96 fd ac bb c3 c1 f0 39 81 87 9c ba 8e 5c a0 ba
       -0.0052792532 0.0004592073 -0.0011942239 -0.0012234615
000010 ab 0a 58 bb ae 7b 26 3a 90 2c 98 3b 14 a4 bd ba
       -0.0032965343 0.0006350827 0.004643984 -0.0014468455
000020 df 28 2f 39 34 64 a9 b9 a1 85 43 bb 9d 94 0c 3b
       0.00016704526 -0.0003230885 -0.0029834288 0.0021450885
000030 5a ef 87 3b 5f aa b0 b9 ed cf d5 b8 09 97 09 37
       0.004148406 -0.00033696272 -0.00010195361 8.201002e-06
000040 bd 3b 67 bb ed 09 f8 39 b2 41 f1 3a 34 26 de b9
       -0.003528341 0.0004730964 0.001840642 -0.00042371603
000050 6f 0b 15 bb 9a 1d 45 3b da 3e 1f 3b 8a 3b 8b 3a
       -0.002274241 0.0030077458 0.0024298937 0.0010622602
000060 ad a3 68 38 3a 23 21 ba ac da d3 39 8a f0 ee ba
       5.5465545e-05 -0.0006146912 0.0004040798 -0.0018229645
000070 e3 5c 7b ba 9d 5d 65 ba c4 6e b5 ba 55 3e 88 b9
       -0.00095887313 -0.0008749606 -0.0013842215 -0.00025986382
000080 81 9d a1 3a 94 97 53 3b 9f c9 18 bb db 6e 5b 3b
       0.0012330265 0.0032286393 -0.0023313535 0.0033482823
000090 e6 cb cd ba 8b 89 01 3b 21 dd 54 b8 ae b0 a7 3b
       -0.0015701025 0.001976582 -5.075068e-05 0.0051174974
0000a0 2a 35 98 ba 8d 4e d6 b9 e5 44 c2 ba 96 c9 9a 3a
       -0.0011612524 -0.00040875786 -0.0014821558 0.0011809345
0000b0 38 f2 da bb 7e ba a5 ba ae bf fb b9 f5 7a 8e 3b
       -0.0066817068 -0.001264408 -0.00048017263 0.0043481537
0000c0 48 75 1c 3b bb e6 11 ba d1 9a c2 3a 3f ed ac bb
       0.0023873616 -0.00055656926 0.0014847164 -0.0052773054
0000d0 43 1e c8 ba a3 03 bb 3b 8f 5a 6a bb 4e db 71 ba
       -0.0015267808 0.0057072206 -0.0035759544 -0.00092260994
0000e0 9b f7 67 3a 72 68 42 3a 70 6b c5 ba d2 a4 4e ba
       0.0008848847 0.0007416076 -0.0015061926 -0.00078828365
0000f0 8e fd 4b 39 01 ee 48 37 8b 07 ae 3b 13 8c 7e ba
       0.00019454045 1.1976344e-05 0.005310958 -0.0009710204
000100 aa 93 a1 3a 52 26 49 3a e3 a1 e6 b9 3c 51 23 ba
       0.0012327333 0.00076732517 -0.00043989634 -0.00062300614
000110 54 fe 97 3b 52 04 b4 ba ac 28 22 38 b7 8c 9c bb
       0.0046384726 -0.0013734198 3.866169e-05 -0.0047775167
000120 a2 f7 07 3a 99 0e c1 b9 ba 14 7c bb 32 81 89 39
       0.00051867415 -0.00036822705 -0.0038464502 0.00026226934
000130 f7 cd 79 39 6e d9 0e 3a 1a 36 a9 39 87 92 a9 bb
       0.00023823218 0.00054492697 0.000322745 -0.005174938
000140 1e b8 62 39 6c 7d b5 3b 27 5a 48 3a 19 81 0c b9
       0.00021621629 0.005538633 0.0007642828 -0.00013399533
000150 b0 5b cd bb 72 3f af 3a a2 a0 5b 3a eb 84 cf ba
       -0.0062670335 0.0013370349 0.0008378123 -0.0015832459
000160 1c 52 7e 3b 32 a9 14 ba 44 59 ec 3a 89 7f 06 3b
       0.0038806265 -0.0005670964 0.0018031974 0.0020522794
000170 5e 9f c8 3b 48 34 a5 ba 5c 29 96 b9 ac 31 09 ba
       0.0061225137 -0.0012604082 -0.00028641045 -0.0005233537
000180 ba f8 b0 3b 88 fc a9 b9 f9 ad 45 3a a5 c1 44 3a
       0.0054007443 -0.00032422342 0.00075408776 0.0007505662
000190 87 38 6a 3b 59 42 00 ba 7b 1e 45 bb 81 79 1e b9
       0.003573926 -0.0004892699 -0.0030077982 -0.00015113318
0001a0 a8 f3 79 bb be 1f 49 bb f6 88 23 3a a7 fe 84 39
       -0.0038139615 -0.0030689086 0.00062383653 0.00025366733
0001b0 bf 63 b8 3b 9b 28 a2 ba 52 db 8f b9 bb d4 a3 38
       0.005627125 -0.001237172 -0.00027438492 7.81207e-05
0001c0 cb fc 03 ba 61 0a 1d ba 41 73 87 3b a9 1e 95 ba
       -0.00050349225 -0.0005990621 0.0041336124 -0.0011376935
0001d0 65 1c 53 3b 11 d0 1f b8 3f 33 19 3a 83 d8 fe 39
       0.003221297 -3.810233e-05 0.0005844123 0.0004860797
0001e0 83 c0 18 3a c9 cd 56 3b bd 6a 60 ba be 19 bc bb
       0.00058270263 0.0032776466 -0.0008560827 -0.0057403734
0001f0 54 ff 88 3b 26 c3 c3 3a 02 23 cf b9 0e 08 f6 39
       0.004180828 0.0014935478 -0.000395082 0.00046926778

network_body._body_endoder.seq_layers.2.weight f4 [128, 128]
000000 00 5d bd 3d f5 99 23 3d 56 60 fb bb 7a f2 38 3d
       0.09246254 0.039941747 -0.0076713962 0.04515312
000010 9d c4 51 bd 68 f7 02 3e 63 1c a0 bd cb 1c 94 bd
       -0.051212896 0.1278969 -0.07817914 -0.07232054
000020 9d 6a ee 3c af 7c f8 bd e8 e8 a7 bd 6d d7 39 3e
       0.029103572 -0.121331565 -0.0819872 0.18148585
000030 5a 62 f0 3c 1d d2 af bc c9 99 f8 3c 98 6e 11 3e
       0.029343773 -0.021462495 0.030346768 0.14202344
000040 d2 bd 8a bd a2 a2 0e 3d fa dd e0 3d 9b 63 97 3d
       -0.067744866 0.034823067 0.10979839 0.07392045
000050 1f 01 80 3d 01 a4 92 bb d0 bb 1d 3e e4 fa b6 3d
       0.06250214 -0.004475117 0.15403676 0.08934572
000060 5e 3e 3e bc d9 f4 ff 3c 18 48 12 3d 25 2e 0e bd
       -0.011611549 0.031244682 0.035713285 -0.034711976
000070 59 d9 af 3c da 20 ad bd 6a f1 41 be cb 6c ae bd
       0.021465944 -0.084535316 -0.18939748 -0.08516844
000080 b9 4e b0 3d e3 41 dc bc e7 d6 de bd 4a f5 8d bd
       0.08608765 -0.026886886 -0.10880833 -0.06931551
000090 12 0e 9e 3d 28 26 bf 3d 69 5b 8f 3d 7b 65 c9 3d
       0.077175274 0.093334496 0.06999857 0.09833809
0000a0 70 69 46 bc 39 2c 88 bc 98 6d a9 3c e0 35 6b 3c
       -0.012110099 -0.01662265 0.020682141 0.0143561065
0000b0 95 4b 2a bd 8f 26 f7 bc 8b c8 dd bd c7 05 fb 3c
       -0.041575987 -0.030169753 -0.10829266 0.030642403
0000c0 8e 84 15 3d bf fd 32 3a 06 4f 6a be 57 cb d5 bd
       0.036503367 0.0006827972 -0.22881708 -0.104391746
0000d0 db 8e b5 3d 3b 3b 10 3e 4d 08 6c bd 71 4f 95 3c
       0.08865138 0.14085095 -0.057625104 0.018226357
0000e0 c1 a9 1f bb f4 c8 e8 bc 73 87 de bb e0 de c8 3d
       -0.0024362656 -0.028416134 -0.006791049 0.09808135
0000f0 6f db 15 bd a1 4f f2 bd 96 bf a8 bc 15 c4 1b 3e
       -0.03658622 -0.11831594 -0.020599168 0.15211518
000100 0a a2 5d bd 8c 94 50 bd f3 6c 00 3e 95 fa 49 bd
       -0.05410961 -0.050922915 0.12541561 -0.04931124
000110 37 c7 10 bd 10 5e 3e bd ab 91 35 bd e6 26 9b 3d
       -0.035346236 -0.046476424 -0.044328373 0.07575779
000120 fe 3b 7a 3d 86 d4 b7 3c b3 47 25 bd f4 d2 55 3d
       0.06109237 0.022440206 -0.04035158 0.052203134
000130 5a 04 50 39 ca 7e c9 3b 05 d5 38 3c 3c 0b 88 3d
       0.00019838047 0.0061491476 0.011281257 0.06642768
000140 79 61 89 bb 30 7b 29 be c8 c0 97 bc 3d 28 70 3d
       -0.004192528 -0.16550899 -0.018524542 0.058632124
000150 4a c0 0c be a7 d7 70 bd 77 be 4f 3d b5 41 0a be
       -0.13745227 -0.058799412 0.05071875 -0.13501628
000160 63 6c 91 3d a5 38 4b be da 6b ed 3c b3 9e d0 3d
       0.07100751 -0.19845827 0.028982092 0.101865195
000170 a0 bb ab 3c cc 3d 2a 3e 11 1c 12 bc 6f f6 81 3d
       0.02096349 0.16625136 -0.008917824 0.063458316
000180 43 bd 01 3e 81 d0 10 3e 2b 41 51 bd 5b c8 8c bd
       0.12669854 0.14142038 -0.05108754 -0.06874152
000190 0b 8d 50 3d 15 a3 a0 3d 3e 1d f1 bd 11 c4 2d 3e
       0.05091576 0.078436054 -0.11773156 0.16969325
0001a0 57 24 d2 bb 0d f0 a2 bc 6e 86 78 3d 8b 81 df bc
       -0.0064130235 -0.019889856 0.060675077 -0.02728345
0001b0 45 3e 25 3d 40 6d 19 3e 33 7f 88 ba 77 a4 9d 3d
       0.040342588 0.14983082 -0.0010413885 0.07697385
0001c0 c2 d0 45 3d 43 ae 93 bd 3a ec 9e bd 35 11 f7 bc
       0.04829479 -0.07210972 -0.077599004 -0.030159572
0001d0 68 00 2e 3c 9d fd 49 bd 44 66 e2 bc b7 96 28 bd
       0.010620214 -0.04931413 -0.027636655 -0.041159358
0001e0 59 e4 6a bd 3f d4 5a bd 15 a7 7f bc 40 48 f8 bc
       -0.057346676 -0.05342507 -0.0156038 -0.030307889
0001f0 3f cd 4c 3d 8a 43 b8 3c 93 85 62 3c de 74 68 bd
       0.050000425 0.022493143 0.013825792 -0.05675208
000200 83 0d fc 3d 36 10 15 3e fd 83 2c 3c 80 00 20 bc
       0.12307265 0.14556965 0.010529515 -0.009765744
000210 72 9e 09 3e 90 81 73 3d 7b 84 f6 bd a4 ea d0 3d
       0.13439348 0.059449732 -0.120369874 0.10201004
000220 f2 b4 fa 3d f4 37 8e 3e 03 86 a1 3d 19 74 93 3d
       0.12241544 0.27777064 0.07886889 0.07199878
000230 fc aa 26 bd 53 bc bb 3c a3 30 02 3b ea 50 3a 3d
       -0.040690407 0.022916948 0.0019865416 0.045487322
000240 08 3e 22 bd cd f5 e6 bd 45 26 be bc b3 13 09 3e
       -0.03960994 -0.112773515 -0.023211608 0.13386421
000250 b8 e0 22 be 74 d0 ac 3d 5c c1 5f bd d7 64 1a 3c
       -0.15906036 0.08438197 -0.05462776 0.009423456
000260 56 30 8f bc 98 02 11 3e 45 73 a6 3c 60 f5 1e 3d
       -0.017479103 0.14161146 0.020318637 0.038808227
000270 d7 a3 22 3e 20 5f 0c bd ed d3 93 3d 9b 84 ed bd
       0.15882812 -0.034270406 0.07218156 -0.11597558
000280 3c 9a 25 bd 41 a0 37 3d b4 ea 96 3d 3b 33 fd bd
       -0.040430292 0.044830564 0.07368985 -0.12363287
000290 ea 9c 6b 3e 56 6c 32 3d 7e 74 2b 3d 05 58 d9 3c
       0.23009077 0.04356035 0.041859142 0.026531229
0002a0 7c 04 3a 3e 99 4d 99 3c af 40 2a bd ff 27 b6 bd
       0.18165773 0.01871376 -0.041565593 -0.088943474
0002b0 4b 58 48 3d 7f 26 70 be 73 bb 9c 3c 11 c8 93 bd
       0.048912328 -0.23452185 0.019132352 -0.07215894
0002c0 9f f3 35 bc 1a 3f 8e be 4c 25 e3 bd c4 b7 3a be
       -0.011105447 -0.27782518 -0.11091098 -0.18234164
0002d0 4e 80 3e be 89 92 97 bb 1a 8c 50 bd 23 58 54 bd
       -0.18603632 -0.0046256226 -0.05091486 -0.051841866
0002e0 0a fc 5b bd e4 d3 cd bc e3 bd ca 3d 9b 0b 08 be
       -0.05370716 -0.025125451 0.09899499 -0.13285677
0002f0 79 95 0b 3d 44 85 bd bc a9 13 c2 bc 69 65 e4 bc
       0.034078095 -0.023134835 -0.023691015 -0.027880387
000300 e8 fa 27 3b a3 5c 85 bc ed 6c c5 bc 27 6a c2 bd
       0.002563173 -0.016279524 -0.024099791 -0.09492903
000310 68 98 8e 3d 73 f2 13 3e 81 af 1e 3d 35 6a 9a 3d
       0.06962663 0.14447956 0.038741592 0.07539789
000320 b8 eb ea 3d 42 0f 7f 3c fb a9 35 3e fc ec fe 3d
       0.11470741 0.015567603 0.17740624 0.12447545
000330 75 3e 6c bd 26 6b 91 bd f4 4a fe bd 8d d4 98 3d
       -0.05767675 -0.07100515 -0.1241664 0.07462416
000340 78 0d 29 bd 24 d0 4d bd cc 9e 1c be 19 a0 8c bd
       -0.04127261 -0.050247326 -0.15294951 -0.06866474
000350 00 fb 86 bd 79 30 a6 bd 00 7e 4c bd bd ba 1b 3e
       -0.06590843 -0.08114714 -0.04992485 0.15207954
000360 14 19 3c be 3e 71 5e 3d dc 0a 78 bd ec 29 c9 bd
       -0.18368942 0.054307215 -0.06055723 -0.09822449
000370 c3 fd 84 3d 36 75 08 bd c4 fa 8b 3b 6e 49 d9 3d
       0.06493714 -0.033314906 0.004271837 0.10609709
000380 4c 7f 9f bc 6c 68 90 bc 03 8a b8 3d ca 25 8b 3d
       -0.01946988 -0.017627917 0.09010699 0.06794317
000390 15 8f e1 bc 7a b0 bd 3d 7c cd aa 3d 18 ad e0 3d
       -0.027534047 0.09262176 0.08339974 0.10970515
0003a0 71 06 6e 3d 52 8b 36 bd d1 b2 19 3c 25 3e 1c 3c
       0.05811161 -0.04456646 0.009381012 0.009536301
0003b0 71 e2 84 bd d5 a7 21 3d ad 58 03 bd 24 b9 db 3d
       -0.06488503 0.039466698 -0.03206699 0.10728672
0003c0 73 cf 40 bb 35 97 87 3d ec b9 81 bd 5b 61 b3 3d
       -0.0029420524 0.06620637 -0.0633429 0.087588035
0003d0 22 c4 e9 bb 82 5d 5e bd 22 ed 27 3d c3 a7 87 bc
       -0.0071339766 -0.054288395 0.04099763 -0.016559487
0003e0 db 68 3a 3c f2 3b a2 bd 74 f1 88 bd 48 b2 9d 3d
       0.011377539 -0.0792159 -0.066866785 0.0770002
0003f0 3f fa 65 3d 39 38 b0 bd 95 09 2b 3e 73 29 17 3b
       0.056146856 -0.086044736 0.16702874 0.0023065477

network_body._body_endoder.seq_layers.2.bias f4 [128]
000000 f3 20 1b 3b 4a f8 cc 39 d9 8e 56 3b 0a 7c 14 bb
       0.0023670762 0.00039094902 0.0032738952 -0.002265694
000010 a5 8c 4b bb 9a d9 ac b9 ef d1 67 bb fa 0b c0 ba
       -0.0031059172 -0.00032968522 -0.0035372933 -0.0014652007
000020 68 ec e5 3a 94 57 03 3a ba ec f8 b7 8a 26 57 ba
       0.0017541768 0.00050103036 -2.9674138e-05 -0.0008207342
000030 01 75 c8 bb 5f d2 8a 39 56 a4 45 b8 24 90 a1 bb
       -0.0061174636 0.0002647815 -4.712151e-05 -0.004930513
000040 da 9e 5f bb 67 ae f9 3a 79 36 c5 bb 88 d9 9d 38
       -0.0034121783 0.0019049168 -0.0060184565 7.526862e-05
000050 04 fa 9d 3a bc a1 b3 3a 84 fd f8 ba 1c f5 8d 3a
       0.001205266 0.0013704817 -0.0018996452 0.0010830495
000060 b3 d5 3d 3b f8 98 35 bb fd dc a9 b9 75 ef 0d bb
       0.0028966486 -0.0027709585 -0.0003239884 -0.002165762
000070 32 61 5a 39 54 ad d2 b9 cc 40 56 bb 32 6f 87 3b
       0.00020826308 -0.0004018346 -0.003269243 0.0041331286
000080 09 48 75 3a d6 c5 9a 39 2a 8b 59 3b fa f8 90 ba
       0.00093567424 0.00029520568 0.003319452 -0.0011060529
000090 74 fb 19 3b a8 02 b5 3a 00 7a a8 3b 3a e4 1a b9
       0.0023495825 0.0013809996 0.0051414967 -0.00014771605
0000a0 c4 15 22 bb cc 49 16 bb 46 a6 b9 3a 35 91 e7 ba
       -0.0024732212 -0.002293217 0.0014163933 -0.0017667176
0000b0 43 ee 71 bb e0 ca f9 39 f3 d5 a8 3a 8d bb ca b9
       -0.0036915697 0.00047644135 0.0012881145 -0.0003866818
0000c0 67 3b 33 ba 26 46 ac 3a 9a 2e 68 ba e1 4d b7 b9
       -0.000683716 0.0013143464 -0.0008857042 -0.00034962504
0000d0 03 97 63 ba 73 40 17 3b 19 a3 75 bb 4f 83 a7 bb
       -0.00086818653 0.0023079186 -0.0037481247 -0.0051120888
0000e0 98 ea 73 bb 00 8d aa 3b eb 21 71 b9 42 7a eb 38
       -0.0037218686 0.005204797 -0.00022996186 0.000112284455
0000f0 d6 60 32 39 50 6d 1e ba cb 21 5a ba ff 0e 92 3a
       0.00017011477 -0.00060435105 -0.00083210756 0.0011143385
000100 1b 7e 5a 3a 74 7d 20 ba 4b 18 34 3a c3 ef 9c ba
       0.0008334831 -0.00061222096 0.0006870075 -0.001197331
000110 74 a5 39 ba 3e 94 30 39 ce f5 45 b7 5a 8d 2a ba
       -0.00070818444 0.00016839892 -1.1799346e-05 -0.00065060484
000120 98 a4 3c ba 95 87 07 3b bc 10 7c ba 68 ae 8b ba
       -0.0007196157 0.0020680178 -0.0009615531 -0.0010656836
000130 ae 6f 15 ba 64 c3 85 ba 24 d5 b3 ba 22 73 9b bb
       -0.00057005405 -0.0010205326 -0.0013720137 -0.0047439495
000140 42 b7 0e 37 d9 41 6a b8 14 10 b7 b9 cb 6a f3 ba
       8.506528e-06 -5.5851273e-05 -0.0003491646 -0.0018571255
000150 8d 3f 46 3b 2a 17 cc ba d1 7a 86 bb 5d 1c ce 39
       0.0030250282 -0.0015570868 -0.0041039963 0.00039312514
000160 11 be 11 bb e6 37 56 39 4a fb 6d bb 9d 75 b7 ba
       -0.0022238533 0.00020429454 -0.003631311 -0.0013996843
000170 33 f0 f9 39 f6 21 61 3a 3d ae b7 38 76 c8 ae 3a
       0.00047671943 0.00085881294 8.7585744e-05 0.0013334888
000180 c7 ad 29 3b 51 9b 38 bb 2e 26 ab bb b8 23 05 bb
       0.0025890933 -0.0028168748 -0.005223057 -0.002031548
000190 cb 4e 0e bb 52 0e 89 38 c9 f8 ae 3a 8a d0 83 3a
       -0.0021714445 6.5353364e-05 0.001334929 0.0010056656
0001a0 fb e3 47 ba ab e4 0c bb 01 65 46 bb a5 3d 59 3b
       -0.00076252193 -0.0021498601 -0.0030272605 0.0033148315
0001b0 b0 f5 85 bb 9c b6 56 bb e8 47 9f 3a b3 24 61 ba
       -0.004088126 -0.0032762652 0.0012152167 -0.00085885375
0001c0 de ec b9 38 3c 2d 85 ba 66 7d 46 b9 b3 6c 08 ba
       8.8656074e-05 -0.0010160576 -0.00018929466 -0.0005204186
0001d0 de e9 83 3a 88 8f 32 3b 10 90 0d ba e0 28 ad b9
       0.0010064205 0.0027246196 -0.000540019 -0.00033027586
0001e0 36 8e 64 bb fd 19 4d 3a a5 59 89 3a 3d 8c 5b b9
       -0.0034874803 0.0007824002 0.0010478987 -0.0002093771
0001f0 70 47 2b 3a 6c 3c 72 bb bc e8 ff 39 82 26 37 3a
       0.00065337773 -0.0036962284 0.0004881079 0.0006986634

action_model._continuous_distribution.log_sigma f4 [1, 5]
000000 79 32 0d 3c eb 6a 1a bb 45 8c 25 3b 95 e9 3d 3c
       0.008617991 -0.0023562263 0.002526061 0.011591335
000010 9d 96 cd ba
       -0.0015685145

action_model._continuous_distribution.mu.weight f4 [5, 128]
000000 35 c4 83 bb 64 02 7e 3c 85 bd 86 bb 65 01 db 3c
       -0.0040211924 0.0155035 -0.004111948 0.026734063
000010 03 9d 32 3c 99 4a c8 3b 50 3f cb 3c 2e c1 ee 3b
       0.010901692 0.0061124084 0.024810463 0.0072862124
000020 37 b5 cd bc 32 30 5d 3c 4c 45 87 bc 69 1e 93 3b
       -0.025110824 0.01350026 -0.016512536 0.004489709
000030 83 20 4a bb 8d a2 d9 bc c4 2e 08 3b 09 4e 26 3c
       -0.0030842132 -0.026566768 0.0020779828 0.010150441
000040 b7 fd 45 3c a8 02 92 3b 49 8a 0d 3d b1 c8 b1 3c
       0.012084416 0.004455883 0.034555707 0.021702142
000050 70 53 12 bc 77 05 7d bb a4 6d 2f ba df 00 7d 3c
       -0.008931026 -0.0038607994 -0.0006692058 0.015442102
000060 1a 20 4c bc 3a 26 15 3c d3 b4 2a 3b 26 fe d1 3b
       -0.0124588255 0.009103352 0.002604772 0.0064084707
000070 12 19 e4 bb 4e c4 23 3d 77 f5 04 bb c9 83 6d 3c
       -0.0069609964 0.039982133 -0.002028791 0.014496752
000080 6f f3 c0 bc 58 dc 95 3a c7 05 0a 3c 7a d3 ae bc
       -0.023553578 0.0011433465 0.008424229 -0.021341074
000090 c6 f7 4a 3b d1 ff 4f bc c6 12 a7 bc 7b ba 9b bc
       0.0030970438 -0.012695269 -0.020394694 -0.01900982
0000a0 38 a6 d0 3c 6c 4b 5e bb 83 aa 54 bc 8b 6f 08 3d
       0.025469884 -0.0033919467 -0.012980106 0.0333095
0000b0 87 b0 25 3a 4d 1e 32 3b ae cf f0 bb c9 fc d2 3c
       0.0006320555 0.0027178705 -0.007348976 0.025755303
0000c0 cd 4d 37 bc c8 e6 87 3c b1 68 69 3c 40 67 01 bc
       -0.011187983 0.016589537 0.014246152 -0.007898152
0000d0 95 e4 dc ba 61 e3 92 bb aa 95 0c bc ab 0f 85 3c
       -0.0016852791 -0.004482672 -0.008580605 0.016242823
0000e0 da 92 fc 3c 26 24 aa bc 67 09 b0 3b bc c2 2c bb
       0.030831743 -0.02076919 0.0053722146 -0.0026361188
0000f0 2c a5 9f bc 0f 46 9b 3c af 3a 13 3c 7e 33 37 bd
       -0.01948794 0.018954305 0.008986159 -0.04472684
000100 11 a6 db bc 8b 36 86 3c 20 62 72 bc b5 08 fa bc
       -0.026812585 0.01638343 -0.014793903 -0.03052173
000110 9e 8e c0 bc 52 50 c7 3c b0 e7 8d bc ae 04 10 3c
       -0.023505505 0.024330292 -0.017322391 0.008790178
000120 3b b8 c2 3b e9 63 2b bc c4 40 bd 3c 93 39 f7 ba
       0.005942372 -0.010460832 0.023102172 -0.0018861763
000130 28 10 d2 ba bd a6 25 bc 99 55 a7 bb 44 ba 13 3d
       -0.0016026543 -0.010110554 -0.0051066396 0.03606631
000140 8c 69 8c 3b b8 8d 13 3c b5 97 a0 3c 4b b3 b4 3b
       0.004285043 0.009005956 0.01960359 0.0055145374
000150 5c ef 13 bd 1d 39 c2 b7 f3 19 82 3c 76 ad ef 3a
       -0.036116943 -2.3153198e-05 0.015881514 0.0018285948
000160 35 48 bd 3b f0 8e 1c 3c a5 56 f4 3c 9a bf c1 bc
       0.00577643 0.009555563 0.029826472 -0.023650933
000170 7b f8 0d 3c 4c 8c d4 3c 3e fe 0f 3b 9a 74 bb 3c
       0.008665199 0.025945805 0.0021971609 0.022882748
000180 eb cb d5 3b 6b 32 ba bc 20 f8 08 b8 92 22 76 39
       0.006524553 -0.02272912 -3.265601e-05 0.00023473267
000190 cf 12 ca bc be e4 67 bc 03 92 24 3c ea c6 68 3c
       -0.024667172 -0.0141536575 0.0100445775 0.014207581
0001a0 1a a8 c0 3c e3 65 cd 39 0b 96 02 3d a2 bb 7c bb
       0.023517657 0.00039176558 0.031881373 -0.0038563986
0001b0 f3 b6 31 bb 15 32 f2 bb e6 21 e9 bc 55 ed f2 3c
       -0.0027117103 -0.007391224 -0.028458547 0.029654184
0001c0 35 ae ee bc 07 5d e1 ba 7b 16 09 3d 37 02 4d bc
       -0.029135803 -0.0017193862 0.033468705 -0.012512735
0001d0 3e ba 46 bb 18 b1 4a 3b 11 f1 2c bc 72 4a ad bc
       -0.0030323411 0.003092831 -0.010555522 -0.021153662
0001e0 50 75 9d 3c 6d c7 ef bc dc ed 11 3b cd bc 0b 3c
       0.019220978 -0.029269898 0.002226702 0.0085289
0001f0 71 2f fa 3a 62 e1 4f 3c 89 6c 1e 3c 37 38 b6 3c
       0.0019087625 0.012688013 0.0096694315 0.022243602
000200 82 f4 b8 bc 83 55 17 bc 12 05 be 3c c7 a0 ab bb
       -0.022577528 -0.009236696 0.023195777 -0.005237672
000210 c9 0d 22 bb 14 4c 6e 3a 48 78 8c bc 3c af 49 3c
       -0.0024727455 0.0009090316 -0.017147198 0.012309846
000220 0f bc 12 3c f9 46 3c bc 12 f4 c2 ba bb 57 f4 39
       0.0089559695 -0.011491531 -0.0014873764 0.0004660467
000230 6c 45 bb bc d0 33 e9 3b 92 63 b5 3c 1d 9d ad ba
       -0.022860251 0.0071167722 0.022142205 -0.0013245676
000240 aa 4a b6 3c 44 54 52 3d a7 cb 97 bc a9 7b 85 bb
       0.0222524 0.051349893 -0.018529726 -0.0040735793
000250 fa 5e c5 bb 0a 48 02 3d b8 64 a8 bb c5 75 82 ba
       -0.006023285 0.031806983 -0.0051389597 -0.0009953311
000260 f6 e6 65 bc 3a 86 b3 3c b2 08 8e 3b 42 79 2e bc
       -0.014032116 0.02191459 0.0043345327 -0.010649027
000270 04 37 1e 3c e7 16 90 3c 24 e4 14 bc be a8 14 3c
       0.009656671 0.017589046 -0.009087596 0.009073434
000280 08 7b 8d bc 5e 01 75 bc 9e 82 af 3b 54 0f b6 3c
       -0.01727058 -0.014953939 0.005356147 0.022224106
000290 36 49 eb 3c 44 39 2d 3c c5 d9 96 3b 05 ec 74 bc
       0.028721433 0.010572735 0.004603597 -0.01494885
0002a0 d1 ff 7e bc 80 3e ea bc 7e dd 05 bc dd 24 85 3b
       -0.015563921 -0.028594255 -0.008170484 0.0040632323
0002b0 f6 d0 9d 3a b0 41 2f 3b 2f 19 48 bb f5 90 f8 3b
       0.0012040425 0.0026742034 -0.0030532589 0.0075856396
0002c0 9a 3b cb bb c8 f5 21 bc 4c 11 db 3c d4 d3 73 bc
       -0.0062021734 -0.009885259 0.026741646 -0.014882047
0002d0 23 65 70 3a 58 50 a2 bc 36 e2 f2 bc 72 5f a0 3c
       0.0009170344 -0.019813702 -0.029648881 0.019576762
0002e0 dc 2d 45 3c 16 5f ad 3b 38 16 94 3c 67 cb 99 3c
       0.0120348595 0.005290876 0.018077001 0.018773748
0002f0 41 09 6c 39 17 11 68 3b 35 97 43 bb 03 9d ff ba
       0.00022510161 0.0035410577 -0.0029844765 -0.0019501749
000300 d1 8b b6 ba 9b 4b 3e bc 93 f1 36 3c 98 73 16 3c
       -0.0013927167 -0.011614705 0.011165994 0.009182833
000310 e2 35 e5 3a 4f 5a 9c bc fa 56 c5 3c 3f 86 58 3c
       0.0017487372 -0.019086031 0.024089325 0.0132156005
000320 ef a5 e9 bc 55 04 ae 3c 42 12 1b bd bc 29 6d 3c
       -0.028521506 0.0212423 -0.03785921 0.014475282
000330 c0 7e bd bc 16 99 ad 3b ec 0b 41 bc e9 62 81 bc
       -0.023131728 0.0052977903 -0.011782628 -0.015794234
000340 c0 11 b0 3c 6b 14 23 3b a6 f1 69 3b 78 06 86 bc
       0.021492839 0.0024883996 0.0035697012 -0.016360506
000350 9d 5a 91 3c 32 cf 22 3c 56 03 0d bc 03 41 b1 3c
       0.017743403 0.0099370945 -0.008606752 0.021637445
000360 d9 98 8d 3b fa c9 8d bb ef 42 c4 3c 2c 6d f6 bc
       0.0043211994 -0.004327056 0.023957698 -0.030081354
000370 50 a1 fa bc 1e 30 7f bc c2 f0 49 ba 0e 10 c4 3b
       -0.030594498 -0.015575437 -0.0007703417 0.005983359
000380 55 c9 cf bc 78 14 aa bc ed cf 01 bc 49 81 d2 bb
       -0.025364557 -0.020761713 -0.0079231085 -0.0064241034
000390 7f a9 e9 bb ee 22 2c 3c 6b 3c 47 3c 48 8f aa 3b
       -0.007130801 0.010506375 0.012160401 0.0052050687
0003a0 5e 30 bc bc 7d 0d df bc 82 c5 7e 3b dc f2 12 3c
       -0.022972282 -0.027228111 0.0038875048 0.008969035
0003b0 79 1b 2e bc a8 5b 65 bc 8b 38 96 3c c7 9a fd bb
       -0.010626667 -0.013998903 0.018337509 -0.007739398
0003c0 7c d5 7c bc c4 62 67 bc e6 93 cc 3c 03 51 0e bd
       -0.015431758 -0.014122669 0.024972867 -0.034745228
0003d0 9b a3 0a bc 9d 73 e1 3b 8b b4 ec 3c 93 f2 2c bb
       -0.008461858 0.0068802373 0.028894683 -0.0026389703
0003e0 68 82 79 bd ad 84 da 3c b8 8e d9 bc ea 90 06 bc
       -0.06091538 0.026674593 -0.026557311 -0.008213261
0003f0 8c de 39 3c 11 6b 81 3c f4 ef 64 bc 75 ee 04 3d
       0.011344563 0.015798124 -0.013973225 0.032453973

action_model._continuous_distribution.mu.bias f4 [5]
000000 75 e9 8a ba 97 b7 88 39 ba 27 bc 3a 19 17 46 3a
       -0.001059814 0.00026076726 0.0014355101 0.00075565424
000010 5a 46 11 3b
       0.0022167177

action_model._discrete_distribution.branches.0.weight f4 [1, 128]
000000 13 e9 b0 bb c3 53 f8 ba 5f 33 68 3b 36 ab 98 3b
       -0.0053988784 -0.0018945861 0.003543101 0.004659082
000010 6f e8 77 bc 9d d8 d8 3b 6f 9c e1 3b b8 da f0 3b
       -0.0151311 0.006617619 0.0068851034 0.007350292
000020 8b 0d 02 bc 80 7d 92 3b 52 ef d0 bb 3a 88 01 3c
       -0.007937799 0.004470527 -0.0063761855 0.007906014
000030 83 55 0c bc e0 26 91 bc 8b f8 7c ba 90 0a b5 bc
       -0.008565309 -0.017718732 -0.0009650073 -0.022099763
000040 62 73 c7 39 53 64 2c 3a e7 f2 4d ba 7e e3 98 bb
       0.00038042205 0.0006576229 -0.00078563247 -0.004665791
000050 be 55 1f bc 88 29 3e 3b 19 41 a2 3a 60 48 46 3c
       -0.009725032 0.0029016454 0.001237902 0.0121022165
000060 9f 87 b4 3a 91 e2 8e bb 24 ee 05 3c 06 5f 14 bc
       0.0013773328 -0.004360505 0.008174453 -0.0090558585
000070 ec a6 1a bb f8 91 5e bb 0f d2 88 3b ba 7d d1 ba
       -0.0023598028 -0.0033961516 0.0041754316 -0.0015982904
000080 06 ba a0 3c a6 d9 08 bb cf b3 15 3c 6c a0 21 3c
       0.019619953 -0.0020881682 0.009137108 0.009864908
000090 ef 70 a9 bb 85 b9 43 3c 11 fa 93 3c ea 7e dc 3a
       -0.0051709334 0.011946087 0.018063577 0.0016822491
0000a0 43 6d 63 3c bb ab 3d bc 63 28 40 bb 6b 63 83 3b
       0.0138810305 -0.011576588 -0.0029320947 0.0040096543
0000b0 03 31 80 3c 87 ca a0 bb ff 59 64 bb ec 48 81 bc
       0.01564837 -0.0049069556 -0.003484368 -0.015781842
0000c0 bf 11 be 3b 6f b0 bc ba 1a 62 cb bb f8 0e 87 3b
       0.0058004553 -0.0014395843 -0.006206763 0.0041216575
0000d0 bf af da bc 41 e8 9a 3b c4 f7 2b bb 7d b7 81 3a
       -0.02669513 0.004727394 -0.002624021 0.0009896603
0000e0 cb 57 85 3c 11 3e 85 3c 1b 85 6f bc 7f 78 fc bb
       0.016277215 0.016264947 -0.014619137 -0.007704794
0000f0 10 37 de bb fb 6e 04 bc b4 64 93 bc 2a f1 74 b9
       -0.0067814663 -0.0080831 -0.017992355 -0.00023359494
000100 ff ab ee 3a a3 15 e7 bb 17 6c d6 bb ab c9 4d 3c
       0.0018209218 -0.00705214 -0.006543647 0.012560288
000110 e9 49 1f bb f3 bb b6 3c 5d 3f 74 bc 37 e9 c5 3b
       -0.0024305528 0.022306418 -0.014907685 0.0060397643
000120 7f d3 de 3b d8 f6 da 3a e0 c0 e7 bb eb c4 e0 ba
       0.0068001146 0.0016705645 -0.007072553 -0.001714853
000130 3e fd 31 3b 9b 32 ac bb f3 40 22 3c 20 92 3d ba
       0.0027159 -0.005255056 0.00990318 -0.0007231552
000140 fd 04 d6 3c 29 f9 1f 3c 3b e0 9f bb 6e 56 3b 3b
       0.026125425 0.009763994 -0.0048790253 0.0028585452
000150 c3 94 86 3c 22 33 cb 3c db c7 e6 bb 4f 8c c7 bb
       0.016428357 0.024804655 -0.0070428676 -0.006089724
000160 ab b7 75 bb 6d 23 4e bb 92 26 b3 3b 93 45 88 3b
       -0.0037493508 -0.003145422 0.0054672444 0.0041586845
000170 ef 1e 5f bc af e7 d6 39 fd af 55 bc 2d 9f 37 bc
       -0.013618215 0.00040989878 -0.013042447 -0.011207384
000180 a5 90 07 bc 8e ec 0c 3c 4e 86 b8 3b 77 39 9d 3b
       -0.008274232 0.008601321 0.0056312447 0.00479811
000190 9a 38 ec bb 01 fb 0e b9 2d a7 e9 3b 7a 4f 85 3c
       -0.007208896 -0.00013635682 0.0071305246 0.016273249
0001a0 72 2e 56 38 07 18 8a 3c 4f 3e 2e 3a 07 4d 59 3c
       5.106483e-05 0.01685716 0.0006646858 0.013262994
0001b0 35 f7 4f bc 7f 45 49 ba d0 85 0f bb f2 3d 6b 3b
       -0.012693216 -0.0007677897 -0.0021899827 0.0035895077
0001c0 33 5b 21 bb 03 f3 11 bb ea c2 90 bb 5f fd c7 ba
       -0.002462101 -0.002227009 -0.004417767 -0.0015258006
0001d0 d0 80 4b 3c fc bc a4 bb ae 02 c9 bb b5 ec a1 bb
       0.012420848 -0.0050274115 -0.0061343526 -0.0049415478
0001e0 bf f5 6a 3b 34 8b 33 3b b7 02 d9 ba 99 a4 94 bb
       0.0035852042 0.0027396204 -0.0016556595 -0.004536223
0001f0 10 e5 d4 bb 2d a2 1e 3c 1b b6 95 bb e8 23 d0 3b
       -0.006497033 0.00968222 -0.004568828 0.0063519366

exp_avg f4 [128, 8]
000000 83 ef 87 32 83 ef 87 32 16 39 02 1f 34 79 4b 22
       1.5824986e-08 1.5824986e-08 2.757579e-20 2.7575795e-18
000010 92 31 c6 1d 00 00 00 00 00 00 00 00 00 00 00 00
       5.246142e-21 0.0 0.0 0.0
000020 5b 78 e6 b4 5b 78 e6 b4 6d e3 e5 b4 aa 99 33 b8
       -4.2928409e-07 -4.2928409e-07 -4.2820048e-07 -4.2820036e-05
000030 ab 53 48 b4 00 00 00 00 00 00 00 00 00 00 00 00
       -1.865689e-07 0.0 0.0 0.0
000040 a7 31 bb 31 a7 31 bb 31 14 4a b8 ad e9 f9 0f b1
       5.448061e-09 5.448061e-09 -2.0951275e-11 -2.0951296e-09
000050 8a c7 15 ae 00 00 00 00 00 00 00 00 00 00 00 00
       -3.4055904e-11 0.0 0.0 0.0
000060 47 af a7 36 47 af a7 36 f9 2c a7 36 3c 9b 02 3a
       4.997393e-06 4.997393e-06 4.9822233e-06 0.0004982238
000070 01 1e 47 b6 00 00 00 00 00 00 00 00 00 00 00 00
       -2.9670775e-06 0.0 0.0 0.0
000080 4a d2 3d 32 4a d2 3d 32 08 3b af 31 1d e6 08 35
       1.1049062e-08 1.1049062e-08 5.0998814e-09 5.0998807e-07
000090 32 8a 03 31 00 00 00 00 00 00 00 00 00 00 00 00
       1.9141564e-09 0.0 0.0 0.0
0000a0 49 23 d6 b7 49 23 d6 b7 ff f6 d5 b7 f5 28 27 bb
       -2.5527219e-05 -2.5527219e-05 -2.5506595e-05 -0.002550659
0000b0 fa ed 9c b6 00 00 00 00 00 00 00 00 00 00 00 00
       -4.6768664e-06 0.0 0.0 0.0
0000c0 9c ed 39 b2 9c ed 39 b2 11 f2 09 9b 39 8a 57 9e
       -1.0822443e-08 -1.0822443e-08 -1.141059e-22 -1.1410589e-20
0000d0 9f 1c 1b 9a 00 00 00 00 00 00 00 00 00 00 00 00
       -3.207637e-23 0.0 0.0 0.0
0000e0 b7 93 08 37 b7 93 08 37 d4 67 08 37 27 22 55 3a
       8.140624e-06 8.140624e-06 8.130406e-06 0.0008130394
0000f0 14 70 95 36 00 00 00 00 00 00 00 00 00 00 00 00
       4.4535936e-06 0.0 0.0 0.0
000100 19 7c ca 37 19 7c ca 37 9c 76 ca 37 a1 2c 1e 3b
       2.4138064e-05 2.4138064e-05 2.4135508e-05 0.0024135488
000110 ab 09 fa b5 00 00 00 00 00 00 00 00 00 00 00 00
       -1.8629265e-06 0.0 0.0 0.0
000120 50 7a ad b7 50 7a ad b7 ba 8e ad b7 83 97 07 bb
       -2.0680163e-05 -2.0680163e-05 -2.068967e-05 -0.0020689673
000130 be 8a c7 35 00 00 00 00 00 00 00 00 00 00 00 00
       1.4867035e-06 0.0 0.0 0.0
000140 c5 f6 eb b0 c5 f6 eb b0 ff c6 69 b2 74 a3 b6 b5
       -1.7168637e-09 -1.7168637e-09 -1.36076315e-08 -1.3607628e-06
000150 82 b0 2e b2 00 00 00 00 00 00 00 00 00 00 00 00
       -1.0168266e-08 0.0 0.0 0.0
000160 b5 fb 1b b0 b5 fb 1b b0 42 6f a0 94 da ad fa 97
       -5.674637e-10 -5.674637e-10 -1.6199755e-26 -1.6199758e-24
000170 63 72 45 14 00 00 00 00 00 00 00 00 00 00 00 00
       9.968517e-27 0.0 0.0 0.0
000180 fa d0 59 b2 fa d0 59 b2 0d 7b f1 ad 24 a8 3c b1
       -1.2678578e-08 -1.2678578e-08 -2.7453173e-11 -2.7453178e-09
000190 c4 1d 81 ad 00 00 00 00 00 00 00 00 00 00 00 00
       -1.467882e-11 0.0 0.0 0.0
0001a0 59 0f 0a 38 59 0f 0a 38 29 1d 0a 38 95 cd 57 3b
       3.2916058e-05 3.2916058e-05 3.292892e-05 0.0032928933
0001b0 8c 12 9b 37 00 00 00 00 00 00 00 00 00 00 00 00
       1.8486076e-05 0.0 0.0 0.0
0001c0 b2 cb 15 b6 b2 cb 15 b6 7a d6 15 b6 76 1f 6a b9
       -2.2321296e-06 -2.2321296e-06 -2.2327572e-06 -0.00022327699
0001d0 8b 41 c6 b6 00 00 00 00 00 00 00 00 00 00 00 00
       -5.90849e-06 0.0 0.0 0.0
0001e0 95 f3 2b 38 95 f3 2b 38 fd 09 2c 38 c9 67 86 3b
       4.099643e-05 4.099643e-05 4.1017298e-05 0.0041017276
0001f0 0c f4 36 37 00 00 00 00 00 00 00 00 00 00 00 00
       1.0904867e-05 0.0 0.0 0.0
000200 2a ce 8d 32 2a ce 8d 32 51 dd bf 2d e3 e4 15 31
       1.6508313e-08 1.6508313e-08 2.181247e-11 2.181246e-09
000210 56 9c b6 ac 00 00 00 00 00 00 00 00 00 00 00 00
       -5.190108e-12 0.0 0.0 0.0
000220 4a 9c c6 b5 4a 9c c6 b5 17 4a c6 b5 da e9 1a b9
       -1.4797636e-06 -1.4797636e-06 -1.4773713e-06 -0.00014773701
000230 4e 28 da b4 00 00 00 00 00 00 00 00 00 00 00 00
       -4.063499e-07 0.0 0.0 0.0
000240 d5 aa 06 b6 d5 aa 06 b6 25 98 04 b6 cc 2d 4f b9
       -2.0066993e-06 -2.0066993e-06 -1.9758093e-06 -0.00019758119
000250 ed cc f5 34 00 00 00 00 00 00 00 00 00 00 00 00
       4.578391e-07 0.0 0.0 0.0
000260 ae 1a 26 37 ae 1a 26 37 02 5f 26 37 3c fa 81 3a
       9.900583e-06 9.900583e-06 9.916492e-06 0.0009916495
000270 eb 38 92 36 00 00 00 00 00 00 00 00 00 00 00 00
       4.357765e-06 0.0 0.0 0.0
000280 13 dc 38 32 13 dc 38 32 d2 95 15 26 22 ba 69 29
       1.0760249e-08 1.0760249e-08 5.1897804e-16 5.1897837e-14
000290 ba 7d 85 a6 00 00 00 00 00 00 00 00 00 00 00 00
       -9.262807e-16 0.0 0.0 0.0
0002a0 51 23 80 35 51 23 80 35 b4 fa 81 35 ab 17 cb 38
       9.547022e-07 9.547022e-07 9.684213e-07 9.684203e-05
0002b0 6b dc 38 35 00 00 00 00 00 00 00 00 00 00 00 00
       6.886609e-07 0.0 0.0 0.0
0002c0 10 b4 94 b1 10 b4 94 b1 f3 f7 2d af bf e9 87 b2
       -4.3278376e-09 -4.3278376e-09 -1.5822348e-10 -1.5822364e-08
0002d0 e2 59 0d af 00 00 00 00 00 00 00 00 00 00 00 00
       -1.2855808e-10 0.0 0.0 0.0
0002e0 a8 00 c9 33 a8 00 c9 33 6c f9 d8 33 d7 82 29 37
       9.359911e-08 9.359911e-08 1.01036534e-07 1.01036485e-05
0002f0 fc e8 8c 32 00 00 00 00 00 00 00 00 00 00 00 00
       1.6404094e-08 0.0 0.0 0.0
000300 69 a3 75 37 69 a3 75 37 63 e0 75 37 49 17 c0 3a
       1.4641185e-05 1.4641185e-05 1.4655382e-05 0.0014655377
000310 14 28 3f b5 00 00 00 00 00 00 00 00 00 00 00 00
       -7.1211366e-07 0.0 0.0 0.0
000320 00 e9 ad 37 00 e9 ad 37 d3 f5 ad 37 0f e8 07 3b
       2.0731706e-05 2.0731706e-05 2.0737678e-05 0.0020737683
000330 0c 50 c4 b5 00 00 00 00 00 00 00 00 00 00 00 00
       -1.4626435e-06 0.0 0.0 0.0
000340 e2 57 93 37 e2 57 93 37 8a 7e 93 37 cf 75 e6 3a
       1.756469e-05 1.756469e-05 1.758269e-05 0.0017582717
000350 4d 12 2b b5 00 00 00 00 00 00 00 00 00 00 00 00
       -6.3729095e-07 0.0 0.0 0.0
000360 e2 b3 2f 33 e2 b3 2f 33 e8 78 35 27 70 c6 8d 2a
       4.0908965e-08 4.0908965e-08 2.518434e-15 2.5184325e-13
000370 61 4d 8c 26 00 00 00 00 00 00 00 00 00 00 00 00
       9.735425e-16 0.0 0.0 0.0
000380 94 93 48 37 94 93 48 37 55 bc 48 37 1a d3 9c 3a
       1.195529e-05 1.195529e-05 1.1964778e-05 0.0011964769
000390 7f 25 9c 35 00 00 00 00 00 00 00 00 00 00 00 00
       1.1633819e-06 0.0 0.0 0.0
0003a0 c5 60 a4 b5 c5 60 a4 b5 a4 3f a4 b5 be 51 00 b9
       -1.2247116e-06 -1.2247116e-06 -1.2237474e-06 -0.00012237483
0003b0 e2 33 36 b5 00 00 00 00 00 00 00 00 00 00 00 00
       -6.7875783e-07 0.0 0.0 0.0
0003c0 96 61 13 b8 96 61 13 b8 d7 6b 13 b8 82 58 66 bb
       -3.5138415e-05 -3.5138415e-05 -3.5147965e-05 -0.003514797
0003d0 c3 3a 0f b7 00 00 00 00 00 00 00 00 00 00 00 00
       -8.537146e-06 0.0 0.0 0.0
0003e0 89 95 ae 37 89 95 ae 37 33 95 ae 37 95 64 08 3b
       2.081205e-05 2.081205e-05 2.0811893e-05 0.0020811905
0003f0 c1 ea cf 36 00 00 00 00 00 00 00 00 00 00 00 00
       6.1964097e-06 0.0 0.0 0.0

exp_avg_sq f4 [128, 8]
000000 25 ba 84 2d 25 ba 84 2d f1 0e 1f 00 ec a6 17 06
       1.5089327e-11 1.5089327e-11 2.85226e-39 2.8522578e-35
000010 12 e6 02 00 00 00 00 00 00 00 00 00 00 00 00 00
       2.66205e-40 0.0 0.0 0.0
000020 32 ed 9a 2e 32 ed 9a 2e 21 2b 73 2b 14 6b 14 32
       7.0452436e-11 7.0452436e-11 8.6390796e-13 8.639081e-09
000030 ac 73 c9 29 00 00 00 00 00 00 00 00 00 00 00 00
       8.946259e-14 0.0 0.0 0.0
000040 dd 7b 45 2c dd 7b 45 2c 36 80 db 1e 00 f9 85 25
       2.8064142e-12 2.8064142e-12 2.3240554e-20 2.324055e-16
000050 8e 78 50 1d 00 00 00 00 00 00 00 00 00 00 00 00
       2.7590896e-21 0.0 0.0 0.0
000060 d5 c3 12 31 d5 c3 12 31 e3 43 15 31 60 35 b6 37
       2.1357114e-09 2.1357114e-09 2.1720943e-09 2.1720945e-05
000070 6d 73 67 2f 00 00 00 00 00 00 00 00 00 00 00 00
       2.1050335e-10 0.0 0.0 0.0
000080 f4 e2 a5 2c f4 e2 a5 2c d7 4a ff 24 70 d1 9b 2b
       4.714779e-12 4.714779e-12 1.10715405e-16 1.1071543e-12
000090 a7 14 59 23 00 00 00 00 00 00 00 00 00 00 00 00
       1.1767967e-17 0.0 0.0 0.0
0000a0 2e 48 88 32 2e 48 88 32 47 fe 86 32 62 c9 24 39
       1.5865307e-08 1.5865307e-08 1.5715285e-08 0.0001571528
0000b0 73 fe cc 30 00 00 00 00 00 00 00 00 00 00 00 00
       1.4915272e-09 0.0 0.0 0.0
0000c0 49 2d 2e 2d 49 2d 2e 2d 0f 00 00 00 b4 2e 03 00
       9.90081e-12 9.90081e-12 2.1e-44 2.9226e-40
0000d0 00 00 00 00 00 00 00 00 00 00 00 00 00 00 00 00
       0.0 0.0 0.0 0.0
0000e0 b6 f0 3d 31 b6 f0 3d 31 0a 35 38 31 bc dc e0 37
       2.7639948e-09 2.7639948e-09 2.6805673e-09 2.6805668e-05
0000f0 f9 ec 8a 2f 00 00 00 00 00 00 00 00 00 00 00 00
       2.5270433e-10 0.0 0.0 0.0
000100 66 b5 b6 31 66 b5 b6 31 93 c2 b6 31 7d 18 5f 38
       5.3175198e-09 5.3175198e-09 5.3190177e-09 5.319015e-05
000110 09 5f 1e 30 00 00 00 00 00 00 00 00 00 00 00 00
       5.761512e-10 0.0 0.0 0.0
000120 5d d0 45 32 5d d0 45 32 e8 b2 41 32 e5 72 ec 38
       1.15142855e-08 1.15142855e-08 1.1274757e-08 0.00011274758
000130 0e 49 83 30 00 00 00 00 00 00 00 00 00 00 00 00
       9.552268e-10 0.0 0.0 0.0
000140 35 2b 30 2e 35 2b 30 2e db 83 c7 27 71 8c 73 2e
       4.0056142e-11 4.0056142e-11 5.5376553e-15 5.537654e-11
000150 36 68 04 26 00 00 00 00 00 00 00 00 00 00 00 00
       4.593793e-16 0.0 0.0 0.0
000160 dc ec 12 2b dc ec 12 2b 00 00 00 00 00 00 00 00
       5.219833e-13 5.219833e-13 0.0 0.0
000170 00 00 00 00 00 00 00 00 00 00 00 00 00 00 00 00
       0.0 0.0 0.0 0.0
000180 6d 5a 9c 2d 6d 5a 9c 2d 6e 5a 9d 1d e2 14 40 24
       1.7775304e-11 1.7775304e-11 4.1651056e-21 4.1651052e-17
000190 49 4e 09 1c 00 00 00 00 00 00 00 00 00 00 00 00
       4.543068e-22 0.0 0.0 0.0
0001a0 1c 20 f9 31 1c 20 f9 31 0b c6 fb 31 a5 ab 99 38
       7.250504e-09 7.250504e-09 7.3275763e-09 7.32758e-05
0001b0 7f b4 33 30 00 00 00 00 00 00 00 00 00 00 00 00
       6.537632e-10 0.0 0.0 0.0
0001c0 11 f6 db 31 11 f6 db 31 fd 61 dd 31 10 1f 87 38
       6.4017134e-09 6.4017134e-09 6.4430865e-09 6.4430875e-05
0001d0 27 94 2b 30 00 00 00 00 00 00 00 00 00 00 00 00
       6.2419975e-10 0.0 0.0 0.0
0001e0 75 4c 01 32 75 4c 01 32 2b b8 04 32 d6 02 a2 38
       7.526173e-09 7.526173e-09 7.725286e-09 7.72529e-05
0001f0 1d 25 3c 30 00 00 00 00 00 00 00 00 00 00 00 00
       6.844674e-10 0.0 0.0 0.0
000200 b7 3e ca 2e b7 3e ca 2e 5f f6 2c 1e ba 22 d3 24
       9.197037e-11 9.197037e-11 9.1565525e-21 9.156549e-17
000210 b9 3a 71 1c 00 00 00 00 00 00 00 00 00 00 00 00
       7.981611e-22 0.0 0.0 0.0
000220 45 5c 24 2d 45 5c 24 2d 5a 04 18 2d 51 91 b9 33
       9.342809e-12 9.342809e-12 8.641166e-12 8.641167e-08
000230 65 0b 5b 2b 00 00 00 00 00 00 00 00 00 00 00 00
       7.782024e-13 0.0 0.0 0.0
000240 43 9d f4 30 43 9d f4 30 c6 15 ee 30 cb 50 91 37
       1.7798033e-09 1.7798033e-09 1.7322968e-09 1.732297e-05
000250 bc 28 2a 2f 00 00 00 00 00 00 00 00 00 00 00 00
       1.5475882e-10 0.0 0.0 0.0
000260 89 a5 2f 31 89 a5 2f 31 02 c0 2a 31 5b 6f d0 37
       2.5559947e-09 2.5559947e-09 2.48474e-09 2.4847386e-05
000270 ee 61 85 2f 00 00 00 00 00 00 00 00 00 00 00 00
       2.4262142e-10 0.0 0.0 0.0
000280 7b ed af 2e 7b ed af 2e 8a 90 06 11 6f 43 a4 17
       8.0002636e-11 8.0002636e-11 1.0615276e-28 1.0615274e-24
000290 1f f0 65 0f 00 00 00 00 00 00 00 00 00 00 00 00
       1.1336817e-29 0.0 0.0 0.0
0002a0 56 4c ae 2e 56 4c ae 2e 48 51 0a 2e 38 d8 a8 34
       7.926164e-11 7.926164e-11 3.144976e-11 3.1449758e-07
0002b0 9b b1 51 2c 00 00 00 00 00 00 00 00 00 00 00 00
       2.9799277e-12 0.0 0.0 0.0
0002c0 75 c1 81 2c 75 c1 81 2c f9 3c 91 23 ee 4a 31 2a
       3.6878786e-12 3.6878786e-12 1.5746754e-17 1.5746754e-13
0002d0 9a 59 c9 21 00 00 00 00 00 00 00 00 00 00 00 00
       1.3644007e-18 0.0 0.0 0.0
0002e0 c2 aa 16 2f c2 aa 16 2f 6a d5 93 29 03 76 34 30
       1.3703086e-10 1.3703086e-10 6.565133e-14 6.5651323e-10
0002f0 ce cb ea 27 00 00 00 00 00 00 00 00 00 00 00 00
       6.5169012e-15 0.0 0.0 0.0
000300 7a 0c cc 31 7a 0c cc 31 23 5a c4 31 0d b0 6f 38
       5.9386e-09 5.9386e-09 5.714598e-09 5.7146e-05
000310 48 3b 26 30 00 00 00 00 00 00 00 00 00 00 00 00
       6.047469e-10 0.0 0.0 0.0
000320 e6 a6 2b 31 e6 a6 2b 31 08 b2 2b 31 cd 96 d1 37
       2.4978646e-09 2.4978646e-09 2.4984974e-09 2.4984964e-05
000330 8f e8 99 2f 00 00 00 00 00 00 00 00 00 00 00 00
       2.799578e-10 0.0 0.0 0.0
000340 b3 20 35 32 b3 20 35 32 32 78 33 32 38 14 db 38
       1.0543022e-08 1.0543022e-08 1.04465006e-08 0.000104465
000350 54 be 80 30 00 00 00 00 00 00 00 00 00 00 00 00
       9.36732e-10 0.0 0.0 0.0
000360 c2 bd d0 2f c2 bd d0 2f 54 d3 9b 10 78 37 3e 17
       3.796981e-10 3.796981e-10 6.146232e-29 6.1462322e-25
000370 69 83 ef 0e 00 00 00 00 00 00 00 00 00 00 00 00
       5.9044592e-30 0.0 0.0 0.0
000380 61 f0 31 31 61 f0 31 31 ec c1 31 31 38 fd d8 37
       2.589353e-09 2.589353e-09 2.5867122e-09 2.586712e-05
000390 16 5a 91 2f 00 00 00 00 00 00 00 00 00 00 00 00
       2.6439356e-10 0.0 0.0 0.0
0003a0 6e 15 33 2d 6e 15 33 2d 3c d6 1e 2d 7e e4 c1 33
       1.017973e-11 1.017973e-11 9.02883e-12 9.028825e-08
0003b0 bc 36 70 2b 00 00 00 00 00 00 00 00 00 00 00 00
       8.534109e-13 0.0 0.0 0.0
0003c0 c9 ee 81 31 c9 ee 81 31 4a 4d 7e 31 ad 36 1b 38
       3.781541e-09 3.781541e-09 3.7005798e-09 3.70058e-05
0003d0 53 39 cc 2f 00 00 00 00 00 00 00 00 00 00 00 00
       3.7148115e-10 0.0 0.0 0.0
0003e0 ea 7d 62 31 ea 7d 62 31 b7 78 62 31 36 3a 0a 38
       3.2958902e-09 3.2958902e-09 3.2955947e-09 3.2955977e-05
0003f0 4a a9 97 2f 00 00 00 00 00 00 00 00 00 00 00 00
       2.7587027e-10 0.0 0.0 0.0

exp_avg f4 [128]
000000 44 99 74 32 75 55 e7 b4 33 a9 9f 31 1d a9 a7 36
       1.4237518e-08 -4.308928e-07 4.6467448e-09 4.996675e-06
000010 bd 1c 4b 32 b0 1f d6 b7 36 23 42 b2 2e 94 08 37
       1.18226895e-08 -2.5525544e-05 -1.1300292e-08 8.1407325e-06
000020 a0 7b ca 37 ce 77 ad b7 7d 3e 27 b1 bb e4 2e 2e
       2.4137844e-05 -2.0678995e-05 -2.433722e-09 3.9766173e-11
000030 24 d0 4e b2 96 0e 0a 38 72 d1 15 b6 d1 f2 2b 38
       -1.2038104e-08 3.2915348e-05 -2.2324643e-06 4.0995717e-05
000040 76 e5 82 32 f0 96 c6 b5 8f ad 06 b6 92 1d 26 37
       1.5238339e-08 -1.4796078e-06 -2.006858e-06 9.901256e-06
000050 6c ac 17 32 b0 29 80 35 7a 6c 94 b1 f4 ee cb 33
       8.828561e-09 9.548876e-07 -4.3196993e-09 9.4963895e-08
000060 4a 9b 75 37 7e e8 ad 37 6f 58 93 37 be 01 29 33
       1.4639294e-05 2.073147e-05 1.7564946e-05 3.9349963e-08
000070 5e 94 48 37 05 38 a4 b5 db 5f 13 b8 fc 95 ae 37
       1.1955473e-05 -1.2235256e-06 -3.5136803e-05 2.0812258e-05
000080 ba 3a 7e 36 a7 76 ad b5 6b 59 1f b8 0a 74 2a b2
       3.7883133e-06 -1.2924037e-06 -3.799183e-05 -9.921687e-09
000090 df 70 45 b6 93 eb 72 b2 ea 50 93 b7 d2 ab 69 b1
       -2.9420987e-06 -1.4139817e-08 -1.7561444e-05 -3.400363e-09
0000a0 b1 90 19 32 34 f9 8d b7 e3 3f f6 36 34 01 d5 37
       8.938671e-09 -1.6924554e-05 7.3388087e-06 2.5392139e-05
0000b0 c0 82 38 33 ea a5 9a b6 d3 39 de b6 92 d0 8b 32
       4.2959755e-08 -4.6088726e-06 -6.622847e-06 1.6276577e-08
0000c0 e7 f7 d5 35 03 92 7c 37 22 a2 aa b2 af 00 ee 32
       1.5941886e-06 1.50543665e-05 -1.9864334e-08 2.7707157e-08
0000d0 44 12 91 31 18 e0 9b b2 4c bb 3a 32 30 84 df 37
       4.222132e-09 -1.8146281e-08 1.0869211e-08 2.6645226e-05
0000e0 22 fa fb b6 4a 04 95 b5 25 de d6 b6 6d 57 64 31
       -7.509502e-06 -1.1102613e-06 -6.403558e-06 3.3228063e-09
0000f0 37 09 00 38 2c 26 30 31 91 4c 1b b2 b1 61 4d b7
       3.052616e-05 2.563307e-09 -9.039597e-09 -1.2241698e-05
000100 0c 5a 24 b2 b2 62 da b7 ef ae 8b 37 1f 1e 50 31
       -9.566531e-09 -2.6033584e-05 1.6651551e-05 3.0285106e-09
000110 68 e8 ee b2 c4 e0 bf b7 db 05 fc 36 e7 0a a4 32
       -2.7812533e-08 -2.2873639e-05 7.510867e-06 1.909707e-08
000120 5d d1 44 38 e0 bf 07 b6 1b 6e b1 32 dc 3c 1b b8
       4.6925026e-05 -2.0228254e-06 2.0655582e-08 -3.701156e-05
000130 66 5c 2a b5 1b 2e f9 b1 67 c4 d6 37 25 bd e1 33
       -6.346439e-07 -7.2520954e-09 2.5602245e-05 1.0511784e-07
000140 b8 58 86 37 74 54 43 b3 9d 97 80 31 9e d2 1e 36
       1.6015358e-05 -4.5478785e-08 3.7425267e-09 2.366643e-06
000150 a9 3b 42 33 2d 8e 2e b0 e3 a4 41 36 c7 8b 8f b7
       4.5223405e-08 -6.3502875e-10 2.8855218e-06 -1.7112017e-05
000160 99 b6 07 35 d0 fc 52 b7 fc fa 5f b2 9e a4 f9 36
       5.0557134e-07 -1.2575838e-05 -1.3037376e-08 7.4399422e-06
000170 0b 29 b9 b2 1c fb fa 36 2e 1c 06 b5 02 9e f3 32
       -2.1555499e-08 7.4798136e-06 -4.9959897e-07 2.8360777e-08
000180 6b 1f b6 b3 a9 32 20 38 70 72 df b0 f5 c1 1f b7
       -8.48075e-08 3.8194154e-05 -1.6257911e-09 -9.522298e-06
000190 d8 42 6a b2 74 18 8b b6 bf 4e a6 32 9a 98 bc b1
       -1.3635791e-08 -4.1453695e-06 1.9360753e-08 -5.488869e-09
0001a0 61 4c 3f 32 2f 41 61 32 06 b6 8f 36 36 72 04 b5
       1.113503e-08 1.3111545e-08 4.2829224e-06 -4.934003e-07
0001b0 ac e4 3a b2 d2 6b 8c b7 a5 32 9d 37 cb 2f 6a b7
       -1.0878619e-08 -1.6739508e-05 1.8739442e-05 -1.39586145e-05
0001c0 b2 06 2b 37 c4 2e 38 38 e4 37 2e b3 8f 18 e8 b7
       1.0193953e-05 4.3912572e-05 -4.0563364e-08 -2.7667991e-05
0001d0 e7 ee 1e b2 db 9d a5 37 87 02 f6 37 6f 45 36 37
       -9.2511305e-09 1.974304e-05 2.9326662e-05 1.0864212e-05
0001e0 be 72 d1 b6 a0 ab 74 b0 2a af a8 37 76 2e 30 32
       -6.242043e-06 -8.9010577e-10 2.0108728e-05 1.0255112e-08
0001f0 4c 66 b2 b2 5b e0 eb 37 db fa 9b b7 33 ab 5b 37
       -2.0768447e-08 2.8118657e-05 -1.8594254e-05 1.3093278e-05
