MLA_Lab4/results/Economic/Economic/Economic-3840.onnx (onnx, 143356 bytes, 10 tensors)

action_model._continuous_distribution.log_sigma f4 [1, 5]
0	0x00000000	0.0
1	0x00000000	0.0
2	0x00000000	0.0
3	0x00000000	0.0
4	0x00000000	0.0

action_model._continuous_distribution.mu.bias f4 [5]
0	0x00000000	0.0
1	0x00000000	0.0
2	0x00000000	0.0
3	0x00000000	0.0
4	0x00000000	0.0

action_model._continuous_distribution.mu.weight f4 [5, 128]
0	0x3c101453	0.008793908
1	0xbb947eda	-0.0045317234
2	0xbc8d3d2b	-0.017241081
3	0x3cb312df	0.021859584
4	0x3bc29ad5	0.0059388676
5	0xbc1e1bec	-0.009650212
6	0x3b23a5a1	0.0024970549
7	0xbbd1113d	-0.006380229
8	0x3ca30ebb	0.019904485
9	0x3af44243	0.001863547
10	0xbc43f991	-0.011961357
11	0x3c032cc9	0.008006283
12	0x3ce0395d	0.027371103
13	0x3c78407a	0.015152091
14	0xb8bcaf66	-8.997209e-05
15	0x3c8b20ef	0.016983477
16	0xba8aac57	-0.0010579926
17	0xbb00c012	-0.0019645733
18	0xbc14114b	-0.009037326
19	0xbacf374a	-0.0015809324
20	0x3ba24c11	0.0049529155
21	0xbc05babb	-0.008162196
22	0x3bd0464a	0.0063560354
23	0xbc229cf7	-0.009925119
24	0xbbea41af	-0.0071489434
25	0xbc5ec003	-0.013595584
26	0xbaf21088	-0.0018468061
27	0xbca09983	-0.01960445
28	0x3c74192f	0.014898582
29	0xbc93981c	-0.018016867
30	0xbcb54f0a	-0.022132415
31	0x3c218028	0.009857215
32	0xbbd30800	-0.0064401627
33	0x3c7a9c9b	0.015296127
34	0x3bb00996	0.0053722365
35	0xbd1464e6	-0.036229037
36	0x3c04958b	0.008092294
37	0xbc8141d2	-0.015778456
38	0xbc6e4437	-0.014542631
39	0xbc8808ff	-0.016605852
40	0x3c937231	0.017998787
41	0x3c3c6027	0.011497534
42	0x39f01042	0.0004578848
43	0xbc87948a	-0.016550321
44	0xbcb3a867	-0.021930886
45	0xba6dea48	-0.0009075743
46	0x3c13c3d3	0.009018856
47	0xbb2e38ac	-0.0026584072
48	0xbc2dd4f8	-0.010609858
49	0xbcdc5bc7	-0.026899232
50	0x3b5e6a22	0.0033937772
51	0xbc8c8437	-0.017152889
52	0xbbbcf9bf	-0.0057670767
53	0xbc97ca59	-0.018529104
54	0x3c51c08f	0.012802257
55	0xbb42a2aa	-0.0029699006
56	0xbd1e24db	-0.038609367
57	0xbcbc4e4c	-0.022986554
58	0x3cb8b9b7	0.022549493
59	0x3c353ecb	0.011062334
60	0xbce5a0fd	-0.028030867
61	0x3cff8e80	0.031195879
62	0x3c9461a2	0.018112961
63	0xbd145b66	-0.036219977
64	0x3c833dfe	0.016020771
65	0xbb26b9d3	-0.002544035
66	0xbac54816	-0.001505139
67	0xbb2eb8ce	-0.0026660445
68	0xbc026510	-0.0079586655
69	0xbce5ecfd	-0.028067106
70	0xbcd1868a	-0.025576849
71	0x3c6d33db	0.014477695
72	0x3a97f5f6	0.0011593688
73	0x3c0d780b	0.0086345775
74	0xbcaa4e7f	-0.020789383
75	0x3ab3af20	0.0013708808
76	0xbb1a607f	-0.0023556051
77	0x3ae13f83	0.0017185066
78	0x3c0c232b	0.008553307
79	0xbc3be77f	-0.011468767
80	0xbd0fef54	-0.03514035
81	0x3cab2f34	0.020896532
82	0x3d1d3029	0.038376007
83	0x3bf3b33a	0.007437137
84	0xbc9897c0	-0.018627048
85	0x3c0d5e97	0.008628509
86	0xbc35655c	-0.011071529
87	0x3d1ad215	0.037798006
88	0x3cac73f9	0.021051394
89	0xba887b64	-0.001041275
90	0xbcab1ab0	-0.020886749
91	0xbd173a66	-0.036920927
92	0xbc0c0e73	-0.008548367
93	0x3b98de1c	0.0046651494
94	0xbc3ffa58	-0.011717401
95	0x3bddf5e3	0.0067736967
96	0xbc71eada	-0.014765466
97	0x3c4000ff	0.0117189875
98	0xbc15fe5a	-0.00915488
99	0xbb9c29db	-0.0047657317
100	0xbc6ffac3	-0.014647189
101	0x3c9b8a23	0.018986767
102	0x3c0fd6a3	0.008779201
103	0x3ccce72a	0.025012571
104	0x3d02134e	0.03175669
105	0x3c2df996	0.010618588
106	0x3a23f7ef	0.00062549015
107	0x3bb4dee8	0.0055197366
108	0x3b2b4563	0.0026133887
109	0x3a8caf8d	0.001073347
110	0x3c82a14e	0.015946057
111	0xbcb4d5cd	-0.022074604
112	0x3cc80fdb	0.024421623
113	0xbb851402	-0.004061223
114	0x3bcfcb55	0.0063413777
115	0x3b2a6bf5	0.0026004289
116	0xbb0a684f	-0.0021119302
117	0xba913ffa	-0.0011081689
118	0xbb980e98	-0.0046404116
119	0x3c6c3878	0.01441776
120	0x3a2a9d75	0.0006508448
121	0x3bb83afc	0.005622266
122	0x3c9ad91d	0.018902356
123	0x3c9cac0b	0.019125005
124	0xbc7f0b3b	-0.015566642
125	0xbcc6ee2a	-0.024283487
126	0xbcacf5af	-0.021113245
127	0xbbf32b2f	-0.0074209194
128	0x3d2f3ded	0.042783666
129	0x3d445449	0.047931943
130	0xbc2698aa	-0.010168234
131	0x3cae26d0	0.021258742
132	0x3d1902ce	0.03735619
133	0x3b2868c3	0.0025697208
134	0xbcdf98a2	-0.02729446
135	0xbd1378e3	-0.03600396
136	0xbc75d740	-0.015004933
137	0x3cc6f6bf	0.02428758
138	0x3c23609f	0.009971767
139	0xbc74cbfb	-0.014941211
140	0x3c5ce988	0.013483413
141	0xbc836b63	-0.016042417
142	0xbc28923c	-0.010288771
143	0xbc21f58b	-0.009885202
144	0xba414b4d	-0.00073735864
145	0x3bc3cae6	0.005975115
146	0x3ba5b8b3	0.0050574183
147	0x3cebcc8b	0.028784057
148	0x3b927990	0.004470058
149	0xbc830c12	-0.015996967
150	0x3c6bf923	0.014402661
151	0x3bcf7ff8	0.0063323937
152	0x3c33b35c	0.010968056
153	0x3c27e1f2	0.010246741
154	0xbc26e281	-0.010185839
155	0xbc64b71d	-0.013959673
156	0x3c894878	0.016758189
157	0xbc8f4a28	-0.017491415
158	0x3c412024	0.011787448
159	0xbc1fadc3	-0.009746018
160	0xbc4b7ebd	-0.0124203535
161	0x3c867cdb	0.016416958
162	0x3a9ca2bf	0.0011950358
163	0x3d3321fb	0.04373358
164	0xbb4b88df	-0.0031056923
165	0xbb188a18	-0.002327567
166	0xbc47b71b	-0.012189652
167	0x3cb39629	0.021922188
168	0x3c5c6d43	0.013453784
169	0x3bb51cd2	0.0055271173
170	0xbc6d89d5	-0.014498194
171	0x3a0d4204	0.000538856
172	0xbaed4257	-0.0018101436
173	0xbc9d4244	-0.019196637
174	0xbc1bed2b	-0.0095169945
175	0xbcd05532	-0.02543125
176	0x3c05baf0	0.008162245
177	0x3cd0063f	0.025393603
178	0x3c61def5	0.013786067
179	0x3bc807c3	0.006104441
180	0x3d05b431	0.032642547
181	0x3c0d20bd	0.008613762
182	0xbb61f6e7	-0.003447944
183	0x3d229886	0.03969624
184	0xbcd9f868	-0.026607707
185	0x3d0a4fa1	0.033767346
186	0x3ce26df3	0.027640318
187	0x3bab2aef	0.005223624
188	0xbba3283b	-0.004979161
189	0x3c8235b5	0.01589475
190	0x3ca6725c	0.020318203
191	0x3c0fd8db	0.00877973
192	0x3a44ca25	0.00075069285
193	0xbc260420	-0.010132819
194	0x3d200642	0.039068468
195	0x3cd2fbb8	0.025754794
196	0xbc8b8adf	-0.017033992
197	0xbc1afad7	-0.009459219
198	0xbc61b6b0	-0.013776466
199	0xbc5923d5	-0.013253172
200	0xb9df1a42	-0.00042553438
201	0x3b0b07d9	0.0021214394
202	0x3c8ef204	0.017449386
203	0xbbb28999	-0.005448532
204	0xbc008863	-0.007845017
205	0x3b0bfd1f	0.0021360589
206	0x3c15b1c9	0.009136626
207	0x3cdb11e8	0.026741937
208	0xbc12db13	-0.008963364
209	0xbcb14f63	-0.0216443
210	0xbce87398	-0.028375432
211	0x3c69e785	0.01427639
212	0x3c2689f7	0.010164729
213	0x3b02cd96	0.0019958965
214	0xbbb37218	-0.0054762475
215	0x3c367225	0.011135613
216	0xbb97753f	-0.004622131
217	0x3c7146d3	0.0147263585
218	0xbcedd1c3	-0.029030686
219	0x3c817244	0.015801556
220	0x3a50f937	0.0007971706
221	0x3c0be916	0.008539459
222	0x3b8fdb37	0.004390146
223	0xbc9546a6	-0.018222164
224	0x3bb7152f	0.005587242
225	0xbc0c14a1	-0.00854984
226	0x3b9ca96a	0.004780938
227	0xbc3c1c50	-0.01148136
228	0xbccf9b8d	-0.025342727
229	0x3bd902e7	0.0066226604
230	0xbbc69662	-0.0060604075
231	0xbc8d16a7	-0.017222716
232	0xbd0de09b	-0.03463803
233	0x3cbdb40f	0.023157148
234	0xbc17d963	-0.009268138
235	0x3c888ffb	0.016670218
236	0x3c8e3c42	0.017362718
237	0xbc7e7a32	-0.015532063
238	0x3c094a37	0.008379511
239	0xbcea6083	-0.028610473
240	0xbc4b3576	-0.012402883
241	0xbba4cb4f	-0.005029119
242	0x3cabdd7f	0.020979641
243	0xbc24db3a	-0.010062033
244	0xbb1b3340	-0.002368167
245	0xbb0f788a	-0.0021891915
246	0xba2e2499	-0.0006643027
247	0x3cd0813d	0.02545225
248	0x3cb82a66	0.022481155
249	0x3c36fbb7	0.011168412
250	0xbbcfcff8	-0.0063419305
251	0x3c453a62	0.012037845
252	0x3b1f2f55	0.0024289687
253	0xbbb0e2f9	-0.005398151
254	0xbcad8cfe	-0.021185394
255	0xbc8690bf	-0.016426442

action_model._discrete_distribution.branches.0.weight f4 [1, 128]
0	0xbb4699bb	-0.0030304033
1	0x3be710ca	0.007051562
2	0xbb91e893	-0.004452774
3	0xbbd842ef	-0.006599776
4	0xbba6dca3	-0.00509222
5	0x3b75589b	0.0037436846
6	0x3ab02657	0.001343916
7	0x3c63220a	0.013863096
8	0xbb01ee1f	-0.001982577
9	0xbb65d6c2	-0.0035070633
10	0xbc2b4091	-0.010452406
11	0x3a09e1eb	0.00052597997
12	0xbc659d2b	-0.014014523
13	0x3a239cc3	0.0006241316
14	0x3a2c43f3	0.00065714045
15	0x3b5091ca	0.0031825178
16	0xbbd1eaa3	-0.0064061447
17	0x3baac7a3	0.005211787
18	0xbb5f8fe3	-0.0034112863
19	0xbbc7a70e	-0.0060929125
20	0xbb9af46e	-0.0047288453
21	0x3b8bacf1	0.0042625596
22	0x3c71e67b	0.0147644235
23	0xbca1a3d3	-0.019731438
24	0x39970849	0.00028807137
25	0x3c1bf251	0.009518222
26	0xbb858840	-0.00407508
27	0xbbc99f0f	-0.0061529945
28	0x3bda5593	0.0066630333
29	0x3b15eb47	0.0022875832
30	0xbb1b9fcd	-0.0023746372
31	0x3bee14da	0.0072656693
32	0xbbd780c0	-0.0065766275
33	0x3be48353	0.006973663
34	0xbb539fe8	-0.0032291356
35	0x39bbf033	0.00035846382
36	0xbc8f67cb	-0.017505547
37	0xbb7ba090	-0.0038395263
38	0x3bcffcca	0.0063472735
39	0xba6e4d75	-0.00090905215
40	0x38e12937	0.00010736513
41	0xbbc2eaee	-0.005948416
42	0x3b273278	0.002551226
43	0xbc36361a	-0.011121297
44	0xbc31523a	-0.010822827
45	0xbbf9413d	-0.007606654
46	0xbb4dd8bd	-0.0031409704
47	0xbbea7eb2	-0.0071562165
48	0xbb40eac3	-0.0029436804
49	0xbc035a47	-0.008017129
50	0x3b5d1645	0.0033735198
51	0x3c463e32	0.012099789
52	0x3c0d0e1f	0.008609324
53	0x3a3fe0bd	0.00073195604
54	0xbb818613	-0.0039527505
55	0xbbcf3292	-0.006323167
56	0xbc861d4b	-0.01637139
57	0xbb0e682f	-0.0021729579
58	0x3b15e901	0.0022874477
59	0x3b9c4672	0.00476914
60	0xbc283ecd	-0.010268879
61	0xbbb8ec74	-0.005643422
62	0xbad8f205	-0.001655162
63	0x3bce23e5	0.0062909
64	0xbc613f0f	-0.0137479445
65	0x3ab0ba32	0.0013483225
66	0x3c2b0bbb	0.0104398085
67	0x3b77bc02	0.003780127
68	0xbc913a79	-0.017728077
69	0x3b61a0bf	0.0034428088
70	0xbbe3a860	-0.006947562
71	0x3b1024ff	0.0021994708
72	0x3c510a03	0.012758735
73	0xb9def167	-0.00042522998
74	0xbb9fa077	-0.004871424
75	0x3b5c9c8d	0.0033662647
76	0x3c619b2d	0.013769907
77	0xbb1037ef	-0.0022005995
78	0x3c0e7153	0.008694011
79	0xbbc3b00d	-0.0059719146
80	0x3a378a14	0.0007001471
81	0x3bbc751a	0.0057512643
82	0x3c3e968f	0.011632576
83	0xbbd52780	-0.006504953
84	0xbc94428f	-0.018098144
85	0x3c3869a3	0.0112556545
86	0xbb92e1c7	-0.004482481
87	0xbc43687f	-0.011926769
88	0xbcbb3cd7	-0.02285616
89	0xbc0e13b3	-0.008671689
90	0xbc3da58f	-0.011575117
91	0xbba449b4	-0.005013669
92	0xbbb4e0e3	-0.0055199726
93	0x3c14d897	0.009084842
94	0x3a230fba	0.00062203
95	0x3bb20597	0.0054327953
96	0x3bd209ad	0.006409845
97	0x3bfaad4f	0.0076500545
98	0x3c0de459	0.008660399
99	0x3bbb5f5b	0.0057181544
100	0xbc28a7df	-0.01029393
101	0xbc422789	-0.011850246
102	0x3b0dec1b	0.0021655622
103	0x3c25f2dc	0.010128703
104	0x3a186172	0.00058128603
105	0xbcbfe00f	-0.02342227
106	0x3c093c23	0.008376154
107	0x3bf3c28a	0.0074389623
108	0xbc281305	-0.010258441
109	0xbc14ea0e	-0.009089006
110	0x3be2a897	0.00691707
111	0xbc00eb8f	-0.007868662
112	0x3b820733	0.0039681434
113	0x3c1128d8	0.008859836
114	0x3c9514f7	0.018198473
115	0xbc4d73e5	-0.012539838
116	0x3a89cabb	0.0010512689
117	0xbb8395e1	-0.0040156697
118	0xbb5604bb	-0.0032656628
119	0x3b841694	0.004031012
120	0x3b8d2863	0.004307793
121	0xba87f1b3	-0.0010371715
122	0xbc05ed8a	-0.0081743095
123	0x3c785458	0.015156828
124	0x3af89f6b	0.0018968409
125	0x3bba3c35	0.005683447
126	0x3b9c3088	0.0047665276
127	0x3a899277	0.001049592

network_body._body_endoder.seq_layers.0.bias f4 [128]
0	0x00000000	0.0
1	0x00000000	0.0
2	0x00000000	0.0
3	0x00000000	0.0
4	0x00000000	0.0
5	0x00000000	0.0
6	0x00000000	0.0
7	0x00000000	0.0
8	0x00000000	0.0
9	0x00000000	0.0
10	0x00000000	0.0
11	0x00000000	0.0
12	0x00000000	0.0
13	0x00000000	0.0
14	0x00000000	0.0
15	0x00000000	0.0
16	0x00000000	0.0
17	0x00000000	0.0
18	0x00000000	0.0
19	0x00000000	0.0
20	0x00000000	0.0
21	0x00000000	0.0
22	0x00000000	0.0
23	0x00000000	0.0
24	0x00000000	0.0
25	0x00000000	0.0
26	0x00000000	0.0
27	0x00000000	0.0
28	0x00000000	0.0
29	0x00000000	0.0
30	0x00000000	0.0
31	0x00000000	0.0
32	0x00000000	0.0
33	0x00000000	0.0
34	0x00000000	0.0
35	0x00000000	0.0
36	0x00000000	0.0
37	0x00000000	0.0
38	0x00000000	0.0
39	0x00000000	0.0
40	0x00000000	0.0
41	0x00000000	0.0
42	0x00000000	0.0
43	0x00000000	0.0
44	0x00000000	0.0
45	0x00000000	0.0
46	0x00000000	0.0
47	0x00000000	0.0
48	0x00000000	0.0
49	0x00000000	0.0
50	0x00000000	0.0
51	0x00000000	0.0
52	0x00000000	0.0
53	0x00000000	0.0
54	0x00000000	0.0
55	0x00000000	0.0
56	0x00000000	0.0
57	0x00000000	0.0
58	0x00000000	0.0
59	0x00000000	0.0
60	0x00000000	0.0
61	0x00000000	0.0
62	0x00000000	0.0
63	0x00000000	0.0
64	0x00000000	0.0
65	0x00000000	0.0
66	0x00000000	0.0
67	0x00000000	0.0
68	0x00000000	0.0
69	0x00000000	0.0
70	0x00000000	0.0
71	0x00000000	0.0
72	0x00000000	0.0
73	0x00000000	0.0
74	0x00000000	0.0
75	0x00000000	0.0
76	0x00000000	0.0
77	0x00000000	0.0
78	0x00000000	0.0
79	0x00000000	0.0
80	0x00000000	0.0
81	0x00000000	0.0
82	0x00000000	0.0
83	0x00000000	0.0
84	0x00000000	0.0
85	0x00000000	0.0
86	0x00000000	0.0
87	0x00000000	0.0
88	0x00000000	0.0
89	0x00000000	0.0
90	0x00000000	0.0
91	0x00000000	0.0
92	0x00000000	0.0
93	0x00000000	0.0
94	0x00000000	0.0
95	0x00000000	0.0
96	0x00000000	0.0
97	0x00000000	0.0
98	0x00000000	0.0
99	0x00000000	0.0
100	0x00000000	0.0
101	0x00000000	0.0
102	0x00000000	0.0
103	0x00000000	0.0
104	0x00000000	0.0
105	0x00000000	0.0
106	0x00000000	0.0
107	0x00000000	0.0
108	0x00000000	0.0
109	0x00000000	0.0
110	0x00000000	0.0
111	0x00000000	0.0
112	0x00000000	0.0
113	0x00000000	0.0
114	0x00000000	0.0
115	0x00000000	0.0
116	0x00000000	0.0
117	0x00000000	0.0
118	0x00000000	0.0
119	0x00000000	0.0
120	0x00000000	0.0
121	0x00000000	0.0
122	0x00000000	0.0
123	0x00000000	0.0
124	0x00000000	0.0
125	0x00000000	0.0
126	0x00000000	0.0
127	0x00000000	0.0

network_body._body_endoder.seq_layers.0.weight f4 [128, 8]
0	0x3e2e295a	0.17007962
1	0x3f0878e4	0.53309464
2	0xbdd35578	-0.10319036
3	0xbde90cea	-0.11379416
4	0x3e7d3e1d	0.24730726
5	0xbe96fa45	-0.29487815
6	0x3e481802	0.19540408
7	0xbea0e920	-0.3142786
8	0x3b660cc2	0.003510282
9	0x3eb80670	0.3594241
10	0xbc9aaf3c	-0.018882386
11	0xbe976201	-0.2956696
12	0xbf01f188	-0.5075917
13	0x3d435656	0.04768976
14	0x3dac2523	0.08405521
15	0xbf6c8e18	-0.9240432
16	0x3e8790df	0.26477715
17	0xbd85f8ad	-0.06541572
18	0xbe71e5ad	-0.2362277
19	0xbe8672a6	-0.26259345
20	0x3f2bec20	0.67157173
21	0x3f33eb07	0.702805
22	0x3dd7b3be	0.1053233
23	0xbee628dc	-0.44953048
24	0xbe0415cf	-0.12898944
25	0xbdc2a2eb	-0.095037304
26	0xbe95c8d5	-0.29254785
27	0xbd54db36	-0.05196687
28	0x3e8d7189	0.27625683
29	0xbe014beb	-0.12626617
30	0x3e0d5310	0.13801217
31	0xbdc96ebd	-0.09835575
32	0xbc8cdf5f	-0.017196355
33	0x3eb27d14	0.34861052
34	0xbf46a267	-0.77591556
35	0xbd848c7e	-0.06472109
36	0xbe9f5027	-0.3111584
37	0xbc471b51	-0.012152509
38	0x3e341f40	0.17590046
39	0xbdd1619c	-0.10223696
40	0x3ed461e3	0.41480932
41	0x3d85ed44	0.065393955
42	0xbeb785eb	-0.3584436
43	0x3ed16fda	0.40905648
44	0x3ea45cc8	0.32102036
45	0x3dd0a926	0.101885125
46	0x3e9c3db7	0.30515835
47	0x3ede673e	0.43438143
48	0xbefe56b8	-0.49675536
49	0xbdfe315b	-0.124117576
50	0x3f18cf12	0.59690964
51	0x3edab67e	0.42717355
52	0x3f4e9643	0.8069803
53	0x3e99bbbd	0.30026045
54	0x3e02cfce	0.12774584
55	0x3eb5065d	0.35356417
56	0xbd66785c	-0.056267127
57	0xbe00ec93	-0.12590246
58	0xbd1ced58	-0.038312286
59	0xbf02d6f1	-0.51109225
60	0x3e68431b	0.22681849
61	0xbf2631ab	-0.6491954
62	0x3f04c7ab	0.5186717
63	0xbee959c8	-0.4557631
64	0xbeddf67b	-0.43352112
65	0xbe8cab19	-0.27474287
66	0x3ef30701	0.4746628
67	0x3e146a64	0.1449371
68	0x3ed80c32	0.42196804
69	0xbf094854	-0.5362599
70	0xbde878b7	-0.113511495
71	0x3e1000a8	0.1406275
72	0x3ce9dd17	0.028547807
73	0xbdf5c7d2	-0.12001003
74	0x3d493cd0	0.04913026
75	0xbe866ca3	-0.26254758
76	0x3d475185	0.048661727
77	0x3d3480fe	0.04406833
78	0x3ed1536b	0.40883955
79	0xbe14f6c2	-0.14547256
80	0x3f100736	0.56261003
81	0x3ec7dfbe	0.3903789
82	0x3ea7f12c	0.32801187
83	0xbe349909	-0.17636503
84	0xbe3e3e98	-0.18578565
85	0xbe7ad84d	-0.24496575
86	0x3eec8b7a	0.46200162
87	0xbf07c859	-0.5304008
88	0xbf012dc7	-0.50460476
89	0xbf334052	-0.7002002
90	0x3e137a24	0.14402062
91	0xbf591f81	-0.84813696
92	0x3d64f52d	0.05589788
93	0x3e8edce5	0.27902904
94	0xbf0c6920	-0.5484791
95	0x3e1607ba	0.14651385
96	0x3cf83d6c	0.030302726
97	0x3c850eb3	0.01624236
98	0x3e847f39	0.25878313
99	0xbe8fad65	-0.28061977
100	0xbd9d3d42	-0.076776996
101	0xbdd54ddb	-0.104152404
102	0xbe899f8b	-0.26879534
103	0x3d76364a	0.060110368
104	0xbdeb090a	-0.114763334
105	0xbe8ea2fe	-0.27858728
106	0x3daa50ce	0.083161935
107	0xbf2609b4	-0.64858556
108	0x3c455525	0.012044226
109	0xbe66b026	-0.22528133
110	0x3df07bd0	0.11742365
111	0x3ebe5c65	0.37179866
112	0xbebbf842	-0.36712843
113	0x3f0e9bbc	0.5570638
114	0x3e81b34a	0.253321
115	0xbe0f4a6a	-0.1399323
116	0xbea6fbea	-0.3261407
117	0x3e554f6b	0.20831077
118	0xbea0293e	-0.31281465
119	0xbd4c3d00	-0.04986286
120	0x3df11299	0.11771125
121	0x3e8f93c8	0.28042436
122	0xbe4ef4ad	-0.20210524
123	0xbd051b3b	-0.032496672
124	0x3c98402a	0.018585283
125	0xbd797f22	-0.06091226
126	0x3f07d8fc	0.53065467
127	0xbe7262bc	-0.23670477
128	0x3d45b493	0.048267912
129	0xbe7e323b	-0.24823849
130	0xbf63bd4c	-0.8896072
131	0xbeca0112	-0.39453942
132	0xbc8347e2	-0.016025487
133	0x3ee0e680	0.43925858
134	0xbe1bea44	-0.15226084
135	0xbdecf0f2	-0.11569394
136	0x3e1f3efb	0.15551369
137	0x3f04293f	0.51625437
138	0x3ebe6fd6	0.371947
139	0xbca45127	-0.020058228
140	0x3f059b84	0.52190423
141	0xbe674c50	-0.22587705
142	0xbe6ad902	-0.22934344
143	0x3ee51e8e	0.44749874
144	0xbf538da2	-0.8263799
145	0xbe9c2f8c	-0.30505025
146	0xbee4f20d	-0.4471592
147	0x3eb8b9bb	0.360792
148	0x3e2ba97b	0.1676387
149	0xbe68f47d	-0.22749515
150	0xbe06a79e	-0.13149878
151	0xbdcf4c5c	-0.10121986
152	0x3e08f681	0.13375284
153	0x3d1b8afa	0.037974335
154	0xbc62c0cc	-0.013839912
155	0x3eb4f1cc	0.35340726
156	0xbe684a53	-0.22684602
157	0xbebce1d8	-0.36891055
158	0xbeb76d86	-0.35825747
159	0xbe2f263d	-0.1710443
160	0xbf11c9e8	-0.5694871
161	0xbdc486cf	-0.09596025
162	0xbdbe49d7	-0.092914276
163	0xbdab1534	-0.083536536
164	0xbeb036e7	-0.34416887
165	0x3ebc5448	0.36783051
166	0xbe855ca3	-0.2604724
167	0xbef9fad9	-0.48824194
168	0xbedb7271	-0.4286075
169	0xbf3ffccc	-0.7499511
170	0x3e6473db	0.2230982
171	0x3eac5cde	0.33664602
172	0x3e6228b3	0.22085838
173	0x3dd28f5e	0.10281251
174	0xbe98f032	-0.29870754
175	0xbe5975fb	-0.21236412
176	0xbca313ae	-0.019906845
177	0x3e653793	0.22384481
178	0xbe2a3cf2	-0.16624811
179	0x3dcea233	0.10089531
180	0x3ec01421	0.37515357
181	0xbf14d9ee	-0.58145034
182	0xbf1d1910	-0.6136637
183	0x3cca073e	0.024661656
184	0xbec20447	-0.37893888
185	0x3ea42044	0.32055867
186	0x3f3368c1	0.70081717
187	0xbf340c22	-0.70331013
188	0xbe850677	-0.25981495
189	0xbe3bd88d	-0.18344326
190	0x3d76659c	0.060155496
191	0xbe847595	-0.25870958
192	0x3df9e45d	0.1220176
193	0xbdecd9b1	-0.11564959
194	0x3ddeab50	0.10872519
195	0xbe075d3d	-0.13219161
196	0xbe74f36f	-0.23920988
197	0xbe836820	-0.2566538
198	0xbeb85898	-0.36005092
199	0xbebb5cfc	-0.3659438
200	0xbeaa67f7	-0.33282444
201	0x3e7641d8	0.24048555
202	0xbdd669ee	-0.10469423
203	0x3f1740ef	0.59083456
204	0xbe56e263	-0.20984797
205	0xbeab6ebc	-0.3348292
206	0x3eb7a2af	0.35866305
207	0xbe8b0474	-0.27151835
208	0x3e9ae443	0.30252275
209	0x3dfeeedb	0.12447902
210	0xbd2e0e76	-0.04249426
211	0x3ed1eee3	0.4100257
212	0xbed440d6	-0.41455716
213	0x3ed46e39	0.41490343
214	0x3d876b6c	0.06612286
215	0x3d8b8907	0.06813245
216	0xbe5fb1d1	-0.21845175
217	0x3ebd7eb9	0.37010744
218	0xbee41482	-0.44546896
219	0xbd49b4f8	-0.04924485
220	0x3e391fe7	0.18078576
221	0x3f3616c1	0.7112847
222	0x3da4e4b5	0.08051435
223	0xbec96a3a	-0.39338857
224	0x3dea5283	0.11441519
225	0x3e3e7aeb	0.18601577
226	0x3e001655	0.12508519
227	0x3f109e5f	0.56491655
228	0xbf6cbae4	-0.9247267
229	0xbe2c2afa	-0.1681327
230	0x3ea3c35b	0.31984982
231	0xbe33bc00	-0.17552185
232	0x3f04b4da	0.5183846
233	0x3e98358e	0.2972836
234	0xbe3b0d1c	-0.1826672
235	0x3e979164	0.29603112
236	0x3f53b73b	0.8270146
237	0x3f1fc06b	0.6240298
238	0xbf0957f8	-0.53649855
239	0xbe8cb431	-0.27481225
240	0xbe5775d6	-0.21041045
241	0xbf56bb48	-0.8387952
242	0x3eeeac2c	0.46615732
243	0xbe822f42	-0.2542668
244	0xbcafb6e7	-0.02144952
245	0x3e450767	0.19241105
246	0xbcd2e61b	-0.025744488
247	0x3e99d060	0.3004179
248	0xbe06cef9	-0.13164891
249	0xbe3e6131	-0.18591763
250	0xbe84a9ca	-0.2591079
251	0xbe96bede	-0.29442495
252	0xbe331776	-0.17489418
253	0x3eb71bb1	0.35763314
254	0x3ee7e1e2	0.45289522
255	0xbea82025	-0.32837024

network_body._body_endoder.seq_layers.2.bias f4 [128]
0	0x00000000	0.0
1	0x00000000	0.0
2	0x00000000	0.0
3	0x00000000	0.0
4	0x00000000	0.0
5	0x00000000	0.0
6	0x00000000	0.0
7	0x00000000	0.0
8	0x00000000	0.0
9	0x00000000	0.0
10	0x00000000	0.0
11	0x00000000	0.0
12	0x00000000	0.0
13	0x00000000	0.0
14	0x00000000	0.0
15	0x00000000	0.0
16	0x00000000	0.0
17	0x00000000	0.0
18	0x00000000	0.0
19	0x00000000	0.0
20	0x00000000	0.0
21	0x00000000	0.0
22	0x00000000	0.0
23	0x00000000	0.0
24	0x00000000	0.0
25	0x00000000	0.0
26	0x00000000	0.0
27	0x00000000	0.0
28	0x00000000	0.0
29	0x00000000	0.0
30	0x00000000	0.0
31	0x00000000	0.0
32	0x00000000	0.0
33	0x00000000	0.0
34	0x00000000	0.0
35	0x00000000	0.0
36	0x00000000	0.0
37	0x00000000	0.0
38	0x00000000	0.0
39	0x00000000	0.0
40	0x00000000	0.0
41	0x00000000	0.0
42	0x00000000	0.0
43	0x00000000	0.0
44	0x00000000	0.0
45	0x00000000	0.0
46	0x00000000	0.0
47	0x00000000	0.0
48	0x00000000	0.0
49	0x00000000	0.0
50	0x00000000	0.0
51	0x00000000	0.0
52	0x00000000	0.0
53	0x00000000	0.0
54	0x00000000	0.0
55	0x00000000	0.0
56	0x00000000	0.0
57	0x00000000	0.0
58	0x00000000	0.0
59	0x00000000	0.0
60	0x00000000	0.0
61	0x00000000	0.0
62	0x00000000	0.0
63	0x00000000	0.0
64	0x00000000	0.0
65	0x00000000	0.0
66	0x00000000	0.0
67	0x00000000	0.0
68	0x00000000	0.0
69	0x00000000	0.0
70	0x00000000	0.0
71	0x00000000	0.0
72	0x00000000	0.0
73	0x00000000	0.0
74	0x00000000	0.0
75	0x00000000	0.0
76	0x00000000	0.0
77	0x00000000	0.0
78	0x00000000	0.0
79	0x00000000	0.0
80	0x00000000	0.0
81	0x00000000	0.0
82	0x00000000	0.0
83	0x00000000	0.0
84	0x00000000	0.0
85	0x00000000	0.0
86	0x00000000	0.0
87	0x00000000	0.0
88	0x00000000	0.0
89	0x00000000	0.0
90	0x00000000	0.0
91	0x00000000	0.0
92	0x00000000	0.0
93	0x00000000	0.0
94	0x00000000	0.0
95	0x00000000	0.0
96	0x00000000	0.0
97	0x00000000	0.0
98	0x00000000	0.0
99	0x00000000	0.0
100	0x00000000	0.0
101	0x00000000	0.0
102	0x00000000	0.0
103	0x00000000	0.0
104	0x00000000	0.0
105	0x00000000	0.0
106	0x00000000	0.0
107	0x00000000	0.0
108	0x00000000	0.0
109	0x00000000	0.0
110	0x00000000	0.0
111	0x00000000	0.0
112	0x00000000	0.0
113	0x00000000	0.0
114	0x00000000	0.0
115	0x00000000	0.0
116	0x00000000	0.0
117	0x00000000	0.0
118	0x00000000	0.0
119	0x00000000	0.0
120	0x00000000	0.0
121	0x00000000	0.0
122	0x00000000	0.0
123	0x00000000	0.0
124	0x00000000	0.0
125	0x00000000	0.0
126	0x00000000	0.0
127	0x00000000	0.0

network_body._body_endoder.seq_layers.2.weight f4 [128, 128]
0	0xbd6898a0	-0.05678618
1	0x3d26d2da	0.040728427
2	0xbcce2639	-0.02516471
3	0x3ddd60e1	0.10809494
4	0xbdf25261	-0.11832119
5	0x3ca4f3eb	0.02013584
6	0x3dc453f6	0.09586327
7	0x3c68a903	0.014200452
8	0x3e0d500d	0.13800068
9	0x3d3e7bbd	0.046504725
10	0x3cd0f146	0.025505673
11	0x3b2f0196	0.0026703826
12	0xbc98c3a8	-0.018647984
13	0x3da9bcca	0.08287962
14	0xbdb4189c	-0.08793756
15	0x3d6468d4	0.055764034
16	0xbc163fac	-0.009170454
17	0xbc74e494	-0.014947075
18	0xbd9e36c8	-0.077252924
19	0xbcbe1f30	-0.02320823
20	0x3e3433b0	0.17597842
21	0x3d1d5d7d	0.038419235
22	0xbd9039fe	-0.07042311
23	0x3ce562cb	0.02800121
24	0xbb73d07a	-0.003720312
25	0x3d459f30	0.048247516
26	0xbcbe0ff9	-0.023200976
27	0xbd5bc7ab	-0.053657215
28	0x3ce10128	0.027466372
29	0xbe0f4aa2	-0.13993314
30	0x3dd57596	0.10422818
31	0x3bd31629	0.0064418507
32	0xbda02c04	-0.07820895
33	0x3e542029	0.20715393
34	0xbccd6d37	-0.025076492
35	0xbdb9ea37	-0.09077876
36	0xbde70896	-0.112809345
37	0x3ca82dd7	0.02052967
38	0x3c083be0	0.008315057
39	0x3d54deb0	0.051970184
40	0x3c1a7037	0.009426168
41	0xbd120dc2	-0.03565765
42	0xbd0867c8	-0.0333021
43	0x3ce7a1c4	0.028275378
44	0xbdf91090	-0.12161362
45	0x3d8fb36a	0.070166424
46	0xbe2c87e8	-0.16848719
47	0xbdfc39d7	-0.123157196
48	0xbe0f0708	-0.13967526
49	0xbda71143	-0.08157589
50	0xbd3b4629	-0.045721207
51	0xbe290e3b	-0.16509335
52	0x3ddaeab8	0.106893
53	0xbe01ef94	-0.12689048
54	0xbd88d20d	-0.06680689
55	0xbd9ae7ff	-0.07563781
56	0x3d8aad9b	0.06771394
57	0xbcff818b	-0.0311897
58	0x3dc4e895	0.09614674
59	0x3dac0aca	0.08400495
60	0x3c3bc813	0.011461276
61	0xbe002084	-0.12512404
62	0x3d270fe6	0.040786646
63	0x3d3dd7a7	0.04634824
64	0x3e152311	0.14564158
65	0xbcbdfc4a	-0.02319159
66	0x3d3cbed8	0.04608044
67	0x3c01fdb0	0.007934019
68	0xbb4c9fa3	-0.003122308
69	0xbd9e88ef	-0.07740962
70	0x3e0015aa	0.12508264
71	0xbd6d2588	-0.05789712
72	0xbb116d59	-0.002219042
73	0xbcc1e0e8	-0.023666814
74	0x3c24814a	0.010040591
75	0xbdaf6712	-0.08564581
76	0x3e306f2e	0.17229912
77	0x3cfbded7	0.030745907
78	0xbd790fb1	-0.06080598
79	0xbde38678	-0.11109632
80	0x3e207119	0.15668143
81	0xbd127adb	-0.035761695
82	0x3d8df93f	0.069323055
83	0xbd037bd4	-0.032100514
84	0xbca2bf18	-0.019866511
85	0x3befde03	0.007320167
86	0x3dab7cff	0.083734505
87	0xbdc188de	-0.094499335
88	0x3d88b206	0.0667458
89	0x3cd86901	0.026417257
90	0xbe3eec9b	-0.18644945
91	0x3ad1a75f	0.0015995315
92	0xbe4b17e2	-0.1983333
93	0x3e1f8a3e	0.15580079
94	0x3c8866ae	0.016650524
95	0x3cc436c1	0.02395189
96	0xbce7eafe	-0.028310295
97	0x3e19c26a	0.1501557
98	0x3b4a4776	0.0030865348
99	0x3d519cd7	0.051174965
100	0xbd7f2927	-0.062295105
101	0x3cad2ee9	0.021140533
102	0x3bbd290b	0.005772715
103	0xbe1b4aad	-0.15165205
104	0x3d811b33	0.06304016
105	0xbd39341b	-0.045215707
106	0x3d879f12	0.06622137
107	0x3d652798	0.055945963
108	0xbcb422f5	-0.021989325
109	0xbe5a8137	-0.21338354
110	0x3d868812	0.06568922
111	0xbcb16403	-0.021654135
112	0x3debbd37	0.11510699
113	0xbde1766b	-0.110089146
114	0xbde6b96d	-0.11265836
115	0xbe2cd614	-0.1687854
116	0x3d170433	0.03686924
117	0x3d658d9f	0.056043264
118	0xbdce90bf	-0.10086202
119	0xbd5d7946	-0.054070733
120	0x3cd456ca	0.02592029
121	0xbd491d14	-0.049099997
122	0x3cbf975b	0.023387602
123	0xbcc859ea	-0.024456937
124	0x3dcb84f5	0.09937469
125	0x3dde5ea4	0.10857895
126	0x3d2840b2	0.041077323
127	0x3d557df1	0.05212206
128	0xbd88f7eb	-0.066879116
129	0xbda915da	-0.08256121
130	0xbce950e1	-0.028480949
131	0xbc40702f	-0.011745497
132	0x3e1abcf2	0.1511114
133	0xbc9c8c25	-0.019109795
134	0xbe2fa67c	-0.17153352
135	0xbd945620	-0.072429895
136	0x3c8e3d08	0.017363086
137	0xbdc2b2c9	-0.09506757
138	0xbbad3b72	-0.0052866274
139	0xbc65e653	-0.014031964
140	0x3ddd1050	0.10794127
141	0xbcdd8a88	-0.027043596
142	0x3c48a07e	0.012245296
143	0xbe0b0087	-0.1357442
144	0xbd9fd05c	-0.07803413
145	0x3c5694ec	0.013097029
146	0xbdae845a	-0.08521338
147	0x3d9c727a	0.07639022
148	0x3da12ee2	0.0787027
149	0xbd9df6b1	-0.07713068
150	0x3dc4d037	0.09610026
151	0x3e43342b	0.19062869
152	0x3e0729a1	0.13199474
153	0xbca657d8	-0.020305559
154	0x3d3cf9ed	0.046136785
155	0x3c2ff608	0.010739811
156	0x3d42863e	0.047491305
157	0xbd58ae5e	-0.052900665
158	0x3d229ba3	0.039699208
159	0xbd50b6bc	-0.05095552
160	0xbe691554	-0.22762042
161	0x3e60dbe3	0.2195888
162	0x3d91e8e6	0.071245
163	0x3c321105	0.010868316
164	0x3d93c297	0.072148494
165	0x3e130620	0.14357805
166	0xbe194219	-0.1496662
167	0x3e431c82	0.19053844
168	0x3da6e939	0.081499524
169	0xbda7c5ca	-0.08192022
170	0x3d1d1aff	0.038355824
171	0xbdd2d4de	-0.102945074
172	0xbc60cad0	-0.013720229
173	0xbdfe7c63	-0.12426069
174	0xbdb3b98d	-0.087756254
175	0x3dda3fd5	0.10656706
176	0xbcd62623	-0.026141232
177	0xbdd9bebc	-0.10632083
178	0xbe08e0bd	-0.13366981
179	0xbcfbeb67	-0.030751897
180	0x3c35b1cc	0.011089753
181	0xbb9cc103	-0.004783751
182	0x3d1e993f	0.038720366
183	0xbdbcb2d5	-0.09213797
184	0x3ccce141	0.025009753
185	0xbdf4d7ce	-0.11955224
186	0x3dcadfca	0.099059656
187	0x3d9bc3c3	0.07605698
188	0x3dc1a179	0.094546266
189	0x3d9fd276	0.07803814
190	0xbdd015ab	-0.10160383
191	0xbcd42153	-0.025894796
192	0xbd039744	-0.03212668
193	0x3dbff33a	0.09372564
194	0x3c94fd55	0.018187204
195	0xbd3459eb	-0.044031065
196	0xbd70689a	-0.058693506
197	0xbd28f0da	-0.04124532
198	0xbcc3741a	-0.023859072
199	0xbd0e7921	-0.034783486
200	0xbd7eb5a4	-0.062184945
201	0xbe7fd78b	-0.24984567
202	0x3c5b23b8	0.013375215
203	0x3cd5d2cb	0.02610149
204	0x3dc7e309	0.097601004
205	0xbc9f8127	-0.019470764
206	0xbe68bcba	-0.22728243
207	0xbdbac600	-0.09119797
208	0xbbc771c5	-0.0060865604
209	0xbd150c3d	-0.036388624
210	0x3cd57f8f	0.026061801
211	0xbc551210	-0.013004795
212	0xbdb08129	-0.08618385
213	0x3d8cdbe1	0.06877876
214	0x3d26968b	0.040670913
215	0x3de0116c	0.10940823
216	0xbc999e82	-0.01875234
217	0x3d4bc776	0.049750768
218	0xbc963e92	-0.018340383
219	0xbe105e2a	-0.1409842
220	0xbc4049eb	-0.011736373
221	0x3dba5483	0.090981506
222	0x3d84f7f0	0.06492603
223	0xbd0d8d51	-0.034558598
224	0xbd3a92d9	-0.0455502
225	0xbdcd1a5b	-0.100147925
226	0xbd2a155e	-0.041524284
227	0x3c889655	0.016673246
228	0x3e3ec7aa	0.18630853
229	0xbe334553	-0.17506914
230	0xbc39d670	-0.01134263
231	0xbdd3f4a5	-0.103493966
232	0xbd7a956f	-0.061177667
233	0x3db9a903	0.090654396
234	0xbcb6bb70	-0.022306174
235	0xbce60ec7	-0.028083218
236	0x3d67f467	0.056629565
237	0xbd9aec2a	-0.07564576
238	0xbc8edef9	-0.017440306
239	0x3d50ff00	0.051024437
240	0x3c1c49a9	0.009539046
241	0x3cd7938d	0.026315475
242	0xbceaabee	-0.028646436
243	0x3d90d438	0.070717275
244	0xbce1770b	-0.027522584
245	0xbd676677	-0.056494202
246	0x3d95681d	0.07295249
247	0x3ceceacf	0.02892056
248	0xbc281f9d	-0.010261443
249	0x3d21406a	0.03936807
250	0x3d7f97ee	0.06240075
251	0xbe6f61a0	-0.23377085
252	0x3d859144	0.06521848
253	0xbc772dc6	-0.015086597
254	0xbd57fe16	-0.05273255
255	0xbcc78454	-0.024355091

network_body._body_endoder.seq_layers.4.bias f4 [128]
0	0x00000000	0.0
1	0x00000000	0.0
2	0x00000000	0.0
3	0x00000000	0.0
4	0x00000000	0.0
5	0x00000000	0.0
6	0x00000000	0.0
7	0x00000000	0.0
8	0x00000000	0.0
9	0x00000000	0.0
10	0x00000000	0.0
11	0x00000000	0.0
12	0x00000000	0.0
13	0x00000000	0.0
14	0x00000000	0.0
15	0x00000000	0.0
16	0x00000000	0.0
17	0x00000000	0.0
18	0x00000000	0.0
19	0x00000000	0.0
20	0x00000000	0.0
21	0x00000000	0.0
22	0x00000000	0.0
23	0x00000000	0.0
24	0x00000000	0.0
25	0x00000000	0.0
26	0x00000000	0.0
27	0x00000000	0.0
28	0x00000000	0.0
29	0x00000000	0.0
30	0x00000000	0.0
31	0x00000000	0.0
32	0x00000000	0.0
33	0x00000000	0.0
34	0x00000000	0.0
35	0x00000000	0.0
36	0x00000000	0.0
37	0x00000000	0.0
38	0x00000000	0.0
39	0x00000000	0.0
40	0x00000000	0.0
41	0x00000000	0.0
42	0x00000000	0.0
43	0x00000000	0.0
44	0x00000000	0.0
45	0x00000000	0.0
46	0x00000000	0.0
47	0x00000000	0.0
48	0x00000000	0.0
49	0x00000000	0.0
50	0x00000000	0.0
51	0x00000000	0.0
52	0x00000000	0.0
53	0x00000000	0.0
54	0x00000000	0.0
55	0x00000000	0.0
56	0x00000000	0.0
57	0x00000000	0.0
58	0x00000000	0.0
59	0x00000000	0.0
60	0x00000000	0.0
61	0x00000000	0.0
62	0x00000000	0.0
63	0x00000000	0.0
64	0x00000000	0.0
65	0x00000000	0.0
66	0x00000000	0.0
67	0x00000000	0.0
68	0x00000000	0.0
69	0x00000000	0.0
70	0x00000000	0.0
71	0x00000000	0.0
72	0x00000000	0.0
73	0x00000000	0.0
74	0x00000000	0.0
75	0x00000000	0.0
76	0x00000000	0.0
77	0x00000000	0.0
78	0x00000000	0.0
79	0x00000000	0.0
80	0x00000000	0.0
81	0x00000000	0.0
82	0x00000000	0.0
83	0x00000000	0.0
84	0x00000000	0.0
85	0x00000000	0.0
86	0x00000000	0.0
87	0x00000000	0.0
88	0x00000000	0.0
89	0x00000000	0.0
90	0x00000000	0.0
91	0x00000000	0.0
92	0x00000000	0.0
93	0x00000000	0.0
94	0x00000000	0.0
95	0x00000000	0.0
96	0x00000000	0.0
97	0x00000000	0.0
98	0x00000000	0.0
99	0x00000000	0.0
100	0x00000000	0.0
101	0x00000000	0.0
102	0x00000000	0.0
103	0x00000000	0.0
104	0x00000000	0.0
105	0x00000000	0.0
106	0x00000000	0.0
107	0x00000000	0.0
108	0x00000000	0.0
109	0x00000000	0.0
110	0x00000000	0.0
111	0x00000000	0.0
112	0x00000000	0.0
113	0x00000000	0.0
114	0x00000000	0.0
115	0x00000000	0.0
116	0x00000000	0.0
117	0x00000000	0.0
118	0x00000000	0.0
119	0x00000000	0.0
120	0x00000000	0.0
121	0x00000000	0.0
122	0x00000000	0.0
123	0x00000000	0.0
124	0x00000000	0.0
125	0x00000000	0.0
126	0x00000000	0.0
127	0x00000000	0.0

network_body._body_endoder.seq_layers.4.weight f4 [128, 128]
0	0xbb623073	-0.0034513741
1	0x3ccb3eea	0.024810273
2	0xbe290222	-0.1650472
3	0x3c87ddcb	0.016585251
4	0xbc392e89	-0.011302599
5	0x3b5ef882	0.0034022634
6	0xbd5ec43a	-0.054386355
7	0xbdee0f54	-0.11624017
8	0x3d4ef33f	0.050524946
9	0x3da90a41	0.08253909
10	0x3db623b1	0.08893526
11	0x3d537676	0.051626645
12	0x3de920a5	0.113831796
13	0xbd48b2d3	-0.048998665
14	0xbcc8016b	-0.024414739
15	0xbde74ccb	-0.11293944
16	0xbb3251b7	-0.002720935
17	0xbd91dd11	-0.07122243
18	0x3de45321	0.11148668
19	0x3d1e4ff3	0.038650464
20	0x3dc5a0f3	0.09649839
21	0x3dd8d853	0.105881356
22	0x3d7bbfb3	0.061462115
23	0x3db4cca5	0.08828095
24	0x3d83597a	0.06413551
25	0x3e21987c	0.15780824
26	0xbc9a51ee	-0.018837895
27	0x3c7d1389	0.015446552
28	0xbcb34f85	-0.021888504
29	0xbc9cd628	-0.019145086
30	0xbe24a403	-0.1607819
31	0x3df3df89	0.1190787
32	0xbd1e905b	-0.038711887
33	0xbded60b9	-0.11590714
34	0xbce17916	-0.027523559
35	0x3dec063c	0.115246266
36	0x3e76a471	0.24086167
37	0xbde8983c	-0.113571614
38	0xbe1d8f76	-0.15386757
39	0x3dffd0d8	0.12491006
40	0xbde1c8ef	-0.11024653
41	0xbd25906d	-0.04042094
42	0xbcba9c36	-0.022779565
43	0xbd10c36d	-0.035342623
44	0xbd8c98b1	-0.06865061
45	0x3d5b6967	0.053567316
46	0xbe3460f6	-0.17615113
47	0xbd1df313	-0.03856189
48	0x3e599ed2	0.21251991
49	0x3d55116d	0.05201857
50	0x3d597117	0.053086367
51	0xbd83287b	-0.064042054
52	0x3d3de453	0.046360325
53	0xbc73ed42	-0.01488811
54	0xbd720a18	-0.059091657
55	0xbdee25ae	-0.116282806
56	0xbde34549	-0.110971995
57	0xbd68874e	-0.05676966
58	0xbe42d1ca	-0.1902534
59	0xbd83153b	-0.06400534
60	0xbdbd8dfd	-0.09255598
61	0x395476b4	0.00020262116
62	0x3ca277f6	0.019832592
63	0x3d66b2b8	0.056322783
64	0x3d1ba5fc	0.038000092
65	0xbde46671	-0.11152352
66	0x3d9f383c	0.07774398
67	0x3d02105d	0.031753886
68	0x3e9b8478	0.30374503
69	0x3d015b10	0.031580985
70	0xbe0230cc	-0.12713927
71	0x3b8cbed7	0.004295211
72	0xbccc20f2	-0.024918053
73	0xbda0715c	-0.078341216
74	0x3d9a488f	0.07533371
75	0x3d21c928	0.03949848
76	0x3d0f2827	0.0349504
77	0xbdcb24e7	-0.09919148
78	0x3d75515b	0.05989204
79	0xbd8b9658	-0.06815785
80	0x3d089596	0.03334578
81	0xbdc049d6	-0.09389083
82	0x3bb93d61	0.005653069
83	0x3db57d7d	0.088618256
84	0xbcbc7d2a	-0.023008902
85	0x3c7cc789	0.015428432
86	0x3d838bc5	0.06423143
87	0xbd0172ea	-0.03160373
88	0x3d0bf878	0.034172505
89	0x3c8758df	0.01652187
90	0xbb0eea47	-0.002180712
91	0x3dbb00a6	0.09130983
92	0xbc162c53	-0.009165841
93	0x3b3dd079	0.002896337
94	0xbe2eae74	-0.17058736
95	0x3d1a15be	0.03761839
96	0xbe035bf9	-0.12828054
97	0x3dce0dd0	0.10061228
98	0xbccc8454	-0.024965443
99	0xbd62f0dd	-0.055405486
100	0xbda4d32a	-0.08048089
101	0x3cda5e26	0.026656222
102	0x3d1dc8e3	0.03852166
103	0xbc35995c	-0.011083927
104	0xbe154203	-0.14575963
105	0xbd2a2e2d	-0.041547943
106	0x3d7a42af	0.06109875
107	0x3e4de949	0.20108522
108	0x3ca50b8a	0.020147104
109	0x3d4f7927	0.05065265
110	0x3cf224e7	0.029558612
111	0x3da8a07a	0.082337335
112	0xbe3ed28a	-0.18635002
113	0xbd94e199	-0.07269592
114	0x3d62a41e	0.055332296
115	0x3b50f1e4	0.003188246
116	0x3c68f886	0.014219409
117	0x3d8303f7	0.063972406
118	0xbd85b2e2	-0.0652826
119	0x3d9756de	0.073896155
120	0xbe5e26a9	-0.21694435
121	0x3be6f1bd	0.0070478604
122	0x3a0d0ea9	0.00053809077
123	0x3dfd3b81	0.12364865
124	0x3c083429	0.008313217
125	0xbc2fa538	-0.010720544
126	0x3e0ebe7f	0.13939856
127	0x3d2772f2	0.040881105
128	0xbe157037	-0.14593588
129	0xbde2cf87	-0.11074739
130	0xbdae735f	-0.08518099
131	0xbdd18bb2	-0.10231723
132	0x3e114a05	0.14188392
133	0xbe1e8015	-0.15478547
134	0x3d88a8c4	0.066728145
135	0xbd4c6fc9	-0.049911294
136	0x3d6d0a42	0.05787111
137	0x3dae69ee	0.08516298
138	0x3db3bc54	0.08776155
139	0xbdcc01bb	-0.099612676
140	0xbda5400a	-0.08068855
141	0xbd5df422	-0.0541879
142	0x3e38e8e9	0.18057598
143	0x3dab3a8f	0.083607785
144	0xbe1ed519	-0.15510978
145	0xbd31db73	-0.043422174
146	0xbc68abc8	-0.014201112
147	0xbe04c52b	-0.12965839
148	0xbd937fde	-0.07202123
149	0x3b83d1a3	0.0040227934
150	0x3d0963fe	0.033542626
151	0x3b4d0d9a	0.0031288625
152	0x3e038e05	0.12847145
153	0x3bfc87e3	0.0077066286
154	0xbdea1d7e	-0.114314064
155	0xbd909bee	-0.07060991
156	0x3c991209	0.018685358
157	0xbd6bc702	-0.057562836
158	0x3d3fa928	0.04679218
159	0xbdff1d0e	-0.124567136
160	0xbd4dfb4b	-0.05028848
161	0xbc9727cc	-0.018451594
162	0x3db531ca	0.08847387
163	0xbe490ddc	-0.19634193
164	0x3de27aa5	0.11058549
165	0x3d3c7b6a	0.046016134
166	0xbd1b3822	-0.03789533
167	0x3d9a8ce8	0.07546407
168	0x3d96ac19	0.07357044
169	0xbc1dd605	-0.009633546
170	0xbe33f1c9	-0.17572702
171	0xbdf829f7	-0.12117379
172	0xbdf48987	-0.11940294
173	0x3cca62ae	0.024705257
174	0x3e10492d	0.14090414
175	0x3e45ca8d	0.19315548
176	0xbc105193	-0.008808511
177	0x3c8828a3	0.01662094
178	0xbc598886	-0.013277179
179	0x3d1fd311	0.039019648
180	0x3c5ad47b	0.013356323
181	0xbd3fae2f	-0.046796974
182	0xbc772543	-0.0150845675
183	0x3e07c79b	0.13259737
184	0xbc8e0b98	-0.017339513
185	0x3da754df	0.08170485
186	0xbde8199a	-0.11333008
187	0xbd97d833	-0.074142836
188	0x3d371624	0.04469885
189	0x3e293c10	0.16526818
190	0x3d8382c3	0.06421425
191	0x3de4c6e0	0.11170745
192	0xbca60e09	-0.020270364
193	0xbc066a4f	-0.008204057
194	0x3d983286	0.074315116
195	0x3de05d4e	0.109552965
196	0xbbb1897a	-0.005418
197	0xbd938772	-0.072035685
198	0x3db26f67	0.087126546
199	0x3bfef631	0.007780813
200	0xbd17f589	-0.037099395
201	0xbc910dfc	-0.017706864
202	0x3dba352f	0.09092175
203	0x3d2973e0	0.041370273
204	0xbdc83fb7	-0.09777778
205	0x3d802f9e	0.06259082
206	0xbdf2132f	-0.11820065
207	0x3dbedadb	0.09319087
208	0x3d1b8d90	0.0379768
209	0xbc8aff15	-0.016967336
210	0xbdfb36bd	-0.122663
211	0xbd2df911	-0.042473856
212	0x3d3890b7	0.045059886
213	0x3dcf2458	0.10114354
214	0xbe14e21e	-0.14539382
215	0x3dc16ddf	0.094447844
216	0x3d002295	0.03128298
217	0x3dd33fea	0.10314925
218	0x3dad48f5	0.08461181
219	0xbcaefeff	-0.021361826
220	0xbdd40692	-0.10352816
221	0xbd84ceda	-0.06484766
222	0x3c6dcc7f	0.014514088
223	0xbd0bba6d	-0.034113336
224	0x3ddbf593	0.10740199
225	0xbbc66596	-0.0060545905
226	0x3da2c4b2	0.07947673
227	0xbdd7c249	-0.10535104
228	0x3e31f55b	0.17378752
229	0xbe2b340a	-0.1671907
230	0x3db8cccc	0.09023437
231	0xbc4c4c10	-0.012469307
232	0x3e1d8d1e	0.15385863
233	0xbdbd1e07	-0.09234243
234	0x3ac0459f	0.0014669186
235	0xbc579a24	-0.013159309
236	0x3daffeae	0.08593498
237	0x3e33c543	0.17555718
238	0x3ce32bce	0.027730849
239	0xbdd4a851	-0.10383666
240	0xbe4470ce	-0.19183657
241	0x3db0e07c	0.08636567
242	0x3d235570	0.0398764
243	0xbd7ee1f9	-0.062227223
244	0x3d2a8480	0.041630268
245	0xbd11d6be	-0.035605185
246	0xbc960b3a	-0.0183159
247	0xbc6f67e1	-0.014612169
248	0x3d7a6d40	0.061139345
249	0xbcfa1da2	-0.030531708
250	0x3d90774f	0.07054006
251	0xbdc5f847	-0.09666496
252	0x3b6457c8	0.003484236
253	0xbd4dfd0e	-0.05029016
254	0xbbe688c6	-0.0070353476
255	0x3e18bca2	0.14915708
