MLA_Lab4/results/Economic/Economic/Economic-40812.onnx (onnx, 76961 bytes, 8 tensors)

action_model._continuous_distribution.log_sigma f4 [1, 5]
00000000: c70f 3338 f848 0ab8 542c 4dbb 6887 cf39
00000010: 7138 1bbc
4.269162e-05 -3.296972e-05 -0.003130694 0.00039583002 -0.009473906

action_model._continuous_distribution.mu.bias f4 [5]
00000000: 3cb0 d6b9 4c80 e73a c63f f1ba b583 453a
00000010: 2ad1 86ba
-0.00040948566 0.0017662137 -0.0018405847 0.00075345795 -0.0010285724

action_model._continuous_distribution.mu.weight f4 [5, 128]
00000000: ae13 55bc abe7 2ebc 5e39 64bc 222d 02bd
00000010: 6e6b fabb 8fee b0bc 6e62 b8bc bd59 5ebc
00000020: 3033 123c e94b 003d 3fee f73b fa82 f33c
00000030: 429e da3a 8458 21bc 7cf9 4e3c e518 283c
00000040: b116 9fbc e5a0 fc3c afa1 0bbd 3e4e acbc
00000050: e3cb 25bb 8616 39bd a388 b83c d891 11ba
00000060: b8fa d13c 469e b93b a79a ce3c 0dbb 123c
00000070: a834 143c 8a4a 603c 8838 ccbb a101 df3a
00000080: ffa4 aa3c 682c b63c bf4a 3bbc 119e 41bb
00000090: c474 5f3b f27c 8cbc b71c e5bc 27ff 043d
000000a0: 7d19 7dbc 2dac 773b ef08 f43b 48f5 833c
000000b0: c884 aa3c 6bde 393c 30b8 be3c 84bb 0f3d
000000c0: a06c fc3a 1242 7abc 2a05 9cb8 7dfc 273b
000000d0: 1186 50bc 8886 06bc 5877 793b d79a 8bb9
000000e0: 0785 583c 5c79 62bc fcb2 6e3b dde8 293c
000000f0: b238 213b c8e5 dfbc 1ab7 38bc 1c27 23bc
00000100: 273f 90bc 3509 f43c 89fc 50bc a09e 8d3c
00000110: f60f a33b 73c1 f0bc f340 0abb 93a4 9dbb
00000120: 96ac 5e3c 695c 87bc 9c4d 6c3c 0ec6 04bc
00000130: fd53 0a3c dc56 6a3b 5094 21bc f655 4fbc
00000140: 2e3c 643b 51f8 bbbb 23ed edbc b897 c8bb
00000150: 80fc abbc 9fc6 bcbc 43d4 d93c 9dbb 3ebc
00000160: 8e3c 1f3c e7c3 a8bc b1e4 f4bb de70 b3bc
00000170: 1544 15bc 4bb9 2abc 1ae4 88bb 3e69 933b
00000180: e23a 0d3c a6b8 26bd 71d9 b1bc c2ab 11bd
00000190: 82bb 2c3d f0a4 133c 294b d4ba 3dad 64bc
000001a0: fd42 9b3c 0e6f 3e3a f0e2 d1bc e8d8 8cbc
000001b0: 26ce e93a 29a5 b9bc 3278 3d3c 80e9 4739
000001c0: c178 b4bc f604 073c 853b ba3c e733 0b3d
000001d0: 7eca be3b 0c23 07bb 5c33 64bc e511 643c
000001e0: efbf 983c aceb 9abc dcc0 29bc 6be9 2fba
000001f0: 81d7 2d3c 5db8 b03b 6e5d 7cbc f0fd 51bb
00000200: 8461 21bb 8c02 afbc d6b5 25bc 83d7 0a3c
00000210: c806 0dbb fc7f 82bc 2d97 533c ac7f c9b9
00000220: dc8a d33c efb2 12bd 0ab9 f63c 409f a53c
00000230: 3b09 173a 1ec1 8abc c8d8 e7bb 0396 44bc
00000240: 631d 8d3c a5fc fcbc 0155 04bc 0b38 0fbc
00000250: 9d98 f43b 4271 26bc 1d20 aebb c362 823c
00000260: a313 1e3c 04c9 ffbc 8f19 463c c19c 383b
00000270: 932c cc3c cc19 c9bc 5e20 95bc 91b5 8dbc
00000280: d672 003b 7f10 12bc 8e31 f4bc 3777 c93c
00000290: 2488 873c dda4 91bc 1241 253c 08a8 02bd
000002a0: d4cf 8abc 8353 083c ad08 12bc d791 1b3c
000002b0: e09f 3139 73ef f53c d416 5739 3bb4 01bc
000002c0: b325 f03b 15de 063b 5b8e d9bc 3b13 2d3d
000002d0: 9466 283c ac02 d1bb 3231 2c3c fbd8 39bb
000002e0: c957 e0bb f0ac e3bc 6a37 b2bc 6f68 13bc
000002f0: 2138 eb3a f26a c1bc 1946 ac3b 145f 2dba
00000300: e6be 6bbb 2f81 a1bb 0dde 563c 295a 043b
00000310: 9c5a 61bc f095 fd3c 0aa0 96bb 5ea5 7dbc
00000320: 0300 6c3b fc41 1dbd 6382 b9bb fc5e fabb
00000330: 9172 8c3c 7026 dbbc 3bdf f13a bf44 fdbc
00000340: 0bb5 f13b 5d54 e33c ace2 76bc 7158 01bd
00000350: cfac ea3c 10b9 ce3c 7a79 973c 325e de3c
00000360: 09ce 50bc af80 17bd 3f6c 2abc b3a5 11bc
00000370: 85fd 7b3c f604 a33c ecb7 673b 84c7 0bbd
00000380: 5c7b 513c 13c5 373c 461f 74bc dd46 d93a
00000390: 5666 1b3c 7905 7d3c 0d38 483c 581a 98bb
000003a0: 8b60 80bc d956 4abb defa 60bc c13e 073c
000003b0: c810 1abc d73e 8e3c 83bd a83b da95 433c
000003c0: 303a c4bc bb62 33bc fa6f ffbb 4717 04bc
000003d0: 76a0 843b 482a 313c e2d8 87bc 1b4a 76bc
000003e0: cff3 85bc ae05 9639 9c85 04bc 9561 22bc
000003f0: 23b0 943b d229 c73b 75c1 d9bc 2950 603c
-0.01300518 -0.010675351 -0.013929693 -0.031781323 -0.007642201 -0.021598129 -0.022507872 -0.0135712
0.008923337 0.031322394 0.007566243 0.02972554 0.0016679245 -0.009847764 0.012632724 0.010259842
-0.01942 0.03083844 -0.03408974 -0.021033403 -0.0025298528 -0.045187496 0.022526091 -0.00055530434
0.025632247 0.0056646196 0.025220228 0.008955729 0.009045757 0.0136896465 -0.006232325 0.0017014035
0.02083063 0.022237971 -0.011431395 -0.0029543678 0.0034096697 -0.017149422 -0.027967794 0.032469895
-0.015447971 0.0037791834 0.007447354 0.01610817 0.020815268 0.0113445325 0.023281187 0.03509094
0.0019258447 -0.015274541 -7.4396215e-05 0.0025632672 -0.012727276 -0.008210786 0.003806552 -0.0002662751
0.01321531 -0.01382288 0.00364226 0.01037046 0.0024600443 -0.027331248 -0.011274124 -0.009958055
-0.017608238 0.029789547 -0.012755522 0.017287552 0.004976268 -0.029389119 -0.0021095842 -0.0048108785
0.013590952 -0.016523557 0.0144228 -0.008103861 0.008442876 0.0035757339 -0.009862021 -0.012654772
0.003482591 -0.0057363887 -0.02904374 -0.006121602 -0.020994425 -0.023043929 0.026590472 -0.01164141
0.009719027 -0.020601226 -0.007473551 -0.021904405 -0.00911047 -0.010420154 -0.0041775825 0.00449863
0.008619996 -0.04070344 -0.02171013 -0.03556419 0.04217101 0.009011492 -0.0016196716 -0.013957319
0.018952841 0.0007264473 -0.025620908 -0.017193273 0.0017837926 -0.022661762 0.011564301 0.00019065104
-0.022030236 0.008240929 0.02273346 0.033985045 0.005822479 -0.0020620255 -0.013928261 0.013920282
0.018646209 -0.018911205 -0.010360923 -0.0006710502 0.010610462 0.0053930716 -0.015403135 -0.0032042228
-0.0024624774 -0.02136352 -0.010114154 0.008474234 -0.0021518935 -0.015930168 0.012914461 -0.0003843283
0.02582305 -0.035815176 0.03011753 0.020217538 0.00057615683 -0.016937789 -0.007075403 -0.011998656
0.017225927 -0.030882189 -0.008076907 -0.008741389 0.007464482 -0.010158839 -0.005313887 0.015916234
0.009648236 -0.031223781 0.012091055 0.0028169604 0.024923598 -0.024548434 -0.01820391 -0.017298492
0.0019599698 -0.008915066 -0.029808786 0.024592979 0.01654441 -0.017778808 0.010086315 -0.03189853
-0.016944803 0.008320692 -0.008913201 0.00949522 0.00016939593 0.030021405 0.00020512502 -0.007916505
0.007328713 0.0020579149 -0.026557138 0.042254668 0.010278363 -0.0063784923 0.010509776 -0.002835809
-0.0068464023 -0.027792424 -0.02175494 -0.008997067 0.0017945805 -0.023610566 0.0052573797 -0.0006613594
-0.0035971939 -0.00492873 0.0131144645 0.0020195341 -0.013754513 0.030955285 -0.004596715 -0.015481321
0.003601075 -0.038393006 -0.0056612953 -0.0076407176 0.017144473 -0.026751727 0.0018453369 -0.03091657
0.0073763183 0.027750188 -0.015068691 -0.031578485 0.028646855 0.025234729 0.018490542 0.027144525
-0.012744435 -0.036987957 -0.010401784 -0.008889603 0.015380268 0.019899826 0.0035357429 -0.03412582
0.012785759 0.01121642 -0.014900034 0.0016576905 0.009484848 0.015443199 0.012220395 -0.0046418123
-0.015671035 -0.003087452 -0.013731686 0.008254708 -0.009403415 0.017363949 0.0051495447 0.011937583
-0.023953527 -0.010948832 -0.007795331 -0.00806219 0.0040474487 0.010813303 -0.01658291 -0.015032317
-0.016351609 0.0002861446 -0.008088496 -0.009910961 0.0045375987 0.0060779834 -0.026581505 0.013690987

action_model._discrete_distribution.branches.0.weight f4 [1, 128]
00000000: d22f f73b 22ab 523c 0fa2 1f3b 9d06 f1b9
00000010: 98ec b43b bf77 5dba 6b1b b9bb 8a8b e33b
00000020: 9e3c 14bb d72f 03bc 0a97 823b bb14 493c
00000030: e15f a6bc 4768 cf3c 6324 8239 fb42 d0bb
00000040: 4328 d23b 1fec 80bc 5586 4abb aa6b 483c
00000050: 5588 513c 7cbc 03bc 6b0a 88bb 3432 ab3a
00000060: a77d 39bc 4a68 debb 0e8b 943c f46b 933b
00000070: c1cc 413c 042d 4c3a fdf5 d6ba 88ec c13a
00000080: e3ab 4c3c 589d 3f3b ba56 0cbb 64d2 333c
00000090: a885 daba 9ac3 703b 5316 03bb cb36 183c
000000a0: 2b15 9e3b 8722 8dba c817 73bb e599 a438
000000b0: 6c23 99bb e15e 9cbc 174c 213b d268 623b
000000c0: 2119 87bb 134f 40bb b5d5 683b fd7a e33b
000000d0: f0b1 04ba 7a8c 14bc 67b6 8abc 077a 24ba
000000e0: f4f8 82bb 0576 7fbc 0e05 9d3b 0786 853c
000000f0: 4030 923a d3ec 01bc da57 76bb 9b26 4abc
00000100: 6ea7 36bb ad5e e2bb ffb5 b83c e5ff 353c
00000110: 1d9f 7abb b253 4d3a eb7f d8bb 9aa6 c13c
00000120: 1a18 5fbc fab2 2bbc 6b5f febb 4166 13bc
00000130: 1441 0a3b 07fe f03a a90a 95ba 8f00 4bbb
00000140: 5218 92bb c7cc 1fbc 8368 85bc d44d b03b
00000150: 328a 6abc b3bb 933b 35eb fc3b f2d3 503b
00000160: 4237 063b 0b1d 0bbb e38c 3c3c ef25 d7b9
00000170: ea66 e9bb 35a3 7b39 bbd9 ed3b a815 3dbc
00000180: dbf5 73bc 7a69 103c fca4 053c 437c ac3a
00000190: 412c 0fbc aa69 5a3c 6b8f 703c f37e fa3b
000001a0: 0006 51bb ed7d 703c 5e9d 143c b7c8 023c
000001b0: 6745 aab9 cfa9 b1ba b7d7 313c 8363 bdbb
000001c0: bf3b 19bc c7aa 3ebc 6549 62bc c954 9b3b
000001d0: ac57 4a3b 937c 053b ea30 7e3c 6b98 27b9
000001e0: 007a ee3b 1f38 b5bc 5986 3ebb 5ece a8bb
000001f0: 80a0 65bc e2e9 b43b 5b38 42bc c983 a13a
0.0075435424 0.012858184 0.002435807 -0.0004597203 0.0055213682 -0.00084483245 -0.0056490204 0.0069441246
-0.0022619138 -0.008007011 0.0039852904 0.012273009 -0.02030939 0.025318278 0.00024822642 -0.006355641
0.006413491 -0.015737591 -0.0030902822 0.0122327 0.012788852 -0.008040544 -0.0041516325 0.0013061226
-0.011321462 -0.0067873346 0.018132713 0.004498953 0.011828602 0.000778869 -0.0016400215 0.0014795223
0.012492153 0.0029238071 -0.0021413998 0.010975454 -0.0016671913 0.0036737681 -0.002000232 0.009290407
0.0048243008 -0.0010767736 -0.0037093032 7.8487945e-05 -0.004673412 -0.01908821 0.0024612003 0.003454734
-0.0041228686 -0.0029344007 0.003552777 0.0069421516 -0.0005061915 -0.009066695 -0.01693268 -0.0006274287
-0.0039969627 -0.015592103 0.0047918623 0.01629926 0.0011153296 -0.007929998 -0.0037588985 -0.012338306
-0.0027870792 -0.006908259 0.02254772 0.011108373 -0.0038241812 0.0007832601 -0.006607046 0.023639012
-0.013616586 -0.010479683 -0.0077628396 -0.008996547 0.0021095918 0.0018386253 -0.0011370975 -0.0030975675
-0.0044584656 -0.009753413 -0.016285187 0.0053803716 -0.014315175 0.0045084595 0.0077184686 0.003186461
0.0020479714 -0.0021227028 0.011508199 -0.00041036258 -0.007122864 0.00023998025 0.0072586215 -0.011540808
-0.0148901595 0.00881421 0.008157011 0.0013159591 -0.008738578 0.013330856 0.014682631 0.007644528
-0.0031894445 0.014678461 0.009070722 0.007982424 -0.00032476636 -0.0013554635 0.010854653 -0.005779685
-0.0093526235 -0.011637396 -0.013811444 0.004740332 0.003087501 0.0020368441 0.015514592 -0.00015983141
0.007277727 -0.022121487 -0.0029071777 -0.005151554 -0.014015317 0.005521045 -0.0118542565 0.00123226

network_body._body_endoder.seq_layers.0.bias f4 [128]
00000000: 1f44 d0ba 955a 7d3b 957b 56b9 2c68 e7bb
00000010: 27e3 a839 02ac b1ba 46d7 85ba c8f3 7d3b
00000020: c78c 2eba e495 97ba a41b 19bb 1144 33b9
00000030: 55e1 d9ba 79ed 6cba 2f7b 1e3b 3e6a 79bb
00000040: 75bd e13b dc56 2ebb 131b e23b e543 8f39
00000050: 8d55 c2ba aac1 0c3b 1d57 0cba 61e0 8db8
00000060: 5b26 20ba 1f36 7fbb 59d9 9d3a 17ef 8bbb
00000070: e728 c0b9 4f1c e0ba e970 c13b 3bc3 593b
00000080: 94a9 81ba 5ab9 933b 3c9f 9fb8 9144 c2b9
00000090: ddda bcbb 3f99 e9b9 ae9c 613b 5f57 283a
000000a0: 1f15 9e3b a24b 8dba fa92 d7b9 7d85 073a
000000b0: 9f82 9aba c15f 2339 5463 de3b fbe8 d9ba
000000c0: 0ce0 36ba cf1c 663a 80a2 b7bb 920c a33a
000000d0: 0ae3 76bb dc1b 813a 665e 91ba 422e a43b
000000e0: 5416 3dbb 7f41 c539 0230 e4ba 28bc 19bb
000000f0: a3eb 87ba 390c e8ba d8a0 923b fe25 57bb
00000100: 9309 5abb 7191 f9bb ff03 c43b 10f9 59ba
00000110: f71f 813b bb2b 10bc f22a b73b 6183 c7ba
00000120: 077d 43bb c644 5f3a f8e5 073c b2bb b0ba
00000130: 5e8a d3ba 712f d539 6656 75ba a978 bfb8
00000140: 537e 96bb 6ae3 9fbb 61ca f6b9 e4cd 633a
00000150: 3d3c b0ba 1036 70bb eec1 9fb9 518a 6b3a
00000160: 237e 8c3a 9232 a23b 0292 ffba f8ab 9abb
00000170: 2db4 7fba 2bbd 1339 98bb e13a 7775 a03a
00000180: 8c91 80ba be9e a3b8 16bb e2ba 29ed aaba
00000190: 1821 35ba 3e8e 003a 7937 cbba 186f 4aba
000001a0: b1c7 6938 2b89 383b e4f5 1c3a ec84 b2bb
000001b0: bcbd 543b d922 c3bb 9270 08bc c4bd 40bb
000001c0: 16ce a7ba ad3e fe3a 8382 39bb 4c41 f0b9
000001d0: 5c7f 8cba 15d9 ec3b db2e 333a b91f a1ba
000001e0: c192 04bb 45d4 36ba d5d9 a4bb a4b8 9bba
000001f0: 51a9 27b9 a2fa 9bba e58a 53ba 6a5e 65b9
-0.0015889442 0.0038658727 -0.00020454668 -0.007061979 0.000322127 -0.0013555291 -0.0010211251 0.0038750041
-0.00066585507 -0.0011565057 -0.0023362422 -0.00017096127 -0.001662294 -0.0009038072 0.002418231 -0.003805771
0.00688904 -0.0026602065 0.0069002 0.0002732567 -0.0014826522 0.0021477737 -0.0005353557 -6.765198e-05
-0.0006109231 -0.003894217 0.0012042924 -0.004270445 -0.00036651568 -0.001709828 0.0059033525 0.0033227939
-0.0009892457 0.0045081796 -7.6113705e-05 -0.0003705365 -0.005763395 -0.000445554 0.0034425664 0.0006421711
0.004824295 -0.0010779987 -0.00041117502 0.00051697326 -0.0011788196 0.00015580562 0.006786743 -0.001662522
-0.00069761346 0.00087780965 -0.0056040883 0.0012439659 -0.0037671947 0.0009850222 -0.0011090755 0.005010397
-0.002885242 0.00037623566 -0.0017409327 -0.0023458097 -0.0010369908 -0.0017703838 0.0044747405 -0.0032829042
-0.0033269867 -0.007616215 0.0059819217 -0.0008315006 0.003940578 -0.008799489 0.0055898363 -0.0015221649
-0.002982916 0.0008517023 0.008294575 -0.0013483672 -0.0016139259 0.00040661872 -0.00093588827 -9.1300644e-05
-0.0045926957 -0.004879405 -0.0004707156 0.0008690043 -0.0013445687 -0.0036653318 -0.00030471332 0.00089851493
0.0010718744 0.004949876 -0.001949847 -0.0047202073 -0.00097543263 0.00014089483 0.0017222045 0.0012242039
-0.0009809001 -7.802014e-05 -0.0017298188 -0.001304065 -0.00069095334 0.0004904008 -0.0015504203 -0.0007722243
5.5737506e-05 0.002815793 0.00059875683 -0.0054479744 0.0032461723 -0.005955082 -0.00832762 -0.0029409984
-0.0012802507 0.0019397341 -0.002830655 -0.00045825017 -0.0010719108 0.0072280266 0.000683529 -0.0012292779
-0.0020229074 -0.00069743796 -0.0050308504 -0.0011880589 -0.00015989436 -0.0011900256 -0.0008069708 -0.00021874314

network_body._body_endoder.seq_layers.0.weight f4 [128, 8]
00000000: f11c cbbe db64 39bf 350f 95be f447 b5be
00000010: c6a5 62bc 15a3 c93b e626 d23e bd57 063e
00000020: 3c02 0b3f b271 203f 6603 353f ce9b 78be
00000030: e2e0 62bf fc4b 173f 6199 d8bd 7bc6 ddbe
00000040: 57eb a03e 9145 47be 5942 87be 8a62 e33c
00000050: 0c30 8f3e 1b72 063f a108 8bbe e903 c53e
00000060: ec63 643f cbf1 903e 8976 cebd 01fc c4be
00000070: e994 abbe 4603 16be 34ca 17be dfd4 1fbe
00000080: 1e25 9bbe 6a6d e93e 75bd b93e e850 d93e
00000090: beb5 b2be 97ce 7dbe a2d9 72be e10e 3b3f
000000a0: 4584 953d 6f8f 07bf 91b8 dc3e 8cac cb3e
000000b0: c126 cabe b5c1 5dbe 30e0 56be b658 27bf
000000c0: 8ed5 f5bd 4687 213f bc73 cabe b14d 01be
000000d0: d680 743e 4649 2e3e 9efd 54be 1e3c f63d
000000e0: 38d8 72be e581 c1be cd64 1cbc b035 c3bd
000000f0: f7fc fd3d e807 8ebd c769 9abd 9ac1 bd3d
00000100: 2e41 bb3d 5fcc 0a3e 79dd 58be 80f3 b1bd
00000110: c2a7 10be 4717 0d3f 36a2 e43e 5276 8ebd
00000120: aeee d3be 8c50 ff3d b798 98be df4e 0f3f
00000130: 520f 73be 3132 90be 6ccd 533d f909 98ba
00000140: bfce b5be d3c6 7f3c adfd 8d3e bb74 123f
00000150: 1ab6 1d3e 5be1 603e 4b8f ba3e 0ede 2abe
00000160: b8a1 e9bd bc00 4e3d f213 96bd d889 2a3d
00000170: e80e edbd 5cf7 a63e 7256 ecbe 08bd 69be
00000180: a190 0abe 333d be3e 6ad0 e8be 4adf b4bd
00000190: 6a91 47be 3790 a1bd 94e7 b2bd e068 2b3e
000001a0: 0062 5bbe 5d98 1b3e c0fd b93e 16cc 453f
000001b0: 76d8 c4be d1c3 803e f422 073f 7da3 eb3e
000001c0: 5707 e73d 8595 b3be be61 f13e d414 49be
000001d0: ce8f 9abd 136f 683e ea02 893e 4f90 17be
000001e0: 7d76 0e3e 739d b3bd f4c8 e63e e116 18be
000001f0: 5cde e2bc e3c5 97be 1480 543e cc1e 913e
00000200: dfee 113d ce27 983e 05ca 28bf da5d 2ebf
00000210: 6267 a3be c9e1 543e a4e1 383e de2b c53e
00000220: 6491 16be d8bd cd3e 8d2f 5f3e 6eda c23e
00000230: b7a3 293e 7a69 843e abcf 393f d293 ecbe
00000240: fc03 853e 6edc 04bd 0740 17bf cc90 70be
00000250: 7362 51be 77a2 b43e 19da de3e 7081 b5be
00000260: 676f 483e 9829 c6be 3871 70be 3e7d 9e3e
00000270: 6380 a0be e728 aa3e 6332 053e 0274 f3be
00000280: 42d2 a83e 6348 13bf d08b c0be d544 373f
00000290: bebe 2dbe 8ce3 babd dc74 b2bd 37d6 8f3c
000002a0: cc37 a0be c179 13bd aed9 2dbe e947 01bf
000002b0: 08db 27bd 6c7f 443f 4aa0 3d3e ca3f 78be
000002c0: eb73 57be 0b9d 273e 1803 07bf 5118 cf3e
000002d0: 46e9 a3be 7498 f5be 0730 433f 15d5 463e
000002e0: 30e0 663e b72d 53bf 92be f83e a8cb 303e
000002f0: 5438 b33e e25b 49be 98d8 07bf cebb 8a3e
00000300: e688 8bbe 2776 ccbe 4e2d 88be c9d1 aabe
00000310: 119e 243f 4d1a 373d 2872 9ebe 34ed 603e
00000320: 513b 573e ff92 8abe dbe4 d73d 788e 03bd
00000330: cf77 74be d49a 0e3f fae9 f33d 03ad 2abe
00000340: 5cb0 ab3e ab01 bd3c 61ee d5bb 827d 0bbf
00000350: 1269 f63d ae5a 04bf 23a0 d6be 332c 913e
00000360: 9319 bf3d eea6 b23d 8479 673e 01ae 00bf
00000370: 6090 c93d 6956 983e a9fb 1b3f 7dc3 76be
00000380: f5cc 69be fb15 71bb e237 e8be 0d0e df3e
00000390: 99e4 e93d 75cd 55bd 5776 75bd 9fbc a03e
000003a0: 4e1a 8abe 3dc0 cfbd 90f5 69bd a304 a33e
000003b0: e04d fa3e 0876 483f 5a41 1d3e 16f5 543e
000003c0: 95c9 9ebe f948 b03e 9bbd 303e bbf1 f3be
000003d0: 9e47 5c3e 2ac1 bc3e 81a3 693e 2486 d13e
000003e0: 794b 943e b96d 16be 34d5 e63e b2a0 e53d
000003f0: 5947 1a3e 7894 aebe a93f 02be d5e5 7bbe
-0.39670518 -0.7241952 -0.29113165 -0.35406458 -0.013833469 0.006153474 0.41045302 0.13119407
0.54300284 0.62673485 0.7070831 -0.24278185 -0.88624394 0.5910032 -0.1057613 -0.4331549
0.3142955 -0.19460131 -0.26417807 0.027756948 0.27966344 0.5251786 -0.2715502 0.38479546
0.8921497 0.28309473 -0.100812025 -0.38473514 -0.33512047 -0.14649686 -0.14823228 -0.15608548
-0.30301756 0.4559129 0.36277357 0.4244454 -0.34904283 -0.24785839 -0.23715833 0.7306958
0.07300619 -0.5295324 0.43109563 0.3978008 -0.39482692 -0.21655925 -0.20983958 -0.6536974
-0.12003623 0.63097036 -0.39541423 -0.12627293 0.23877272 0.17020139 -0.20799872 0.12023185
-0.23715293 -0.37794414 -0.009545517 -0.095317245 0.12401765 -0.06935102 -0.07539707 0.09265442
0.091432914 0.13554524 -0.21178235 -0.08689022 -0.14126495 0.55113643 0.44655007 -0.069561616
-0.41393036 0.12466535 -0.29804012 0.5597972 -0.23736313 -0.28163293 0.051709577 -0.0011599652
-0.35509297 0.015611368 0.27732602 0.57209367 0.15401497 0.21960966 0.3643745 -0.1668627
-0.114077985 0.05029367 -0.07328023 0.041635364 -0.11575109 0.32610595 -0.46159703 -0.22826016
-0.13531734 0.37156066 -0.45471507 -0.088316515 -0.19489065 -0.07888835 -0.08735576 0.16739225
-0.21424103 0.1519484 0.36326408 0.77264535 -0.38446397 0.25149396 0.5278771 0.4602317
0.11280697 -0.35075012 0.47144884 -0.19636852 -0.0754696 0.22698621 0.26760036 -0.14801143
0.13912387 -0.087702654 0.4507519 -0.14852478 -0.02769392 -0.29643163 0.20751983 0.2834381
0.035628196 0.2971787 -0.6593326 -0.68111956 -0.31914812 0.20789255 0.18054825 0.3851003
-0.147039 0.40183902 0.21795483 0.38057274 0.16566359 0.25861722 0.725825 -0.46206528
0.25979602 -0.03243678 -0.5908207 -0.23492736 -0.20447712 0.352802 0.4352577 -0.35450315
0.19573747 -0.3870361 -0.2348069 0.30954927 -0.3134795 0.3323433 0.13007502 -0.47549444
0.32972914 -0.5753233 -0.37606668 0.71589404 -0.16967294 -0.09125432 -0.087136954 0.0175582
-0.3129257 -0.036004785 -0.1697757 -0.5050035 -0.04098037 0.7675693 0.18518177 -0.24243084
-0.21040313 0.16368501 -0.52739096 0.4044824 -0.3201391 -0.47967875 0.7624516 0.19417222
0.22546458 -0.8249163 0.48582894 0.17265189 0.35003912 -0.19663957 -0.5306487 0.2709641
-0.27252883 -0.39933893 -0.26597065 -0.33363178 0.6430369 0.044702817 -0.3094647 0.21965486
0.21018721 -0.27065274 0.105416976 -0.03211829 -0.23873828 0.55705 0.11909862 -0.16667561
0.3353299 0.023072084 -0.006528661 -0.54488385 0.12031759 -0.51700866 -0.4191905 0.28354034
0.0933105 0.087232456 0.22604948 -0.5026551 0.098419905 0.29753426 0.6093088 -0.2409801
-0.22832091 -0.0036786783 -0.45355135 0.43565407 0.11420555 -0.052197892 -0.05992731 0.31393906
-0.26973194 -0.101440884 -0.057118952 0.31839475 0.4888754 0.783051 0.15356961 0.20796618
-0.3101317 0.34430674 0.17259829 -0.47645363 0.21511695 0.36866122 0.22816278 0.40922654
0.2896383 -0.14690293 0.45084536 0.11212291 0.1506628 -0.34097648 -0.12719597 -0.24599393

network_body._body_endoder.seq_layers.2.bias f4 [128]
00000000: b0a2 f5b8 3234 11ba 2b43 89bb c90c b63a
00000010: cf78 ef38 8cd2 2fbb 029d 0d3b a8d0 3ab9
00000020: a292 5cba aa4c 77ba cca5 5b3b 76a5 303b
00000030: 5e4d b33b fb9d 02bc 1a31 aa39 3a38 e5bb
00000040: 0393 033c 0534 22ba 322f ebb7 fd13 f7bb
00000050: c2bc c23b c930 a339 317f de39 ed93 883a
00000060: 6139 5ebb 7b47 ebba 0b40 56bb 9351 b7ba
00000070: 266e bd3a 116e c5ba 21c5 efba 7d4b 0fbc
00000080: 6de2 0dbb 42d3 1bba 01e1 96ba 9dec 973b
00000090: 0ca1 fb3b 4042 8fba a47b f6ba 8934 cbbb
000000a0: 9342 61b6 e917 64ba 52b1 7fbb ccfb c539
000000b0: 1433 6abb ef4f 4639 39d7 8f39 6f9e ee37
000000c0: fc8d f4ba 5d32 2939 a138 c039 7221 d339
000000d0: f3a4 9e3b 116e 96b9 23ed c83a b947 2cbb
000000e0: 1174 e6bb 8635 57bb f476 acba 8e31 4d3b
000000f0: 6a07 ea38 d92e ccba c605 7eba 7175 c2bb
00000100: 5eda 51ba 5e14 4cba dd78 2239 309d 343a
00000110: 0cd8 95bb ba45 443b 9b66 b5bb 0d68 12ba
00000120: fee9 1bbb 92e9 4eba aa04 2cba 94c7 a53a
00000130: 2df1 aa3a 0072 003a ef7a e5b8 1158 18bb
00000140: 4e2f c4ba 78d4 f13b 1683 e5b9 1f9c 8fba
00000150: ce83 a03b 9a42 c2b9 21c6 573a 03cc 7c3b
00000160: af87 8aba 3111 a2bb c41a 3b3b ed04 ddbb
00000170: bbe2 fd39 665e c83b 8b70 b23b 6935 8eba
00000180: 508e 73b9 5430 58ba cc3a 8cbb ebe9 433b
00000190: 2472 43bb d439 e13a 2189 ab37 acb4 ee39
000001a0: 09e8 1abb d85f 78ba edf2 c9bb f1f8 d6b9
000001b0: 52e9 30bb 109a d539 4ea8 4bb9 002f 1e3a
000001c0: d537 2fbb 173a 36ba e505 0b3b 5842 80ba
000001d0: cdc3 40bb a9a9 acba 381f 12bb dcfe b2b9
000001e0: 0651 8e39 9331 82b9 0c84 f8b8 37fd 96ba
000001f0: 16f0 87b9 5923 2e3a 4e2d d8ba 2dfd 7839
-0.00011712813 -0.0005539089 -0.0041889152 0.0013889308 0.000114189104 -0.0026828377 0.0021608477 -0.00017816073
-0.0008414184 -0.0009433726 0.003351557 0.002695409 0.0054718694 -0.007972236 0.0003246151 -0.006995228
0.008030656 -0.0006187561 -2.803616e-05 -0.0075402246 0.005942912 0.0003112613 0.00042437905 0.0010420062
-0.0033908712 -0.001795038 -0.0032691981 -0.0013986103 0.0014452382 -0.001506271 -0.0018293002 -0.008746025
-0.0021649853 -0.00059442606 -0.0011511148 0.004636361 0.0076791104 -0.0010929778 -0.0018805158 -0.006201331
-3.3566364e-06 -0.00087010727 -0.0039015603 0.0003776237 -0.0035736011 0.00018912529 0.0002743544 2.8445587e-05
-0.0018658037 0.00016135858 0.00036663286 0.00040269975 0.004841441 -0.00028692235 0.0015329461 -0.0026287867
-0.007032879 -0.00328383 -0.0013158009 0.0031310054 0.000111593705 -0.0015577927 -0.00096901914 -0.0059344103
-0.00080052565 -0.00077850174 0.00015494549 0.0006889878 -0.004572874 0.0029948787 -0.005535913 -0.0005584963
-0.0023790593 -0.0007893081 -0.00065619743 0.001264798 0.0013041847 0.00048998 -0.00010942469 -0.002324585
-0.0014967711 0.0073800646 -0.0004377595 -0.0010956562 0.004898525 -0.00037052186 0.00082311226 0.003857375
-0.0010569001 -0.004945897 0.002854989 -0.006744972 0.00048424848 0.006114769 0.005445545 -0.0010849658
-0.00023227301 -0.00082469475 -0.00427947 0.0029894065 -0.0029822672 0.0017183372 2.0448644e-05 0.00045529508
-0.002363684 -0.0009474731 -0.006162992 -0.00041002737 -0.0026994538 0.0004074131 -0.00019422287 0.0006034225
-0.002673616 -0.0006951405 0.002121323 -0.0009785397 -0.0029413581 -0.0013173121 -0.002229644 -0.0003414069
0.00027144718 -0.00024832468 -0.00011850157 -0.0011519556 -0.00025928085 0.00066428405 -0.0016492994 0.00023745438

network_body._body_endoder.seq_layers.2.weight f4 [128, 128]
00000000: 75f0 7d3d c2b2 443e db6e e1bd dae9 9d3d
00000010: 8c90 f93d 423a 0d3e ae64 813c 8333 92bd
00000020: 8d76 513d fd41 783c c344 99bb 5051 5e3e
00000030: 8597 8d3c 750a c73d 256f 913d 43a7 d03d
00000040: 9601 25be 6c24 703d 6693 92bd 4f93 b9bd
00000050: 0173 f5bd f19d 2a3d 76da 9ebb 0f7f 3d3e
00000060: e1b0 3f3d 50f3 bcbd c2d1 78bc 4057 c1bc
00000070: 046c 49be a9f1 c7bc 2a64 1a3e 35bd 08be
00000080: 73cf 493d 5f95 4ebb 7a1f 323d cca8 adbd
00000090: ea41 3abe b5d8 073c 334b 52bd a918 fb3d
000000a0: 52d1 643d c472 b93c 7acb 903d b11c d23d
000000b0: 65ba 61bd 6dfe 2dbd 76e8 efbd 0b4f c03d
000000c0: 7853 993d bdd7 583c ca1e c3bc d864 dfbd
000000d0: fdda 143d cc71 05bd 1646 d53c 3187 febc
000000e0: 2d36 f13c 01da 1bbe fe18 a6bb 6fed f3bb
000000f0: 2fbe bf3d d23f 6ebe 21b6 45be 1184 afbb
00000100: fbd5 003e 964e 8abd 218e f1bc 55fc 663c
00000110: 1f41 04be f578 b03d e355 d7bc 1d27 69bd
00000120: 054d 3b3d 903b 623e 092e 753c 7994 21bd
00000130: 857c ce3d 73de dc3d c442 203d cabd b8bd
00000140: d9e1 b93c 120c 863d ff0f c33d 544a cabd
00000150: 6712 22be d4d4 503d d54a fe3c fbdb 803c
00000160: 5f5d 8cbd a8ec 02be 7d90 753d 55dc 053e
00000170: a4df e1bd d5d8 433d 6bb3 b0bc 1c0a a3bd
00000180: 56ec 1b3e 99f7 82bc 0e79 76bd d1b4 8d3c
00000190: 3af1 993c e122 f0bd 40fa 0d3d 4d08 243e
000001a0: 10bb 943d 336d 85be 551e 373e 35f5 b9bb
000001b0: 8ccc 52bc 21f1 2ebe 509d 8339 a490 58bd
000001c0: 30b3 fa3c 078e 4abd 33aa 1dbc 5e9b c5bd
000001d0: af19 7cbd 972c d93b 6f09 f3bc 35ec 0a3d
000001e0: 617e 233e 4320 bf3c 9f3d 11be 4606 33be
000001f0: 32cd 633c 7659 26bd abdd fbbb 9dc4 0bbd
00000200: 0d16 ddbc 6860 5dbd 318b 413d 67d6 913d
00000210: 6965 59bd 6a05 9e3d 38c6 e7bd 62c1 febc
00000220: 3430 14bc 482a b73c 6fd8 87bc dc4b f4bd
00000230: e323 8fbd cce9 ffbd 1500 7b3d f730 1cbd
00000240: 9d83 fa3d 7400 99bd 7e49 9dbd 57de 623d
00000250: 959c 2e3d 4aed 62be f91e 09be f43f 9b3d
00000260: 0aad 08ba 4e70 16be 2b7a adbd bb2a a03d
00000270: 1d17 d53b 5371 85bc 3d5d 7e3d bd3d 363d
00000280: 358d 3a3d 3107 263d b8ad 2fbd ed10 f33d
00000290: ef40 86bd 07e4 5c3e 8110 f6bd eba1 af3d
000002a0: cce0 dd3d b8eb c53d 2e9f c5bc b97a 203b
000002b0: 3cfb 41bc 5ea3 f73b d96f 173d b087 00bd
000002c0: 20f2 cc3d 1d36 83bd a930 1a3d 1874 f8bd
000002d0: cda1 2a3e 275f dd3d 7e62 3d3d f5f7 e83c
000002e0: dbd3 4835 aa71 d9bd 057f 15be 00d1 19b9
000002f0: 53fc a73d 45f2 6a3c 3426 9c3d 20ec 863d
00000300: 33d6 0ebe 0057 0bbe 3811 73bd b7c6 033e
00000310: 014d 8ebd d6dc 9bbb 6170 543d cd22 7abc
00000320: b58e 42be 09f8 d8bc d339 483d 6527 193e
00000330: e783 bdbd 2612 d53d 4f5a c13a a930 04be
00000340: e5e2 c23d f42a d6bd 92b3 f6bd 6757 69bc
00000350: 955c 363d 430d ff3d f0ab 203d 5b9d a33d
00000360: a6e2 663d ab61 e13d 2574 fcbd 41bb 27bd
00000370: 3e94 0d3e c7a5 3abd 04e5 5d3d 21c5 1fba
00000380: 80ea 85bd 964e 553d 09b4 5d3d 8533 fabd
00000390: 4bfa e33c 0825 82bc a1d1 8fbc 9f32 8ebd
000003a0: 5902 823d 46ca 943d 51ff 0abd c58c 0abd
000003b0: 3d6d 81bd 00f8 c0bd 3ea9 43be 725c 3c3b
000003c0: aa47 6b3c 00f3 843c 9d91 833d 8899 083d
000003d0: 0f69 083e 8675 06bd ab11 60bd 35c0 553d
000003e0: 159d 5abd d7a6 c8bd ead9 94bd 0a7d 9b3d
000003f0: 81df 7fbd 0b92 713d 905b bebb a94d b1bd
0.061996896 0.19208816 -0.11007472 0.07710619 0.12185773 0.13791755 0.015795078 -0.07138731
0.05113845 0.015152452 -0.0046773865 0.21710706 0.017284164 0.097187914 0.07101277 0.10188153
-0.16113886 0.058628485 -0.0715702 -0.090613 -0.11984826 0.04165453 -0.00484782 0.185055
0.046799544 -0.09226096 -0.015186729 -0.023601174 -0.19670111 -0.024407225 0.15077272 -0.13353427
0.049270105 -0.0031522138 0.04348705 -0.08479461 -0.18189207 0.008291413 -0.051341247 0.12260563
0.055863686 0.022637732 0.0707006 0.10259379 -0.0551094 -0.042478967 -0.1171426 0.09390076
0.074866235 0.01323503 -0.023818392 -0.10907906 0.036341656 -0.03257923 0.026034396 -0.031070324
0.029444778 -0.1521988 -0.0050688973 -0.007444076 0.093624465 -0.23266533 -0.19307758 -0.0053563197
0.12581627 -0.0675327 -0.029486718 0.014098247 -0.12915467 0.08616821 -0.026286071 -0.056922067
0.04572775 0.22093034 0.014964589 -0.039448235 0.10082344 0.10784616 0.039126173 -0.090205744
0.0226907 0.06545271 0.095245354 -0.09877458 -0.15827332 0.05098422 0.031041542 0.015729895
-0.068537466 -0.1278559 0.059952248 0.13072331 -0.11028984 0.04781421 -0.021569928 -0.079609126
0.15226874 -0.015987204 -0.06017404 0.017298134 0.018791784 -0.117254026 0.034662485 0.16018791
0.07262242 -0.26059875 0.17882665 -0.005674983 -0.012866151 -0.17084171 0.00025103474 -0.052872315
0.030603021 -0.049451854 -0.009623098 -0.096487746 -0.06154793 0.00662763 -0.029667584 0.03391667
0.15966178 0.023330813 -0.14183663 -0.17482862 0.013903903 -0.04061266 -0.007686337 -0.034123052
-0.026988054 -0.05404702 0.047251884 0.07120972 -0.053075228 0.077158764 -0.11317104 -0.031098071
-0.009044696 0.022359028 -0.016582696 -0.119285315 -0.06989267 -0.12495765 0.061279375 -0.038132634
0.122321345 -0.074707896 -0.07680033 0.05538782 0.042629797 -0.22160831 -0.13390721 0.075805575
-0.0005213773 -0.14691278 -0.08470567 0.0782065 0.0065029995 -0.016289389 0.062100638 0.044492472
0.04554482 0.040534202 -0.04289028 0.11868463 -0.06555354 0.2157136 -0.120148666 0.08575805
0.10833892 0.096641004 -0.024123754 0.002448721 -0.011839684 0.0075573167 0.0369719 -0.0313794
0.10007119 -0.06406806 0.037644062 -0.12131518 0.16663285 0.108091645 0.046236508 0.028438548
7.4814096e-07 -0.10617383 -0.14599235 -0.00014669076 0.08202424 0.014339988 0.07624474 0.06588006
-0.13948898 -0.13607407 -0.059342593 0.12868772 -0.06948281 -0.0047565503 0.051864985 -0.015267086
-0.18999751 -0.02648546 0.04888327 0.14956434 -0.09253674 0.10403852 0.0014751646 -0.12909187
0.09515933 -0.104574114 -0.12045969 -0.01424203 0.044521887 0.12453701 0.039226472 0.079889975
0.056368493 0.11004957 -0.1232684 -0.040950064 0.13826081 -0.045568254 0.054173484 -0.0006094743
-0.06538868 0.0520769 0.054126773 -0.12216858 0.02782931 -0.015886799 -0.017556014 -0.06943249
0.06348104 0.07265143 -0.033934895 -0.033825655 -0.06319664 -0.09422302 -0.1910753 0.0028741625
0.014360348 0.016229153 0.06424258 0.033349544 0.13321327 -0.032826923 -0.05470435 0.052185256
-0.05337246 -0.09797447 -0.07268126 0.07592209 -0.06246901 0.058977168 -0.005809255 -0.086573906
