MLA_Lab4/results/Economic/Economic/Economic-238044.onnx (onnx, 76961 bytes, 8 tensors)

action_model._continuous_distribution.log_sigma f4 [1, 5]
0.017664397 0.028764496 0.017115777 0.013011686 0.009394239
00000000: edb4 903c 85a3 eb3c 6336 8c3c f72e 553c
00000010: 4bea 193c

action_model._continuous_distribution.mu.bias f4 [5]
0.0011257019 0.00045224547 0.0019414182 -0.0018500687 0.00018657198
00000000: 4a8c 933a 5c1b ed39 2f77 fe3a 017e f2ba
00000010: 89a2 4339

action_model._continuous_distribution.mu.weight f4 [5, 128]
-0.0191996 -0.007294436 0.009890667 0.008045384 0.014646454 0.011662296 0.015599982 0.018418163
-0.015887978 0.0026230882 -0.0022129875 0.00977175 0.009937912 -0.014195032 -0.013401788 -0.007934615
-0.022714952 0.00654464 0.0051880856 0.0004794042 0.021080201 0.009918514 -0.005700257 -0.012497501
0.007400532 0.03429 0.011757706 0.0026855862 -0.007897686 0.009555925 -0.009306565 0.00014478862
-0.0015387887 -0.01509118 -0.014250791 -0.0029694443 0.0137494905 0.0014170655 0.031894226 -0.009404798
-0.010051416 0.01807295 0.032656677 -0.0028891803 -0.04853054 -0.00212486 0.005236375 0.015470507
0.0031525071 0.011391698 -0.0008283889 0.04272419 0.02538098 0.0123068765 0.013276065 0.0017290297
0.023496097 -0.012529455 0.020459382 0.030719576 -0.04134379 0.0009409246 0.03612891 -0.004248108
0.026142264 0.0346844 0.039037455 0.009001799 -0.0111420015 0.03231349 -0.010113877 -0.027400943
0.02183906 -0.010964283 0.027187264 0.015618863 0.0056396546 -0.017428072 0.008025434 0.0029511955
0.0026937032 0.0057983585 -0.0004951501 -0.02193573 -0.023970233 -0.018143354 0.0014713034 0.01316122
-0.023695221 -0.0046183956 -0.010273934 0.000253126 0.022221254 -0.017621813 -0.016354827 -0.035045642
1.6367369e-05 -0.0007881936 0.039595082 -0.018596074 0.02772138 0.026810389 -0.009819979 -0.027651764
-0.0030252433 0.0105132535 -0.014882444 -0.0018737536 0.018261222 0.011748709 -0.012363371 -0.0012631248
-0.02552328 0.021041457 -0.014541753 0.0033742466 -0.020937912 0.026794383 0.038930126 -0.0025438871
0.0050457097 -0.023838235 0.009288875 0.012179022 0.0040183393 0.01585414 0.035887174 0.014065507
-0.0026942766 -0.019885404 0.010443998 -0.024078874 0.0112512745 -0.011999842 0.019361427 -0.0016148491
0.0096709635 0.011280706 -0.023823177 0.024702812 -0.0058171656 0.008816246 -0.027902922 -0.027292093
-0.020398987 -0.019278234 0.01284974 -0.0034981668 -0.016422583 -0.0065008863 0.013683149 0.013765836
0.01895559 -0.004675427 0.022372276 0.029934658 -0.025741521 0.0068782098 -0.017055383 -0.010020303
-0.012111165 -0.026116394 0.011888411 -1.151445e-05 0.03281401 0.015069736 0.015200358 -0.03960863
-0.0028330972 -0.009458412 -0.009994209 0.022802398 0.0021500639 -0.0044542155 -0.01769037 0.018778881
0.0028464603 0.015868481 -0.012356791 -0.00010376167 0.035117596 -0.0010295985 -0.017548531 0.050623685
0.0071584815 -0.023008173 0.023542132 0.020317255 0.02456041 0.0010579713 0.013477346 0.013733874
-0.025816163 -0.0020267677 0.022396484 -0.00812681 -0.0060517783 -0.021849882 0.0035579235 0.0347313
-0.008740469 0.0050705937 0.014902488 0.025470436 0.011107573 0.01368032 -0.001121355 -0.033699464
-0.015743103 0.036337987 0.014012802 -0.010097493 0.005491613 0.0142749045 0.019611528 -0.035709146
-0.0031131548 0.023458533 -0.015192229 -0.012804027 -0.0016840148 0.01152152 -0.025914948 -0.008156898
-0.0125087835 -0.014143328 0.025420465 -0.0032769323 0.008325051 0.023509504 -0.021026105 0.012056359
0.012268145 0.010633937 -0.008859786 0.011245201 -0.02494502 0.008960931 0.0016400137 -0.01531662
-0.01559359 0.0004528896 -0.011463249 0.009919913 0.003016252 -0.019410713 -0.028974107 -0.0076586185
-0.029165007 0.0067100255 0.02162086 -0.015350975 0.035829492 0.019726513 -0.014082344 0.0017397682
00000000: 7b48 9dbc 2a06 efbb 770c 223c c9d0 033c
00000010: aef7 6f3c 3713 3f3c 1197 7f3c b0e1 963c
00000020: 8127 82bc 1ee8 2b3b c507 11bb b119 203c
00000030: a0d2 223c 4892 68bc 2c93 5bbc 3000 02bc
00000040: b514 babc 6b74 d63b d100 aa3b 8b58 fb39
00000050: 63b0 ac3c 4381 223c 39c9 babb 52c2 4cbc
00000060: 2980 f23b ac73 0c3d 65a3 403c a900 303b
00000070: 4c65 01bc 7490 1c3c 907a 18bc 66d2 1739
00000080: 2eb1 c9ba ff40 77bc 267c 69bc 029b 42bb
00000090: 8b45 613c d4bc b93a 85a3 023d 9516 1abc
000000a0: b2ae 24bc b90d 943c 02c3 053d 6758 3dbb
000000b0: f6c7 46bd 3c41 0bbb e695 ab3b 0278 7d3c
000000c0: 4b9a 4e3b 3fa4 3a3c 3d28 59ba 8fff 2e3d
000000d0: c6eb cf3c c8a2 493c da83 593c 9ca0 e23a
000000e0: e37a c03c 5848 4dbc 6f9a a73c 9fa7 fb3c
000000f0: 1b58 29bd 62a8 763a e8fb 133d b633 8bbb
00000100: 4d28 d63c 3b11 0e3d bde5 1f3d 487c 133c
00000110: f18c 36bc 265b 043d adb4 25bc f177 e0bc
00000120: d4e7 b23c 89a3 33bc d3b7 de3c 42e6 7f3c
00000130: dacc b83b 51c5 8ebc 1c7d 033c d868 413b
00000140: d788 303b 2800 be3b f6cc 01ba 8fb2 b3bc
00000150: 395d c4bc 5fa1 94bc c0d8 c03a 28a2 573c
00000160: 7b1c c2bc e955 97bb 0154 28bc ffb5 8439
00000170: 5909 b63c 9f5b 90bc 8ffa 85bc 058c 0fbd
00000180: a84c 8937 c79e 4eba 742e 223d cb56 98bc
00000190: f317 e33c 76a1 db3c fae3 20bc f485 e2bc
000001a0: 2943 46bb c83f 2c3c 7fd5 73bc bd98 f5ba
000001b0: 8f98 953c a87d 403c bd8f 4abc 6f8f a5ba
000001c0: 3316 d1bc 225f ac3c 8840 6ebc 7722 5d3b
000001d0: fc85 abbc e57f db3c 3275 1f3d 58b7 26bb
000001e0: 7b56 a53b 6748 c3bc 5e30 183c 858a 473c
000001f0: 46ac 833b 8be0 813c 6efe 123d 0373 663c
00000200: 7692 30bb b7e6 a2bc 4d1d 2b3c 0f41 c5bc
00000210: 4457 383c fc9a 44bc db9b 9e3c 58a9 d3ba
00000220: f672 1e3c b6d2 383c d328 c3bc 8d5d ca3c
00000230: ec9d bebb 0472 103c ab94 e4bc ab93 dfbc
00000240: c71b a7bc 63ed 9dbc b787 523c 8041 65bb
00000250: a788 86bc 6305 d5bb 492f 603c 1a8a 613c
00000260: c148 9b3c 5334 99bb 1046 b73c 8739 f53c
00000270: e2df d2bc 9b62 e13b bbb7 8bbc 322c 24bc
00000280: e86d 46bc 0cf2 d5bc 9cc7 423c 302e 41b7
00000290: fc67 063d 0ee7 763c ec0a 793c a93c 22bd
000002a0: 7cab 39bb 75f7 1abc c0be 23bc 18cc ba3c
000002b0: 16e8 0c3b abf4 91bb 65eb 90bc 2bd6 993c
000002c0: ae8b 3a3b 9efe 813c 2374 4abc 9f9a d9b8
000002d0: 78d7 0f3d 98f3 86ba f0c1 8fbc c85a 4f3d
000002e0: b291 ea3b a37b bcbc 6edb c03c 5f70 a63c
000002f0: ea32 c93c a0ab 8a3a 16d0 5c3c 0b04 613c
00000300: 6b7c d3bc 85d3 04bb d578 b73c 5026 05bc
00000310: ff4d c6bb 86fe b2bc 0d2c 693b 6842 0e3d
00000320: 2f34 0fbc 3927 a63b 9129 743c 60a7 d03c
00000330: 8afc 353c 6c23 603c 6efa 92ba 7308 0abd
00000340: aef7 80bc 24d7 143d f495 653c f56f 25bc
00000350: fdf2 b33b 4ae1 693c 5ba8 a03c c143 12bd
00000360: 1206 4cbb 1c2c c03c d4e8 78bc fbc7 51bc
00000370: 29ba dcba c2c4 3c3c 964b d4bc 83a4 05bc
00000380: a4f1 4cbc 6bb9 67bc 943e d03c cdc1 56bb
00000390: cb65 083c 0197 c03c f03e acbc 0988 453c
000003a0: 5400 493c f739 2e3c a328 11bc cb3d 383c
000003b0: 8059 ccbc ded0 123c baf5 d63a 8ff2 7abc
000003c0: 427c 7fbc d071 ed39 5ad0 3bbc 2187 223c
000003d0: 50ac 453b 3703 9fbc 1b5b edbc 26f5 fabb
000003e0: 74eb eebc c6df db3b 3b1e b13c a882 7bbc
000003f0: f2c1 123d 7f99 a13c a2b9 66bc ef08 e43a

action_model._discrete_distribution.branches.0.weight f4 [1, 128]
-0.0050207735 -0.01086479 -0.0060927407 -0.004571254 0.0036887464 -0.0030081915 -0.008312649 -0.02106335
0.005770707 -0.0033548032 7.538139e-05 0.023032308 0.0032571044 -0.0038696676 0.0030188453 0.004278905
-0.0031833823 0.006545257 0.004382983 0.0072295233 -0.014345497 0.0096891215 0.011126328 -0.0017666534
0.014908115 0.0016724281 -0.0074908584 -0.0024147087 -0.0050870255 -0.00843198 0.002778647 0.007751239
-0.0059164767 -6.309777e-05 -0.002730793 -0.014648621 -0.010013721 0.008555708 0.009162068 0.0014025356
-0.0033343125 -0.004905314 -0.023019793 0.008839496 0.0030943123 0.007935691 0.026545083 0.002574234
0.00039712866 -0.0076171937 0.010872741 -0.00691595 -0.014707615 0.0025299138 -0.013391005 -0.0053424537
0.0036485211 0.00152666 0.020592157 -0.0032771402 0.0027816973 -0.0110850455 -0.010134253 -0.004878282
-0.0011721444 0.005345709 -0.0037225154 -0.004085941 -0.0034624003 -0.017867237 0.0016840397 -0.0013277357
-0.0066693313 0.0043214546 -0.005495479 0.008284135 0.0012710992 0.0048908168 -0.0018637147 0.010310068
-0.017895846 0.001162403 0.007998054 0.0017406711 -0.009138948 0.005488835 -0.014770734 0.0032970142
-0.0075925305 -0.0018273331 -0.003802919 -0.008652181 0.006419881 -0.008067104 -0.015392561 0.00044353897
0.0065376544 -0.007751594 -0.00553148 -0.0019783129 -0.00931581 0.0042086695 -0.0008760001 -0.014350729
0.016285108 0.0048463508 -0.008099838 0.017850734 0.010103702 -0.011027525 -0.001984785 0.0089221485
-0.0004723675 0.005224792 0.0022755458 0.012568613 0.012468217 -0.007824867 0.009345751 -0.0008456387
-0.0059428266 0.023452578 -0.002852999 -0.0031845507 -0.0024272262 0.004614274 -0.007952341 -0.0021406247
00000000: 4d85 a4bb 3b02 32bc 9da5 c7bb 75ca 95bb
00000010: e5be 713b 1425 45bb c731 08bc 0c8d acbc
00000020: 3318 bd3b 42dc 5bbb 1316 9e38 40ae bc3c
00000030: 2575 553b 409a 7dbb d2d7 453b 0f36 8c3b
00000040: 4ba0 50bb 9879 d63b 209f 8f3b a3e5 ec3b
00000050: 6009 6bbc 1fbf 1e3c 344b 363c 0d8f e7ba
00000060: 2b41 743c 6035 db3a e075 f5bb 1740 1ebb
00000070: 10b1 a6bb 4a26 0abc f619 363b 1bfe fd3b
00000080: 01df c1bb 5b53 84b8 1bf7 32bb c500 70bc
00000090: 9710 24bc 3e2d 0c3c 801c 163c 49d5 b73a
000000a0: 7b84 5abb c2bc a0bb 0194 bcbc 89d3 103c
000000b0: f2c9 4a3b b304 023c 1375 d93c 7bb4 283b
000000c0: b535 d039 a799 f9bb 9523 323c 329f e2bb
000000d0: 35f8 70bc e9cc 253b f265 5bbc c00f afbb
000000e0: 071c 6f3b 361a c83a e2b0 a83c 4ac5 56bb
000000f0: 234d 363b 0d9e 35bc 230a 26bc ffd9 9fbb
00000100: a4a2 99ba 0f2b af3b 72f5 73bb 5be3 85bb
00000110: 70e9 62bb 505e 92bc ffba dc3a 6b07 aeba
00000120: 688a dabb fd9a 8d3b 6b13 b4bb 2eba 073c
00000130: 039b a63a 2543 a03b e347 f4ba 8feb 283c
00000140: 4f9a 92bc c65b 983a 450a 033c 3b27 e43a
00000150: 87bb 15bc afdb b33b f300 72bc b812 583b
00000160: c3ca f8bb 2083 efba 653a 79bb e1c1 0dbc
00000170: dd5d d23b e32b 04bc 1531 7cbc cb8a e839
00000180: d239 d63b 1501 febb 6b41 b5bb 95a6 01bb
00000190: 57a1 18bc e1e8 893b 5fa3 65ba 521f 6bbc
000001a0: 5968 853c 23ce 9e3b 2fb5 04bc b43b 923c
000001b0: ff89 253c cbac 34bc 2b13 02bb 342e 123c
000001c0: 18a8 f7b9 bb34 ab3b 5321 153b 95ec 4d3c
000001d0: 7e47 4c3c df33 00bc ec1e 193c daad 5dba
000001e0: 0bbc c2bb 9f1f c03c 61f9 3abb e5b3 50bb
000001f0: 1912 1fbb 5633 973b 894a 02bc b949 0cbb

network_body._body_endoder.seq_layers.0.bias f4 [128]
-0.0008422606 -0.005565828 -0.00048087188 0.0019291817 0.0016113308 -0.004032152 0.0031953615 0.0039771516
0.00079753983 -0.00046781407 0.004112004 -0.0016031556 -0.0024292304 -0.00030854513 0.0043930965 -0.002390275
0.0036952782 -0.002187812 -0.0008299504 0.00025499315 -0.0015202799 -0.001502089 0.001113841 0.0024266802
0.00047438793 -0.00038499825 -0.0011344583 0.002909941 -0.0017135645 -0.00048488055 -0.0009769831 -0.003783377
0.0014335851 -0.004719113 -0.0016851677 -0.00070759177 0.0032194986 0.004080471 -0.0002035492 -0.005406547
-0.0009199341 -0.0011946119 -0.0038357573 0.005389765 0.003182795 -0.0012332911 0.00013709051 0.00015196746
0.00034458298 -0.00018549296 -0.0051093134 -0.006262442 0.00027908944 -0.0054386095 0.00031464442 -0.00038771261
-0.0019972674 0.0011669243 8.103501e-05 -0.0022451277 -0.0034035419 0.0043730563 -0.0031336641 -0.0001117702
9.22344e-05 0.0024809907 -0.0029508683 -0.0006249855 -0.0031344106 0.00030745738 -0.0038116078 -0.0035485832
-0.0010819087 6.279178e-05 0.00046897968 -0.002241201 -0.004574551 -0.0018764694 0.00063297106 -0.001257182
0.004581455 -0.0018369496 -0.0007771929 0.0017548503 -0.0037401118 -0.00506645 -0.004484422 -0.0007184351
-0.003297053 0.0031615214 0.004230607 -0.0049982336 -0.0005150624 -0.0015071437 -0.0012072683 0.0037165473
-0.0025534425 0.0026354338 0.0006039312 0.0043175947 -0.0016103437 -0.0040871575 0.0028657138 0.0057066125
-0.0012570256 -0.00028450985 0.00019966852 -0.002896223 -0.003170577 0.00044436048 0.003269978 0.003717261
0.0029549426 -0.0003184463 1.2187089e-05 -0.00078389596 -0.0015175702 -0.0011843981 -0.0050444775 0.0016736999
-0.0035139008 -0.0048352666 -0.001276046 -0.0021942337 -0.00043177765 -0.00039023423 0.00039668524 -0.0009965852
00000000: 27cb 5cba 8d61 b6bb 881d fcb9 99dc fc3a
00000010: 4a33 d33a 2420 84bb 4569 513b c452 823b
00000020: fe11 513a f144 f5b9 fdbd 863b fa20 d2ba
00000030: b933 1fbb 3ac4 a1b9 f7f3 8f3b 29a6 1cbb
00000040: 7b2c 723b 6561 0fbb 0791 59ba 9ab0 8539
00000050: 2144 c7ba bee1 c4ba 4dfe 913a f008 1f3b
00000060: 45b7 f839 97d9 c9b9 1bb2 94ba b5b4 3e3b
00000070: af99 e0ba 9137 feb9 1d0e 80ba 88f2 77bb
00000080: 22e7 bb3a caa2 9abb d8e0 dcba ae7d 39ba
00000090: 39fe 523b 79b5 853b d36f 55b9 6729 b1bb
000000a0: bb27 71ba 8694 9cba 5461 7bbb a09c b03b
000000b0: 7096 503b 62a6 a1ba f4bf 0f39 7459 1f39
000000c0: 25a9 b439 e380 42b9 076c a7bb 2c35 cdbb
000000d0: c052 9239 5d36 b2bb dcf6 a439 e845 cbb9
000000e0: 96e4 02bb 7bf3 983a 57f1 a938 fe22 13bb
000000f0: f50d 5fbb db4b 8f3b 295e 4dbb 2b66 eab8
00000100: f76d c138 1e98 223b 5b63 41bb 11d6 23ba
00000110: af6a 4dbb 3b32 a139 2bcc 79bb 598f 68bb
00000120: d5ce 8dba 15af 8338 63e1 f539 1de1 12bb
00000130: 1de6 95bb ddf3 f5ba f8ed 253a 07c8 a4ba
00000140: 0820 963b cdc5 f0ba 88bc 4bba 0103 e63a
00000150: aa1c 75bb 7704 a6bb 0ff2 92bb 5d55 3cba
00000160: 5f13 58bb 8731 4f3b e7a0 8a3b 39c8 a3bb
00000170: 4105 07ba 5a8b c5ba 343d 9eba 5191 733b
00000180: a857 27bb 3eb7 2c3b 2351 1e3a 9c7a 8d3b
00000190: 2b12 d3ba 90ed 85bb b3ce 3b3b 89fe ba3b
000001a0: c8c2 a4ba 442a 95b9 1c5e 5139 8fce 3dbb
000001b0: 75c9 4fbb 0ef9 e839 214d 563b 4a9d 733b
000001c0: b6a7 413b 24f5 a6b9 2677 4c37 5e7e 4dba
000001d0: 35e9 c6ba ce3d 9bba 254c a5bb 0d60 db3a
000001e0: 7949 66bb 2871 9ebb 0041 a7ba 22cd 0fbb
000001f0: 3760 e2b9 5a98 ccb9 31fa cf39 da9f 82ba

network_body._body_endoder.seq_layers.0.weight f4 [128, 8]
0.324694 0.63269866 0.28042006 0.34853646 -0.27313727 -0.1539628 0.3495545 0.0200041
-0.89052075 0.65000564 -0.3114375 0.51777875 0.011508962 -0.21397689 -0.40940145 0.27825266
0.26618266 0.07128442 -0.24395956 0.32927498 0.116664186 0.31412578 -0.3976113 1.0529214
0.29776645 0.14638112 -0.25445002 -0.006266308 0.23200327 -0.31473643 -0.58651036 -0.63366896
-0.030923188 -0.21490785 0.16196425 -0.29314104 0.029888345 0.19309199 -0.09285509 -0.1444157
0.19587567 -0.05688328 -0.13287069 0.38497606 -0.55883324 0.3280783 0.092609756 -0.157364
-0.56173 -0.52490175 -0.18183589 -0.26253942 -0.18538487 0.9201037 0.28268534 -0.15019882
-0.35372794 -0.25011876 -0.5290089 -0.5263976 0.044074737 0.17910562 0.12451189 -0.86404073
-0.12630583 -0.28753507 0.6537675 -0.39699504 -0.62278086 -0.1461423 -0.21514255 -0.15833807
-0.28747085 -0.2997659 0.30980438 -0.13445657 0.06668958 -0.33974063 0.23241612 0.12052976
0.26931748 0.1726468 0.30209568 -0.69580865 0.051653903 -0.20374092 0.4981731 -0.34629318
-0.11861549 -0.06902389 0.36810076 0.3432908 -0.55462766 -0.21650977 0.12156709 -0.07920632
0.12567045 -0.1564216 0.13520713 -0.026213977 0.044482585 -0.5183635 0.33585557 0.24759944
-0.5828884 0.4696715 0.39810497 0.030271143 0.26092383 0.15340136 0.005219753 -0.6668454
0.6922045 0.18493637 0.11399739 -0.79450953 0.19557779 0.3654064 0.022143766 -0.36694938
-0.2154937 0.29058278 -0.09256677 -0.24935587 0.05027987 0.4583205 0.3418126 0.11905223
0.12864828 0.13836549 -0.34821653 -0.36779657 -0.37064594 -0.52180266 -0.31676725 -0.22901948
-0.1193651 -0.06864019 -0.3682971 -0.079953276 -0.5865447 0.0870842 -0.3304168 -0.46237954
0.118211076 -0.027348036 0.08198391 0.054313507 0.11482864 -0.012497802 -0.49838263 0.021586606
0.105809174 -0.40227988 0.49128053 0.19766699 -0.4157341 0.8836006 -0.2087062 -0.04809243
0.2652891 0.12684031 -0.150785 0.36284825 0.18260613 0.28078216 0.26447994 0.21951598
0.117238544 -0.18318579 0.23633151 -0.02992143 0.18348247 0.3975302 -0.04506724 0.5937202
-0.15107778 0.19346859 -0.3143817 0.05475055 0.20490071 -0.34248954 -0.39603463 0.11154653
-0.37316796 -0.28444222 -0.084858626 -0.49327087 0.38601252 0.067816705 0.4490843 -0.058095984
-0.0953953 0.5382342 0.5028788 0.17303704 -0.028129704 0.022091905 0.49963182 -0.48867157
-0.6100891 -0.619288 0.046997182 0.2151756 0.0074246484 0.1709997 0.7200168 0.2769051
0.003589072 0.36626506 0.5718432 0.10061149 0.15341482 -0.46664914 0.46132907 0.4839161
-0.09677701 -0.45044085 -0.59475625 -0.17579572 0.46120334 -0.10539461 0.01493489 -0.1126618
-0.23020647 0.25766408 -0.011573991 -0.26691484 0.9050655 -0.0055277077 -0.28276506 -0.37792066
0.13571401 -0.07296347 0.3499558 0.0028066088 -0.16811712 0.23328224 -0.18946826 -0.13112643
-0.14243734 -0.2811466 -0.37319905 0.40345815 0.009990307 -0.17761718 0.17820524 -0.5771753
0.32217366 -0.06285802 -0.30096734 0.27825987 0.0049393144 -0.43952793 0.2099454 0.65021324
00000000: 4b3e a63e 8af8 213f 3893 8f3e 5f73 b23e
00000010: a6d8 8bbe 6da8 1dbe cff8 b23e a3df a33c
00000020: 2bf9 63bf c566 263f bc74 9fbe 268d 043f
00000030: 1690 3c3c c21c 5bbe 119d d1be 2277 8e3e
00000040: 1849 883e 91fd 913d 89d0 79be bb96 a83e
00000050: a2ed ee3d 18d5 a03e b593 cbbe 21c6 863f
00000060: d874 983e efe4 153e 4647 82be 9a55 cdbb
00000070: 4492 6d3e 2225 a1be 8b25 16bf 2138 22bf
00000080: a052 fdbc ce10 5cbe f5d9 253e 9516 96be
00000090: 67d8 f43c e8b9 453e cf2a bebd b6e1 13be
000000a0: a293 483e 71fe 68bd 410f 08be 951b c53e
000000b0: b20f 0fbf e1f9 a73e 2faa bd3d 0724 21be
000000c0: 8acd 0fbf f65f 06bf 3033 3abe 916b 86be
000000d0: 88d5 3dbe eb8b 6b3f 22bc 903e b8cd 19be
000000e0: d41b b5be 910f 80be 216d 07bf fec1 06bf
000000f0: b687 343d 7767 373e 1700 ff3d c631 5dbf
00000100: 5156 01be cc37 93be 4f5d 273f ef42 cbbe
00000110: 916e 1fbf 54a6 15be 544e 5cbe 6023 22be
00000120: 612f 93be eb7a 99be ae9e 9e3e fcae 09be
00000130: 8c94 883d 7cf2 adbe 7efe 6d3e 4fd8 f63d
00000140: fbe3 893e 53ca 303e 49ac 9a3e 8420 32bf
00000150: 0b93 533d 76a1 50be 8b10 ff3e 574d b1be
00000160: aeec f2bd 665c 8dbd b477 bc3e d0c3 af3e
00000170: 14fc 0dbf bdb4 5dbe 2bf8 f83d ec36 a2bd
00000180: c1af 003e fc2c 20be bd73 0a3e b2be d6bc
00000190: 5f33 363d 78b3 04bf 43f5 ab3e b58a 7d3e
000001a0: 2d38 15bf c878 f03e 6ad4 cb3e 30fb f73c
000001b0: cf97 853e 3f15 1d3e 760a ab3b 61b6 2abf
000001c0: 5034 313f f65f 3d3e 7777 e93d fa64 4bbf
000001d0: 8b45 483e 8c16 bb3e d866 b53c cae0 bbbe
000001e0: 61aa 5cbe 44c7 943e a693 bdbd 2557 7fbe
000001f0: 44f2 4d3d fca8 ea3e 1002 af3e a8d1 f33d
00000200: 60bc 033e afaf 0d3e 7049 b2be d54f bcbe
00000210: 4ec5 bdbe dc94 05bf 512f a2be 1584 6abe
00000220: b175 f4bd 3a93 8cbd 7091 bcbe 8bbe a3bd
00000230: cb27 16bf 3359 b23d 642c a9be 03bd ecbe
00000240: a618 f23d fd08 e0bc 2ee7 a73d d777 5e3d
00000250: 472b eb3d 95c3 4cbc 022c ffbe 65d6 b03c
00000260: 7bb2 d83d a1f7 cdbe 1f89 fb3e 3769 4a3e
00000270: 1adb d4be a633 623f 14b7 55be 91fc 44bd
00000280: f9d3 873e 6de2 013e 6267 1abe 3fc7 b93e
00000290: 1afd 3a3e aec2 8f3e ea69 873e ccc8 603e
000002a0: c31a f03d 0e95 3bbe e300 723e c91d f5bc
000002b0: d4e2 3b3e 1489 cb3e 6d98 38bd 0cfe 173f
000002c0: 22b4 1abe a11c 463e a3f6 a0be 1d42 603d
000002d0: 7ed1 513e ca5a afbe 0dc5 cabe 8272 e43d
000002e0: df0f bfbe 69a2 91be 5cca adbd 008e fcbe
000002f0: 6fa3 c53e 7ce3 8a3d 61ee e53e 0ef6 6dbd
00000300: 9c5e c3bd b7c9 093f aabc 003f 9f30 313e
00000310: 4470 e6bc 15fa b43c becf ff3e 2933 fabe
00000320: cd2e 1cbf a989 1ebf 1e80 403d fe56 5c3e
00000330: 774a f33b 8c1a 2f3e 0553 383f 81c6 8d3e
00000340: a336 6b3b 1887 bb3e 5164 123f 660d ce3d
00000350: c618 1d3e a3ec eebe 5333 ec3e dac3 f73e
00000360: 0633 c6bd 2fa0 e6be f241 18bf cb03 34be
00000370: d822 ec3e 21d9 d7bd 78b1 743c 3bbb e6bd
00000380: 3fbb 6bbe 8cec 833e d6a0 3dbc 10a9 88be
00000390: 5fb2 673f c621 b5bb 95c6 90be d17e c1be
000003a0: 9df8 0a3e df6d 95bd 682d b33e 15ef 373b
000003b0: e526 2cbe 8ae1 6e3e f803 42be 0246 06be
000003c0: 18db 11be 72f2 8fbe f213 bfbe 1192 ce3e
000003d0: 62ae 233c 47e1 35be 6f7b 363e c3c1 13bf
000003e0: f2f3 a43e b5bb 80bd 6418 9abe 1478 8e3e
000003f0: f9d9 a13b ce09 e1be edfb 563e 6074 263f

network_body._body_endoder.seq_layers.2.bias f4 [128]
-0.00011091574 -0.0036463789 0.00091540994 -0.0015050679 -0.0022593301 -0.0033097654 -0.00062620756 -0.0007508159
-0.0016469919 -0.00020648328 -0.001141679 0.0028493167 0.0029556102 -0.0045804624 0.00014581127 -0.0012012604
-0.0013589009 -0.0010921834 -0.0010572211 -0.0028965226 0.000247573 0.0044604274 -0.0023067102 0.0028680072
0.0051833517 0.0011521034 0.0030759687 0.000112001195 -0.0043314784 -0.0021113767 -0.003916174 -0.00048545928
0.00027802988 -0.00049660966 -0.004187335 -0.0020171949 0.004592115 -0.0012155898 -0.00048332033 0.0006630158
0.00030711122 0.00056951237 -0.0005121304 -0.00010908304 -0.0013127122 0.0025913187 -0.0024238355 0.004843705
-0.00013232329 -0.0020079378 0.0023800642 0.0032223284 0.0036822334 0.0006557931 0.0004376031 0.0005223505
-0.0004898965 -0.002299238 0.004386178 0.00036940072 0.002135686 -0.0020072153 -0.00027228871 0.00018451214
-0.0014844093 -0.0020753476 0.00038725787 -0.0017069256 0.0022545292 0.0006619537 0.0018572757 -0.0011131665
-0.0007904329 -0.0011779964 -0.0031985384 0.0022566656 0.004678373 -0.001610686 0.000109361295 -0.00047185682
-0.0038267972 -0.0008823006 -0.00022204265 -0.00047273145 0.0011306794 0.0022007762 0.0040138224 -0.00041200683
-0.0012177948 0.0031407794 4.402509e-05 -0.0016909259 0.0034650597 -0.0016687914 -0.004737703 -0.0018425208
-0.0027727503 -0.0007005188 -0.000293698 -0.0010954443 -0.0007300189 -0.00047226567 -0.0018108764 -0.0020103932
0.0008113111 -0.00032080288 -0.001949394 0.0031580017 -0.0006435185 -0.0015040062 0.0026891325 -0.0016616218
-0.0036131297 -0.002431007 0.0019403115 -0.00271367 -0.0022841534 0.0025860392 -0.00044565025 -0.0035053927
-0.0014382208 -0.0047688126 -0.0012375531 -0.0012004548 -0.000300992 -0.0012179426 0.0039004143 0.002505456
00000000: 6f9b e8b8 16f8 6ebb 1ff8 6f3a b345 c5ba
00000010: 4511 14bb a6e8 58bb 1428 24ba 67d2 44ba
00000020: e1df d7ba 6f83 58b9 64a4 95ba 9abb 3a3b
00000030: e9b2 413b b417 96bb eae4 1839 9c73 9dba
00000040: 261d b2ba 9827 8fba 7492 8aba 96d3 3dbb
00000050: b0cc 8139 c728 923b 2d2c 17bb 2df5 3b3b
00000060: 1bd9 a93b 2d02 973a 3196 493b 2fe2 ea38
00000070: 13ef 8dbb 065f 0abb 4053 80bb 3e85 feb9
00000080: 8ac4 9139 e92e 02ba e935 89bb ea32 04bb
00000090: 7479 963b 6d54 9fba 2866 fdb9 3dce 2d3a
000000a0: c503 a139 544b 153a 7d40 06ba 83c3 e4b8
000000b0: 500f acba 1dd3 293b 36d9 1ebb f1b7 9e3b
000000c0: 43c0 0ab9 9b97 03bb dafa 1b3b b32d 533b
000000d0: a051 713b 88e9 2b3a 186e e539 59ee 083a
000000e0: 666c 00ba d0ae 16bb eeb9 8f3b 20ac c139
000000f0: def6 0b3b 7c8b 03bb f9c1 8eb9 9a79 4139
00000100: 8390 c2ba 8e02 08bb df08 cb39 ebba dfba
00000110: b9c0 133b f686 2d3a d56f f33a abe7 91ba
00000120: 0e35 4fba 0067 9aba 929e 51bb 91e4 133b
00000130: 0a4d 993b a71d d3ba e658 e538 8d63 f7b9
00000140: 01cb 7abb 314a 67ba 1fd4 68b9 f1d8 f7b9
00000150: 4e33 943a e63a 103b 6286 833b 9f02 d8b9
00000160: 6a9e 9fba 89d5 4d3b 95a7 3838 0fa2 ddba
00000170: 0e16 633b 59bb daba bc3e 9bbb bd80 f1ba
00000180: 08b7 35bb 05a3 37ba 7afb 99b9 0395 8fba
00000190: bd5e 3fba 6d9a f7b9 ee5a edba cdc0 03bb
000001a0: 2bae 543a 6f31 a8b9 cf82 ffba 7af6 4e3b
000001b0: ccb1 28ba 1322 c5ba 283c 303b c7ca d9ba
000001c0: 42ca 6cbb 8851 1fbb 0d52 fe3a d4d7 31bb
000001d0: bcb1 15bb 8a7a 293b 2aa6 e9b9 bbba 65bb
000001e0: af82 bcba b343 9cbb 6435 a2ba 9458 9dba
000001f0: 76ce 9db9 5fa3 9fba 189e 7f3b 9432 243b

network_body._body_endoder.seq_layers.2.weight f4 [128, 128]
-0.079345144 0.048101977 0.06377499 -0.0011301128 0.11606867 0.082795896 0.06866611 0.025995398
0.110744335 0.092511564 0.029544916 -0.041045442 0.11288966 -0.10066273 0.07796804 0.08096116
-0.017828565 0.0008120313 -0.01801568 -0.008609028 -0.12560631 0.09341441 0.0022274265 0.1616446
0.17635182 0.0047404575 0.07741612 0.06639142 0.0018864329 0.052397102 -0.035853155 -0.025147084
0.029751662 0.02414726 -0.06308411 0.00012432362 0.100327656 -0.1049661 -0.1099499 0.011968481
0.010692702 -0.10252148 -0.045481503 -0.01613618 0.03951308 0.18214096 0.1342876 -0.11535421
-0.018397158 0.121880926 -0.12862062 0.093125105 0.14903577 0.028209401 -0.003997043 0.12172707
0.018790243 0.25519943 0.019093934 -0.0086237565 -0.04162404 -0.051677044 0.11033211 0.080181286
-0.09355074 -0.0074979705 0.029821146 -0.00101722 -0.0045812973 -0.037238356 -0.0152577665 0.013556149
-0.0105473995 -0.008079586 0.13357988 -0.20404448 -0.0055374578 -0.057759356 0.05170333 0.025996538
0.0053599346 0.06824752 -0.10122904 0.031261686 0.017437065 0.045188747 -0.09038905 -0.09123753
-0.01578848 -0.11822558 0.08568363 -0.030454148 0.07064166 0.220851 0.11869173 0.0031803295
0.1745021 0.04846823 0.06451421 -0.0854006 0.060598005 0.024910972 0.06713696 0.016537832
0.09373511 0.048480906 0.035753395 -0.07866399 0.04849452 -0.03695896 -0.071405225 -0.026782615
0.09819699 0.18104555 0.074542075 -0.05391239 -0.00016154109 -0.03286839 0.026753906 -0.13484523
-0.12769264 0.11381693 0.06153382 0.048732433 0.0595105 -0.15603535 -0.0016095659 -0.007093135
-0.11351518 0.0035464927 -0.10730188 -0.17135155 0.106111385 0.11470476 0.15474498 0.1447158
-0.00304724 0.14169075 0.12159604 0.11831994 0.13351022 -0.14975414 0.035881415 0.020353042
0.06040073 0.118146606 -0.08095253 0.08372663 -0.17675155 0.088903785 0.26221764 0.034453794
0.0015697296 0.029199395 0.038340043 -0.07201677 -0.012260411 0.085206345 -0.14402133 -0.19776969
-0.022380289 0.039153125 -0.1397973 -0.01814323 0.046834964 0.08666914 -0.035025686 -0.004706565
0.055941187 0.06335939 -0.14449567 -0.18056656 -0.11905757 0.087401435 0.07028357 -0.09382621
0.06357941 0.021518512 0.036988888 -0.055270795 -0.024673523 0.09798204 0.05350616 0.06871357
0.0242607 -0.048865493 -0.11113158 0.06604451 -0.020738434 0.06379805 0.012970932 -0.119988814
-0.08013445 0.10692263 0.0873993 -0.12204996 -0.022851096 -0.14927423 -0.1269487 -0.074003406
-0.04254492 -0.09625792 0.017268425 0.107430585 0.0459634 -0.005801904 -0.10339667 -0.043927524
-0.11954493 0.05224639 -0.12851506 -0.03990355 -0.12732117 0.04619928 0.062603965 -0.07877377
-0.022254596 0.05302974 -0.025237087 -0.067780435 -0.026979726 0.008638209 0.045866918 -0.018804865
0.03043418 0.07798399 0.14241116 0.07863615 -0.010181198 0.06751449 0.013663516 -0.010895026
0.11268764 -0.024488872 0.11562374 -0.023800034 0.083593324 -0.16704302 -0.032662418 -0.049502097
-0.042016137 -0.07483599 -0.017710136 0.0852867 0.06810907 -0.17356163 0.16087762 -0.011991608
-0.028296493 0.07057736 0.002547245 -0.11143303 -0.03087544 0.08273039 0.0021960053 0.20320252
00000000: b57f a2bd 9406 453d 769c 823d 4b20 94ba
00000010: 69b5 ed3d e590 a93d d1a0 8c3d 4df4 d43c
00000020: edcd e23d b476 bd3d 2e08 f23c 441f 28bd
00000030: b232 e73d 4328 cebd b5ad 9f3d f7ce a53d
00000040: 360d 92bc 80de 543a 9f95 93bc e10c 0dbc
00000050: f19e 00be 0e50 bf3d 04fa 113b 2986 253e
00000060: 9295 343e d755 9b3b 588c 9e3d 3af8 873d
00000070: 2f42 f73a 589e 563d c2da 12bd 4201 cebc
00000080: c2b9 f33c 79d0 c53c 3e32 81bd de5c 0239
00000090: 9678 cd3d 77f8 d6bd 6a2d e1bd 7317 443c
000000a0: 7130 2f3c c8f6 d1bd d04a 3abd 0630 84bc
000000b0: 78d8 213d 2983 3a3e b082 093e d43e ecbd
000000c0: a3b5 96bc b59c f93d 20b5 03be 60b8 be3d
000000d0: d59c 183e 6717 e73c a0f9 82bb 0b4c f93d
000000e0: ffed 993c 80a9 823e e26a 9c3c a84a 0dbc
000000f0: f87d 2abd 4fab 53bd cdf5 e13d 1636 a43d
00000100: 8897 bfbd 89b1 f5bb 7a4b f43c 3d54 85ba
00000110: b51e 96bb 3f87 18bd b6fb 79bc 9c1a 5e3c
00000120: 00cf 2cbc 3d60 04bc 2ac9 083e 09f1 50be
00000130: 9073 b5bb 1395 6cbd dfc6 533d b1f6 d43c
00000140: 64a2 af3b 5bc5 8b3d 2c51 cfbd 410c 003d
00000150: 2dd8 8e3c d617 393d e51d b9bd beda babd
00000160: d856 81bc 4120 f2bd e67a af3d fa7a f9bc
00000170: 93ac 903d c426 623e a614 f33d 136d 503b
00000180: aeb0 323e 9f86 463d 0720 843d 83e6 aebd
00000190: 9d35 783d 1812 cc3c 1a7f 893d 597a 873c
000001a0: 31f8 bf3d ea93 463d 2772 123d 961a a1bd
000001b0: 31a2 463d 4762 17bd e73c 92bd 3767 dbbc
000001c0: 811b c93d 0164 393e 84a9 983d 3dd3 5cbd
000001d0: 5b63 29b9 01a1 06bd 022b db3c de14 0abe
000001e0: dcc1 02be da18 e93d e30a 7c3d a99b 473d
000001f0: 48c1 733d bbc7 1fbe 12f8 d2ba 876d e8bb
00000200: a67a e8bd 466c 683b 17c1 dbbd c876 2fbe
00000210: ed50 d93d 54ea ea3d 7875 1e3e 6130 143e
00000220: 34b4 47bb 6117 113e 5807 f93d ba51 f23d
00000230: e7b6 083e 2659 19be 64f8 123d 6cbb a63c
00000240: c266 773d d9f6 f13d 71ca a5bd de78 ab3d
00000250: 5cfe 34be 3013 b63d 6441 863e 6c1f 0d3d
00000260: 63bf cd3a 9233 ef3c 730a 1d3d 877d 93bd
00000270: e4df 48bc aa80 ae3d 547a 13be 2384 4abe
00000280: de56 b7bc 075f 203d 0627 0fbe 1ca1 94bc
00000290: 05d6 3f3d 977f b13d 1877 0fbd 8739 9abb
000002a0: 9622 653d 91c2 813d acf6 13be 71e6 38be
000002b0: 75d4 f3bd 86ff b23d d5f0 8f3d f527 c0bd
000002c0: ec35 823d 9747 b03c a981 173d a163 62bd
000002d0: 2120 cabc cfaa c83d 4629 5b3d b3b9 8c3d
000002e0: 60be c63c 2f27 48bd f498 e3bd 5842 873d
000002f0: a6e3 a9bc 8da8 823d 0884 543c b2bc f5bd
00000300: 881d a4bd 40fa da3d 67fe b23d 54f5 f9bd
00000310: 3932 bbbc 58db 18be d7fe 01be 198f 97bd
00000320: 9543 2ebd df22 c5bd 8376 8d3c 9104 dc3d
00000330: 1e44 3c3d e61d bebb a2c1 d3bd 59ed 33bd
00000340: f9d3 f4bd 5000 563d 7499 03be e871 23bd
00000350: 7b60 02be 753b 3d3d 8236 803d 2454 a1bd
00000360: 454f b6bc b635 593d 02be cebc 78d0 8abd
00000370: 9604 ddbc 4687 0d3c f3de 3b3d a90c 9abc
00000380: 1a51 f93c 12b6 9f3d 3bd4 113e fd0b a13d
00000390: 0acf 26bc 0945 8a3d f1dc 5f3c 0d81 32bc
000003a0: c7c8 e63d e39c c8bc 24cc ec3d 4af8 c2bc
000003b0: fa32 ab3d 530d 2bbe 07c9 05bd b6c2 4abd
000003c0: 1d19 2cbd 9d43 99bd d914 91bc cbaa ae3d
000003d0: c57c 8b3d 24ba 31be 1abd 243e 7378 44bc
000003e0: 0cce e7bc dd8a 903d aeef 263b 0037 e4bd
000003f0: 7eee fcbc 8d6e a93d dbea 0f3b 5214 503e
