MLA_Lab4/results/Economic/Economic/Economic-83484.pt (torch, 453647 bytes, 39 tensors)

network_body._body_endoder.seq_layers.0.weight f4 [128, 8]
000000 75 55 a6 3e df 87 b8 3e d5 ab a5 bd e8 05 cc 3e
       0.32487074 0.3604116 -0.08089415 0.39848256
000010 04 45 dd bd 3e 75 21 3e 2d f6 99 bf 1f 32 5d 3e
       -0.10804179 0.1576738 -1.2028252 0.21601151
000020 1a 07 42 bd 91 d3 c5 bd a8 c8 6e bf 53 be 93 bc
       -0.047370054 -0.09659494 -0.9327493 -0.01803509
000030 8e b7 27 3c 43 69 d9 be 9e 9e e0 3e 3d db 1a 3e
       0.010236634 -0.4246312 0.43871015 0.15122695
000040 52 93 7d 3e 4d 27 c8 be 55 75 90 3d cb 72 49 be
       0.2476323 -0.39092484 0.07053629 -0.19672696
000050 ac cf 1a be 1e 96 22 3e 75 1c 22 3e 3c 30 ac 3e
       -0.15118283 0.15877578 0.15831168 0.3363055
000060 5c 76 f2 3e 40 ab 15 be 21 58 8e 3f b5 b3 c1 3e
       0.47355926 -0.14616108 1.1120645 0.37832418
000070 f8 3f e9 bd f3 38 78 be 38 b4 8c be 00 c4 8c 3e
       -0.11389154 -0.24240474 -0.27481246 0.27493286
000080 16 c8 8e 3e 6f 66 1b 3f 35 a8 e2 3d f9 d3 95 3e
       0.27887028 0.60703176 0.11067239 0.29263285
000090 e2 f8 39 3e 25 46 14 be 8c f2 a4 bd 27 51 83 3e
       0.18161348 -0.14479883 -0.08054075 0.25647852
0000a0 6c 7c 7a 3d 0e fd 87 3e a4 f7 f2 3e bc ba d8 bd
       0.061153814 0.26560253 0.4745456 -0.10582492
0000b0 c6 87 cd bc 78 3f 01 3e 03 c1 e2 3e f8 a2 6b be
       -0.025089156 0.12621868 0.4428788 -0.23011386
0000c0 f5 27 89 be 7c a5 38 3f 8f 9f 88 3e b2 60 3f 3f
       -0.26788297 0.7212751 0.26684234 0.7475692
0000d0 df a6 eb 3e 4c b9 8f be f9 70 96 3d 7e a1 e6 3e
       0.4602575 -0.28071058 0.073457666 0.45045084
0000e0 61 04 c4 3e 4e 12 cb 3e 57 3d b0 bd 6d 3c 9b 3e
       0.3828459 0.39662403 -0.0860545 0.3031954
0000f0 79 f5 86 3e 5a 1c 74 bc 1b b0 db 3e a0 54 ad 3e
       0.26359156 -0.014899338 0.42907795 0.33853626
000100 7b 28 2f bf f4 e9 d2 bc 69 93 ff 3e 25 93 fc 3d
       -0.68421143 -0.025746323 0.49917153 0.12332753
000110 28 8d 28 be cc 9a 96 be 63 41 54 bd 13 24 70 be
       -0.16460097 -0.29414976 -0.05182017 -0.23451261
000120 ce 8b 0e bf 67 3a 7e be d9 65 10 bf 5b 39 cb 3e
       -0.55682075 -0.24826966 -0.5640541 0.39692196
000130 3c 00 30 3e a7 fd f0 bd e2 4e d0 3d 5e 8a 05 bf
       0.1718759 -0.1176713 0.10171296 -0.52164257
000140 64 86 98 3e fa 75 d3 bd fd 51 14 bd 5d a6 0b bf
       0.29790032 -0.103252366 -0.036211003 -0.54550725
000150 86 89 9a 3f 77 ae 44 3f 1f 40 4d 3f fe b0 13 be
       1.2073219 0.7682871 0.80175966 -0.14422986
000160 85 b1 e7 be 4b 45 f8 be 83 3f ef bd d3 8b d8 be
       -0.45252624 -0.48490366 -0.11682036 -0.42294177
000170 42 bc 07 bd 9a a7 19 be e6 f3 92 3e 06 8d a6 3e
       -0.03313852 -0.15005341 0.28701705 0.32529467
000180 3b cd 89 be cb ef b1 3d 87 91 b8 3e 3a 7f 5b 3e
       -0.2691439 0.08688315 0.3604853 0.21435252
000190 31 4a 97 3e e6 58 b7 3d 08 65 1d 3e ed f9 31 bd
       0.2954879 0.08952503 0.15370572 -0.04345124
0001a0 80 9e 17 be 00 11 15 be a3 66 27 3f be aa 87 be
       -0.14806557 -0.14557266 0.65390986 -0.26497453
0001b0 a3 e6 03 be 7f 95 ef bd 8a f4 80 3e a2 02 a0 3e
       -0.1288095 -0.11698436 0.25186568 0.3125201
0001c0 c0 50 8b 3e 40 96 a9 3e 3d 8f a8 be c4 f5 d6 bc
       0.27210045 0.33122444 -0.32921782 -0.026240237
0001d0 bb 3c 33 3e 30 2b 4a 3e 20 71 cc 3e 37 34 cb 3e
       0.17503636 0.19743037 0.39930058 0.39688274
0001e0 1b 53 c1 bd 1b b4 ae 3c 6f d6 8a 3e 2b 68 06 bd
       -0.09439679 0.021326115 0.27116725 -0.032814186
0001f0 b8 9d 1e 3f 22 02 25 3d 48 bd 15 be 6f 5a 97 bc
       0.6195941 0.040285237 -0.14622986 -0.01847574
000200 73 13 fa bd f1 fe 24 3e de 59 0e bf e6 54 af be
       -0.12210741 0.16112877 -0.55605876 -0.3424446
000210 a5 b1 c0 3e 1f 07 a8 3e b5 40 cf bd 34 04 f3 3e
       0.37635532 0.32817933 -0.10119764 0.47464144
000220 42 db 4d 3e b9 08 97 be f3 33 ce 3e 60 1b fd be
       0.20103171 -0.29498842 0.4027401 -0.49434948
000230 31 7b ab 3e ee 91 bd bd 6f d4 40 be b2 e0 c0 be
       0.33492425 -0.092563495 -0.18831037 -0.3767143
000240 f6 60 54 3e d3 e4 57 3e 84 58 cf bd f7 dc 53 3d
       0.20740113 0.21083383 -0.10124305 0.0517244
000250 d7 e1 59 bd d4 cb 2a bf 50 88 f8 be 02 b7 82 3e
       -0.053193893 -0.6671727 -0.48541498 0.2553025
000260 bf 3a 10 be 47 70 10 be e7 ba 3f be c9 03 2a 3e
       -0.1408491 -0.1410533 -0.18723641 0.16603006
000270 1e b7 22 be c4 88 72 be d9 4a af 3d 9f 61 d8 3e
       -0.15890166 -0.23684984 0.08559198 0.4226198
000280 ab ef af bc 03 3d 83 3f 9f 7b c7 3e 75 8b ac 3e
       -0.021476587 1.0252994 0.38961503 0.33700147
000290 bd c2 e8 3c 80 70 42 3d 05 26 3a 3e f9 c6 ef be
       0.028413171 0.04747057 0.18178566 -0.46831492
0002a0 67 94 a6 3e 37 09 66 bf f6 fd 1e 3f 30 37 73 3e
       0.32535097 -0.8985781 0.62106264 0.23751521
0002b0 69 bf 54 3e 56 7d 32 3e 01 c7 dd 3e 8e 66 f9 be
       0.20776142 0.17430624 0.4331589 -0.48711056
0002c0 67 1f 8c 3e a4 c5 7e be 37 9a 65 bd b8 55 1a 3e
       0.27367708 -0.24880081 -0.056055274 0.15071762
0002d0 eb 59 11 bf 85 dd c1 3c 7a 0e 0b 3f 45 6e df 3d
       -0.5677783 0.023665199 0.54318964 0.10909704
0002e0 2e b7 87 3d ff f0 79 3d a6 45 f3 be 97 5c 9e be
       0.06626736 0.061020847 -0.47514075 -0.30930015
0002f0 39 b4 15 3f 93 ae d0 3e 5f d6 0a bf 46 61 7e 3e
       0.5847812 0.4075819 -0.54233354 0.24841794
000300 5f 84 76 3e ee b9 18 be bc be d1 3e 50 33 aa be
       0.24073933 -0.14914677 0.4096583 -0.33242273
000310 bc cd 08 3f 80 45 1f be 1f 19 07 bf a2 71 a9 3d
       0.53438926 -0.15553856 -0.52772707 0.08273627
000320 fc 5b 7d be 15 c4 06 3e 3b 13 24 3d 6b 8d 8a 3e
       -0.2474212 0.13160737 0.040057402 0.27061018
000330 ef eb 0f 3f 4b a2 60 3d 57 0c 41 bc 25 39 57 3e
       0.5621938 0.054842275 -0.011782727 0.21017893
000340 f8 f8 18 3e fb 71 ca bc a7 30 c7 be 04 72 22 bd
       0.14938724 -0.024712553 -0.38904306 -0.039659515
000350 9a 88 9a 3e 7b c7 9c be f4 a7 73 3e 39 86 02 3d
       0.30182344 -0.30620942 0.23794538 0.031866286
000360 7c c3 db bc 74 ce 30 bd 7c 94 22 3f 1b 5b a0 be
       -0.026826613 -0.04316564 0.6350782 -0.31319508
000370 55 63 9b be 3b 67 88 3d b9 ba 86 3e c8 1d d1 be
       -0.30349222 0.06660315 0.26314333 -0.40843034
000380 25 20 47 bf 00 ad b3 3d 66 16 8b 3e 94 26 3b bf
       -0.77783424 0.087732315 0.27165526 -0.7310574
000390 25 31 70 be 5e 46 80 bf 87 0d 24 bd 12 36 2e 3f
       -0.23456247 -1.0021474 -0.040051963 0.68051255
0003a0 df 36 26 bf a6 64 3d be a4 f1 80 be 8e b6 8f 3d
       -0.64927477 -0.18495426 -0.25184357 0.070172414
0003b0 e4 90 ee be a4 36 b1 be 8d 06 4b bc 76 22 88 be
       -0.46594918 -0.34612 -0.012391699 -0.26588792
0003c0 a4 b3 13 3f 52 02 01 3e 21 eb a3 3d 20 73 8d 3e
       0.57695985 0.12598541 0.08003832 0.27626896
0003d0 a9 c1 03 3e 7f b0 e3 3d a3 1f 44 be 72 fe 1d bd
       0.12866844 0.11117648 -0.19152693 -0.038572736
0003e0 aa e7 5a 3f dd a0 0c 3e c8 fe 9b 3e 11 94 70 3e
       0.8550974 0.1373324 0.3046782 0.23493983
0003f0 01 9d 5e 3e 33 31 0a 3e 47 c4 fa be 83 86 6a 3d
       0.2173958 0.1349533 -0.48977873 0.057257187

network_body._body_endoder.seq_layers.0.bias f4 [128]
000000 a0 b2 37 3a 75 24 71 ba 9e e5 af ba bc 65 d0 39
       0.0007007513 -0.0009198853 -0.0013419872 0.0003974865
000010 b4 16 b8 39 bb 11 88 3b 2a a2 7b b9 70 ed fb 38
       0.0003511213 0.0041525043 -0.00023997636 0.00012012839
000020 32 c3 03 bb 50 8c ce 39 33 14 b3 bb 1d c2 01 bc
       -0.002010536 0.00039395923 -0.0054650544 -0.007919815
000030 00 5c 57 39 4b 50 fd 3b 48 64 fc ba 66 a6 a6 3a
       0.0002053827 0.007730519 -0.001925596 0.0012714386
000040 37 a2 34 bb 55 3b 09 3b 26 1e 67 ba e2 71 96 ba
       -0.0027562508 0.0020939906 -0.0008816443 -0.0011478032
000050 ac 90 c4 3a b5 37 df ba ce cd 05 ba 31 1b e8 bb
       0.0014996729 -0.0017030152 -0.00051042147 -0.0070833196
000060 8d b2 14 bc 3d 85 4f bb 5f 36 77 bb 3e 30 c7 ba
       -0.009075773 -0.003166511 -0.0037721617 -0.0015196872
000070 4b 53 27 bc f9 6e 39 ba 24 8a b9 b9 0b f7 c1 ba
       -0.01021273 -0.0007073726 -0.00035388872 -0.0014798356
000080 47 ba c7 bb f0 92 8d bb 60 bb 98 3b b7 8e 00 b7
       -0.006095204 -0.004320495 0.0046610087 -7.662623e-06
000090 7a 11 98 3b eb 9c 34 3b 9a 35 2f bb 5b aa e6 3a
       0.0046407552 0.002755935 -0.002673483 0.0017598377
0000a0 cd 1f ab 3a 44 4a 1c 38 3f 30 82 bb b9 7c 17 ba
       0.0013055742 3.7262464e-05 -0.0039730365 -0.0005778778
0000b0 6e 4d 73 ba d6 0c 70 ba 9f 4b 10 3c 79 ef b0 3b
       -0.0009281252 -0.0009157186 0.008807092 0.005399641
0000c0 c9 e1 a6 bb 72 54 a5 39 c3 c7 f5 bb b1 91 67 3b
       -0.0050928337 0.0003153417 -0.00750062 0.0035334642
0000d0 ae cf 5b 3b 32 03 54 ba 08 f5 54 ba e2 5c d6 b9
       0.0033540535 -0.00080876343 -0.00081236707 -0.00040886464
0000e0 08 e4 3c bb 79 7d 07 b8 47 ac 90 ba f1 e7 47 bb
       -0.002882244 -3.2303364e-05 -0.0011037671 -0.0030503238
0000f0 2a c4 b2 3b 4a 59 e3 3b 9e ff 12 b8 7a bd 5b bb
       0.0054555135 0.0069381343 -3.5047175e-05 -0.0033529685
000100 bf c9 82 b9 17 a8 15 3a 4b 6a b0 bb 8a ba 42 bb
       -0.00024945845 0.0005708946 -0.005383765 -0.0029713237
000110 d7 a3 05 3c c0 94 71 ba e1 fc c4 ba d6 cf c1 39
       0.008156738 -0.0009215586 -0.0015028977 0.00036966678
000120 0f d9 41 bb b1 ed 02 bb 00 36 d9 b9 49 69 ad bb
       -0.002957884 -0.00199781 -0.00041429698 -0.005292092
000130 8c 6b 14 ba 22 75 4a bb 12 8d e0 ba 7b e4 00 3c
       -0.00056617777 -0.003089257 -0.0017131886 0.007866974
000140 2c 5f 31 b9 6d 23 c7 ba a3 9c a4 3b 59 5d 82 bb
       -0.0001691549 -0.0015193053 0.0050235554 -0.003978413
000150 53 6a 8f bb 99 ff b4 ba 9a 37 b9 ba af 2b 12 bb
       -0.0043766885 -0.0013809084 -0.001413095 -0.002230387
000160 50 90 8c ba 99 4e a4 bb b9 fe 15 bb 56 2b 6f bb
       -0.0010724161 -0.0050142524 -0.0022887422 -0.0036494336
000170 36 a1 3c bb 20 aa 03 3c bd 39 c7 ba 9a e2 ed 3b
       -0.0028782613 0.008036166 -0.0015199702 0.007259679
000180 22 e9 4d ba 37 c4 f3 3b a1 7c 37 39 c2 bd bb ba
       -0.0007854869 0.007439162 0.00017498668 -0.001432352
000190 a2 e4 87 3b d0 62 22 bb 74 b2 9c bb 3a 96 4b ba
       0.004147128 -0.0024778135 -0.0047820155 -0.0007766221
0001a0 d1 50 9f 39 50 3d 43 b9 ec 56 13 3c a1 99 08 3c
       0.00030387056 -0.0001861949 0.008992892 0.008337409
0001b0 13 e9 bf bb 51 2c f9 bb c4 89 85 ba 87 6e 21 3a
       -0.005856642 -0.00760416 -0.0010188152 0.00061581325
0001c0 19 94 ee bb 22 44 e5 ba 45 13 5d 3b 78 eb ef b9
       -0.007280838 -0.0017491619 0.003373341 -0.0004576107
0001d0 78 23 e8 3a d5 c6 c1 ba e7 62 cc ba bc 20 33 3a
       0.0017710766 -0.0014783988 -0.001559344 0.0006833186
0001e0 a2 07 84 bb 83 be 99 ba b5 25 04 3c ba b4 3f bb
       -0.00402923 -0.001172975 0.008065631 -0.0029252009
0001f0 12 c1 13 3b f1 0c bd ba 61 31 d3 bb 8b 24 5d ba
       0.0022545499 -0.0014423413 -0.0064450954 -0.0008435926

network_body._body_endoder.seq_layers.2.weight f4 [128, 128]
000000 c1 80 7a 3d 93 a6 c0 bd d5 ad a8 bd 06 4f 44 3d
       0.061157946 -0.094067715 -0.08236281 0.047926925
000010 89 4a 87 3d d2 7e cb 3d 5a 24 b0 bc e5 ad 82 3d
       0.06606013 0.099362984 -0.021501709 0.06380824
000020 b6 31 a1 3d 29 15 94 bc fe fa e7 bd b3 02 aa 3d
       0.0787081 -0.018076496 -0.1132717 0.08301296
000030 be 97 fb 3d eb 7c 94 bd de 37 0f bd a9 27 bb 3c
       0.12284802 -0.07250389 -0.03496539 0.02284606
000040 ec 7b 31 3e 8d 1d 33 be 86 cd a3 3d 61 f7 15 3d
       0.17332429 -0.17491741 0.07998185 0.036612872
000050 05 a0 fe bd 1b 14 47 bd fb 9f 10 3e 48 01 a1 39
       -0.12432865 -0.04860316 0.14123528 0.00030709268
000060 b9 d4 04 be 43 84 98 3c 37 fc 6a 3d 8b f5 7d bd
       -0.12971772 0.018617755 0.057369437 -0.062001746
000070 d5 ee 01 bd 2a 1e e6 3d 49 a0 6d be 22 70 07 3d
       -0.03172191 0.11236222 -0.23205675 0.033065923
000080 c4 b6 5a 3d 31 a0 2e be ce 27 f4 bd a4 dc 01 3e
       0.053396955 -0.17053296 -0.11921655 0.12681824
000090 dc a6 a9 bc 7b fc b1 3c e2 06 86 3d a9 18 dd 3d
       -0.020709448 0.021726837 0.065442815 0.10795719
0000a0 5a 9b 03 be 8b ee 7c 3d db 38 03 bd 8a 2b 29 bc
       -0.1285223 0.06175093 -0.032036643 -0.010325322
0000b0 4c 97 5c 3d a1 f6 2c 3d 18 5b a0 3d f1 53 ca 3d
       0.053855225 0.04222739 0.07829875 0.09879292
0000c0 90 44 fd 3c 58 29 49 bb 59 ae 16 3e cf c0 7b bd
       0.030916482 -0.0030694809 0.14714946 -0.061463173
0000d0 c2 3f 16 be 7f e7 08 bd ab 67 9c bd ba 76 5b 3d
       -0.14672759 -0.033423897 -0.076369606 0.053580023
0000e0 cd 95 2c 3c b1 6d 34 bc 77 b2 a5 3d 13 39 97 bc
       0.010533762 -0.011012481 0.0809068 -0.018459832
0000f0 b6 3d b7 3d a4 bc 83 bd 0f 29 84 3c 2a 0e eb 3d
       0.08947317 -0.06432465 0.01613286 0.11477311
000100 8d 7b 50 bd a2 cb 93 3c aa 5d 08 3c b5 73 66 bd
       -0.050899077 0.018041436 0.0083231125 -0.05626269
000110 2a 41 9f bd 14 cd cb bd 7c 4d 0a 3e 99 92 84 bd
       -0.07776101 -0.09951225 0.1350612 -0.06473274
000120 19 4c a0 3c 21 0c ac bd 6a 5d c4 3d 74 ca cb 3d
       0.019567536 -0.08400751 0.0958813 0.09950724
000130 42 61 e5 3d e7 21 76 3c b2 fd 3c 3d ec a4 b1 3d
       0.11200191 0.015022731 0.04614038 0.086740345
000140 6d 36 a0 bc 05 9b e0 3c a0 c1 bd 3d c6 b9 0b 3e
       -0.019557202 0.02741767 0.09265447 0.13645086
000150 e0 e5 bb 3d 4d 88 e6 bc 25 67 99 3d ca 4c be bc
       0.091747046 -0.028141165 0.074903764 -0.023229975
000160 f2 34 90 bd e0 ad 15 bc 66 f5 b8 bd 69 bb 29 3e
       -0.070413485 -0.009135693 -0.09031181 0.16575398
000170 24 aa 94 bd c6 99 9f 3b 0a 22 91 3d b0 0a 08 be
       -0.07259014 0.004870626 0.070865706 -0.13285327
000180 f9 f5 55 bb 72 83 8a bc 15 58 83 bc 37 fc a5 3c
       -0.0032647832 -0.016908381 -0.016033212 0.020261867
000190 22 68 3a bc 25 e0 28 bd 94 dd 15 3c 6b 23 d5 3d
       -0.011377366 -0.041229386 0.009147067 0.10407146
0001a0 ae cc f4 3d 0d ad e4 bd f0 bc 33 bd 70 1d 79 3d
       0.11953102 -0.11165819 -0.043881357 0.06081909
0001b0 81 56 5e 3d 3a fb 30 3e b8 60 53 ba 4b fe 2f bc
       0.054281715 0.17283335 -0.00080634234 -0.0107417805
0001c0 e1 a0 e4 3c 12 a5 2e 3d a8 99 45 3e 59 45 f8 3c
       0.027908744 0.042637892 0.19296896 0.030306505
0001d0 c3 40 cf 3d 19 8e 8e bd be 70 1a bd f8 f3 7e 3d
       0.10119774 -0.06960697 -0.037705176 0.062244385
0001e0 9b d8 de bc ea e4 82 bd 80 c4 bb bd 3c 0d 00 3d
       -0.027202895 -0.06391318 -0.09168339 0.03126262
0001f0 f8 40 87 bb 51 05 cf bd a3 da 95 bc 9f 56 ac 3d
       -0.004127618 -0.10108436 -0.01829273 0.08414959
000200 94 2e 91 bc 2b 97 43 3e 56 43 65 3d d5 55 08 bc
       -0.017722405 0.19100635 0.05597242 -0.008321245
000210 c5 77 f4 3c f2 30 49 bd f4 5b 3c 3e 15 78 c9 3b
       0.029842267 -0.049118944 0.18394452 0.006148348
000220 83 b0 9e bd 94 de 6e bd 94 c7 a6 3d 5f a8 77 bd
       -0.07748511 -0.058317736 0.08143535 -0.060463306
000230 84 da b5 bd 01 18 ba bd cc f8 01 3e 68 b0 a7 3d
       -0.08879569 -0.0908661 0.12692565 0.08187944
000240 70 09 4c 3d 6c 88 b6 bd 6a c1 b5 bd fa e3 cd 3b
       0.049813688 -0.08912739 -0.088747814 0.0062832804
000250 b5 5d 09 3d 53 14 27 bd 9b a6 fd ba fe 60 4f 3d
       0.03353663 -0.040790867 -0.001935202 0.05062961
000260 e6 a3 be 3d ed 93 82 3b 71 a4 21 3e cc 52 7a bd
       0.09308605 0.0039849193 0.15785386 -0.061114118
000270 a4 2f db 3c a2 a6 d7 3d e4 6f 5d 3d bf 23 9f 3d
       0.026756115 0.105298296 0.054061785 0.0777049
000280 79 6c 3d 3c 7e 7e 25 be ad cd 11 bd 42 3c 80 bd
       0.011561506 -0.16161534 -0.03559654 -0.06261493
000290 46 2e ac 3c 5b 83 62 bd cd 99 83 3d b0 49 d7 bc
       0.021018159 -0.05530105 0.064258195 -0.026280254
0002a0 ae c8 19 bc 6c 85 03 bd 88 30 70 3d d8 c1 d9 3c
       -0.009386225 -0.032109663 0.058640033 0.02658169
0002b0 37 86 36 bd 58 b5 8d 3d 75 db e9 3c f5 ca 25 3d
       -0.04456159 0.06919354 0.028547028 0.040476758
0002c0 1b 14 fd 3a ec a8 1e 3c 70 82 fa 3d 40 01 08 be
       0.001930836 0.009683829 0.1223191 -0.13281727
0002d0 44 6e 8b bd e9 e1 d3 3d 6a e4 29 3d ef 4d e6 3c
       -0.06808141 0.10345823 0.0414776 0.028113334
0002e0 2f 0b b4 bd 97 86 da bc 61 df 60 3a 91 00 96 3d
       -0.087911956 -0.026675506 0.0008578208 0.07324327
0002f0 2d 59 af 3d 59 b2 24 3d 7b 34 5f bd 9d ef c1 bd
       0.08561931 0.040209148 -0.05449341 -0.09469531
000300 da f9 24 3e 93 a9 97 3d 54 be d8 3d 35 f7 e0 3d
       0.16110936 0.074053906 0.10583177 0.10984651
000310 b0 41 c4 bd f7 2a 9e 3c 0c 8f b9 bb 56 66 a0 bc
       -0.095828414 0.019307597 -0.0056628045 -0.019580048
000320 d8 3f 14 be 53 d3 ce b9 a8 0e 64 3e 31 15 90 3d
       -0.1447748 -0.0003944883 0.22271216 0.07035292
000330 7d 67 6d 3d 43 52 24 bc 24 e3 2d 3e 41 dc 09 3e
       0.057960022 -0.010029378 0.16981179 0.13462926
000340 54 53 af 3c 03 1f 55 bd 38 9a 41 3e ad d8 54 bc
       0.021402039 -0.05203153 0.18906486 -0.012991113
000350 7a be fd bc d6 b8 79 3d 4c 91 2e be a2 94 72 bd
       -0.030974615 0.06096729 -0.17047614 -0.05922378
000360 a8 b7 87 3d 0f 94 eb bd 3b 06 bd bc 55 ac c2 bc
       0.066268265 -0.11502849 -0.02307426 -0.023763815
000370 0c da fb bd d2 2d 86 3d 19 bd 52 3d 8d d9 5c 3d
       -0.122974485 0.06551708 0.05144987 0.05391841
000380 27 a0 28 bd be 96 82 3d b4 a1 10 be 44 74 7d 3e
       -0.04116836 0.06376408 -0.14124185 0.24751383
000390 5b 96 fd bd f1 b5 e7 3d 0d 63 58 3d c3 f3 1e be
       -0.12382194 0.113139994 0.052828837 -0.15522675
0003a0 3e 63 4d bd 25 7f df bd cb 25 32 be 60 a7 03 be
       -0.050143473 -0.10912923 -0.1739723 -0.12856817
0003b0 eb 60 05 3d 94 08 65 bd 61 a9 b8 bc 1e 8a f3 3d
       0.03256313 -0.055916384 -0.022541704 0.11891578
0003c0 cf 34 ad bd 50 96 8f 3c 43 4b 85 bd 2a 09 d7 3c
       -0.08457338 0.01752773 -0.06508496 0.026249487
0003d0 0d 81 ce 3c 38 f3 d1 3d 80 c9 9c bd 46 b2 16 3d
       0.02520802 0.102514684 -0.076556206 0.03679111
0003e0 1c 10 d9 bc 40 0d f0 3d 11 ae 80 bd 3d 1b 36 bd
       -0.02649694 0.11721277 -0.062832005 -0.04445957
0003f0 0a 45 1a 3d 79 ad 02 be df d8 b1 3c 93 26 ee bd
       0.037663497 -0.12761487 0.021709858 -0.11628451

network_body._body_endoder.seq_layers.2.bias f4 [128]
000000 70 80 08 bb 7c cf a4 3a 04 ba dc bb 7f 01 0c bc
       -0.0020828508 0.0012574042 -0.006736042 -0.008545279
000010 da 7f 19 bc 08 69 92 bb 31 ed bf ba 29 bc cb ba
       -0.009368861 -0.004468087 -0.0014642832 -0.0015543747
000020 fa 61 3f 3b 97 98 a3 3b a0 66 84 3b 71 c8 89 39
       0.0029202686 0.0049925554 0.004040554 0.00026280017
000030 6e 4c 94 ba 1f 63 c0 b9 ea ad 76 ba 2b 35 fa bb
       -0.0011314282 -0.00036694945 -0.00094100705 -0.0076357326
000040 43 c8 92 ba 28 e7 12 bb 7e 6d ce bb 39 06 29 bc
       -0.0011198599 -0.0022415612 -0.0062996736 -0.010316425
000050 30 cb f7 39 36 14 09 bb 89 ab 36 bb c8 49 ba bb
       0.00047262898 -0.0020916588 -0.002787324 -0.005685065
000060 61 dc ad b9 96 5e f9 ba 42 d3 aa bb 18 3a 34 3a
       -0.00033161326 -0.0019025381 -0.005213172 0.0006875112
000070 f7 fe f3 ba 28 a0 54 3b 3f b7 ee ba 0c a8 20 bb
       -0.0018615414 0.0032444093 -0.001821257 -0.0024514226
000080 12 ff 17 ba c0 da 06 bb 79 09 d0 ba 3b aa a6 bb
       -0.00057982013 -0.0020577163 -0.0015871964 -0.005086211
000090 93 b9 17 bb 02 6f 33 bb 6f bf cd bb 7d fd 8d bb
       -0.0023151382 -0.0027379398 -0.006278924 -0.0043331967
0000a0 0c c0 fb ba 0c 59 f6 b9 8c 08 09 bb c7 73 48 bb
       -0.0019207015 -0.00046987121 -0.0020909635 -0.0030586587
0000b0 5f ce 32 b9 96 45 58 bb 0f 5b 62 bb e6 81 a9 bb
       -0.00017052282 -0.003300046 -0.0034539138 -0.005172956
0000c0 2e 45 ec ba d5 3c 14 bc ec 1b a6 3b 38 35 28 bb
       -0.0018025988 -0.009047707 0.0050692465 -0.0025666486
0000d0 71 c0 d9 bb d5 6a 10 bc a8 e8 b3 bb 9e 36 84 3a
       -0.0066452553 -0.008814533 -0.0054903813 0.0010087078
0000e0 6b 5c 3e 3b 2a 2b d4 ba 5e 81 82 3b 5f a3 06 3c
       0.0029046785 -0.001618718 0.003982707 0.008217662
0000f0 3c bb 85 ba d4 03 cb b9 3f 54 3c bb c1 44 bf ba
       -0.0010202895 -0.0003872203 -0.0028736738 -0.0014592634
000100 59 ca c3 3b 97 e7 ae 3a 69 95 fe ba 68 b9 a6 bb
       0.0059750495 0.0013344166 -0.001942319 -0.00508802
000110 28 54 07 3a 7f c2 35 bb d3 30 8b ba 2e 15 c3 bb
       0.00051623816 -0.0027734337 -0.0010619409 -0.0059534525
000120 f0 dd 76 bb 39 84 2a ba 65 bc e0 39 04 40 66 ba
       -0.0037668906 -0.0006504688 0.00042864974 -0.0008783343
000130 45 45 d4 b8 7d d7 f1 ba f7 f9 c8 ba 59 b6 0c bb
       -0.0001012185 -0.0018451061 -0.0015333284 -0.0021470992
000140 5b f1 68 bb 51 50 50 bb ce 1e 94 3b 57 82 2c 3a
       -0.003554425 -0.0031786154 0.004520274 0.00065807014
000150 e3 14 86 bb 2c 45 4e b9 94 e8 cf b9 2c 51 df bb
       -0.0040918454 -0.0001967146 -0.000396554 -0.0068150964
000160 bb 43 32 39 d9 91 ff 3a 25 77 73 3b 7f 03 3e bb
       0.00017000634 0.0019498422 0.0037149873 -0.0028993783
000170 f6 31 38 b7 62 89 45 bb ff e0 d6 3a a1 0e c4 bb
       -1.0978887e-05 -0.00301417 0.0016393958 -0.005983189
000180 af 52 87 39 05 87 92 ba be 2a c4 3b 69 f8 f0 b9
       0.0002581081 -0.0011179155 0.0059865406 -0.00045961447
000190 b7 d9 93 3a 43 67 8a bb f6 df 31 ba 72 b2 b2 3a
       0.0011280094 -0.0042237355 -0.0006785387 0.0013633503
0001a0 34 6f 9f bb 01 a1 d1 3b 0a 0b 40 bb e1 d0 db 3a
       -0.0048655514 0.006397367 -0.0029303455 0.0016770625
0001b0 fc 67 d2 ba a6 8a 16 b8 86 bc de 3b 7f 68 66 3a
       -0.0016052718 -3.5891913e-05 0.006797376 0.0008789375
0001c0 fe a0 0d bb 97 a2 d1 3a 77 6e 41 bb 02 ec d7 3b
       -0.0021610851 0.001599389 -0.0029515305 0.0065894136
0001d0 01 fe 02 bb d0 6d d7 b9 31 56 b8 ba e3 93 36 3b
       -0.0019987824 -0.00041089812 -0.0014063773 0.0027859143
0001e0 49 69 2c 39 31 2a 28 bc 19 ff 73 b9 96 65 89 3b
       0.0001644242 -0.010263965 -0.00023269317 0.004193018
0001f0 21 76 d6 3a 7e 39 9f bb fc d6 38 ba 42 93 40 b9
       0.001636211 -0.0048591485 -0.0007051078 -0.00018365405

action_model._continuous_distribution.log_sigma f4 [1, 5]
000000 27 be 14 bd ce 78 f5 bc 24 93 ec bc bd 9e b4 3b
       -0.036314156 -0.02996483 -0.028878756 0.005512087
000010 df 15 4c bc
       -0.012456386

action_model._continuous_distribution.mu.weight f4 [5, 128]
000000 d3 76 c7 bc 2c 8b 0d 3c c6 d9 ed bc 52 c6 9c bb
       -0.024348652 0.008639138 -0.029034507 -0.004784384
000010 0d d1 a1 3c 65 6d 0a bb 2c 07 e7 bc 24 e9 fc bb
       0.019753003 -0.0021122333 -0.028201662 -0.007718222
000020 5c 3d 73 3c 0b 5a b4 bc 28 27 c2 bb a4 a8 3d bc
       0.014846172 -0.022015592 -0.005925078 -0.011575852
000030 44 65 1f 3d 21 59 28 3d ab 87 69 3b 49 d5 81 bc
       0.038914934 0.041100625 0.0035633843 -0.015848773
000040 66 6f dd bc 1b 93 c8 bc 6f bc 27 3c e8 42 24 3c
       -0.027030658 -0.024484208 0.010237797 0.010025717
000050 21 28 6f bc 0b d6 18 3c c2 bd 05 b9 76 ef f4 3c
       -0.01459697 0.009328376 -0.00012754559 0.02989934
000060 b7 b5 34 3a bc 22 22 3b 73 e0 89 bc 42 c5 7a 3c
       0.00068935327 0.0024739942 -0.016830659 0.015305819
000070 59 85 34 bc 9d bc ee ba 1c 93 bd bc 57 43 16 ba
       -0.011018121 -0.001821417 -0.023141436 -0.00057320803
000080 db ae eb 3c ce ce f3 3c 73 f5 e7 3c 0d cf dd bb
       0.028769901 0.029761698 0.028315281 -0.006769067
000090 fc 78 c8 3a c4 f3 40 3c d2 04 2c 3c 57 e9 7c bb
       0.0015294845 0.011776868 0.010499196 -0.003859123
0000a0 3e 75 a2 3a 64 99 b7 bc b5 f7 33 3c eb 63 aa 3c
       0.001239456 -0.02241201 0.010984351 0.020799598
0000b0 fa e5 bc 3b 4e b3 91 bc 6e ba ec 3c 31 a7 31 3c
       0.00576472 -0.017785694 0.02889749 0.010843084
0000c0 bf 81 e3 bc 3a 6e 95 3c a2 f0 af bc 36 c9 63 3c
       -0.027771829 0.018241037 -0.021477047 0.013902953
0000d0 d7 ac a9 3c 2d 71 01 3c db b8 9d bc 3e ef 25 3d
       0.0207123 0.007900518 -0.019253185 0.040511362
0000e0 ff dc b8 bb 11 6e 3a 3c e9 2c 6f 3c 08 5f 82 bc
       -0.005641579 0.011378781 0.01459811 -0.015914455
0000f0 90 43 f5 3c ac f5 be ba cc 23 03 bb de 7e 50 3c
       0.029939443 -0.0014569066 -0.002001035 0.01272556
000100 69 e3 a6 3b 58 49 7a bc e0 1d 89 bb 31 e0 b3 bb
       0.0050930274 -0.015276276 -0.0041844696 -0.005489372
000110 c5 bf 52 bd e5 c2 88 3c 95 37 78 3c 93 55 dd bb
       -0.051452417 0.016694495 0.015149971 -0.006754586
000120 7b c6 89 bb 0c 7e 25 bc ed f3 62 bc d1 3d 3a bd
       -0.004204569 -0.010100853 -0.013852102 -0.04546911
000130 6b 57 67 3a 43 67 93 bc b7 d9 f3 3c 11 52 a1 3c
       0.0008824977 -0.017993575 0.0297669 0.019692453
000140 eb 15 80 3c ff 7a e5 3b 9f 90 d8 ba be 3f f7 bc
       0.015635451 0.0070031877 -0.0016522593 -0.030181762
000150 aa 28 e1 bc ca 5b 13 bc c3 a1 ec 3c 4a c2 cc 3b
       -0.02748521 -0.008994052 0.028885728 0.006248747
000160 38 07 3f bb 90 05 19 bd a5 0e 38 bd 11 ad e0 3c
       -0.002914859 -0.03735882 -0.04493584 0.027426274
000170 49 a7 af bc 89 50 fa b7 f7 d8 db 3c 3d e7 a4 3c
       -0.021442072 -2.9839824e-05 0.026836855 0.020129794
000180 98 89 b0 3c 84 d2 97 bc 39 7e c7 3c f3 cb 71 bb
       0.021549985 -0.018532999 0.02435218 -0.0036895245
000190 25 18 a4 bc 30 12 ae bc f7 af 84 3c b2 93 24 bd
       -0.020031044 -0.021248907 0.016197188 -0.040179916
0001a0 42 38 d8 bc 4e 26 ac bb 99 16 d3 bc 7d 44 ec bc
       -0.026394013 -0.0052535897 -0.025767611 -0.028841252
0001b0 00 df ca 3c ca e9 33 bd b6 ba 99 bc eb dd 2b bb
       0.024764538 -0.04392413 -0.018765789 -0.0026224803
0001c0 25 27 2b 3c f7 49 0e 3c e7 66 fa 3b 28 88 52 bc
       0.0104463445 0.008684627 0.0076416614 -0.012849845
0001d0 78 f0 b0 3c 68 96 8b 3b 19 b9 89 3c ca df a2 bc
       0.02159904 0.004259873 0.016811894 -0.019882102
0001e0 90 9b 58 bc 45 50 89 ba c5 38 8e bc 7c 22 2c bd
       -0.013220683 -0.0010476193 -0.017361054 -0.042025074
0001f0 d1 66 ef 3a f0 5d 10 bc ac 84 32 3d 96 fa bf 3b
       0.0018264895 -0.008811459 0.043583557 0.0058587296
000200 d5 47 e6 bb 6a 74 65 3c 24 f9 e1 bc 67 cc a7 bc
       -0.007027606 0.014004806 -0.02758462 -0.020483209
000210 20 e8 89 bc 85 5d f8 bb 06 af 1e bd 83 2b d9 3b
       -0.016834319 -0.007579508 -0.038741134 0.0066275015
000220 c9 e8 55 3c fa 9c 3b 3c 9e 50 ac 3c d7 e3 6b 3b
       0.013055989 0.011451 0.021034535 0.0035993957
000230 82 fa e5 bb f7 20 fc 3c eb c1 5d bc 46 a7 da bc
       -0.0070183882 0.030777438 -0.013535003 -0.02669109
000240 da 83 92 bc 2d 3c 55 bc bf 10 ef bc d5 b1 e7 bc
       -0.017885137 -0.013014835 -0.02918279 -0.02828304
000250 67 ec ba 3c 68 a9 cf 3a 35 d1 8c 3b 6e 23 86 bb
       0.022817804 0.0015843334 0.0042974004 -0.004093579
000260 a6 8b 62 bc 2a 1e e7 3b 4f a0 3e bd 6d 41 f1 3b
       -0.01382724 0.0070531564 -0.0465396 0.0073625357
000270 97 3c 9c 3b 9b 6a 9b bb d6 2f 58 bc a4 ee f5 bb
       0.004767965 -0.004742933 -0.013194999 -0.007505255
000280 9b e9 24 bd a2 9e 96 bb ff 75 7d bd 5f 41 dd bc
       -0.040261846 -0.004596547 -0.061880108 -0.02700871
000290 e7 d4 92 bc f1 86 79 ba 78 50 44 bc a3 f7 8e 3a
       -0.017923785 -0.0009518704 -0.011982076 0.0010907542
0002a0 7f 82 f8 bc 53 25 81 3c f0 c7 4c bc df 8c a8 bc
       -0.030335663 0.015764868 -0.012498841 -0.020574985
0002b0 1b cb cb ba cc bb b7 3b 05 08 94 ba 49 f6 94 3b
       -0.0015548201 0.005607104 -0.0011293894 0.004545961
0002c0 8c 34 19 3b 56 89 38 bb 22 43 ea 3c 13 1d 4e bc
       0.0023377268 -0.002815803 0.028596465 -0.012580174
0002d0 c4 ec 77 3b 7e 76 bd bc 16 40 16 bc 84 88 7b bc
       0.0037830332 -0.02312779 -0.009170553 -0.015352372
0002e0 12 a5 b2 3c ec 57 b7 3b dc d4 e5 b9 5d 79 b5 3c
       0.021807227 0.005595198 -0.00043836876 0.022152597
0002f0 57 02 b3 bb d2 fc 06 3d f4 4b 97 bc 02 69 a3 3b
       -0.0054629254 0.032955952 -0.018468834 0.004986883
000300 80 46 13 bc 8f dd cc bc fb 87 58 bc 90 8d 0c bd
       -0.0089889765 -0.025007991 -0.013216014 -0.034314692
000310 9e 2d 44 3c f6 41 98 bc 94 ab 4d bc ae 65 92 3c
       0.011973767 -0.01858614 -0.012553114 0.01787075
000320 d1 1d 11 bd f4 d0 14 bd 8a 35 82 bb 06 ee 0a 3b
       -0.035428826 -0.036332086 -0.0039736675 0.0021199002
000330 2d f5 31 3c bd e8 94 bc 3e 43 fb ba d8 3e b8 bc
       0.010861677 -0.018177385 -0.001916982 -0.022490904
000340 74 2c 34 3c 2f 09 e1 bb b9 fc ff 3c 90 72 dd 3b
       0.010996927 -0.00686755 0.031248437 0.0067580417
000350 b1 31 8c bc e4 f8 e2 ba e6 4a ce 3c f3 27 9f bb
       -0.017113538 -0.0017316607 0.025182199 -0.0048570572
000360 1e 71 db 3b 93 d8 da 3b 7f 4a 5d 3c 3c ef 1a bc
       0.006696834 0.0066786497 0.013506531 -0.009456452
000370 52 53 30 3c e4 d5 7c bc 89 77 e9 bb 25 7c 48 bd
       0.010762053 -0.015431855 -0.0071248454 -0.04894652
000380 19 64 26 3d ff d1 fa bc e4 78 0b 3d 7b 17 99 3c
       0.040622804 -0.030617712 0.034050837 0.018687954
000390 fb 7e 1a 3d d4 3b ff bc 06 65 49 3c fd 2c d3 bc
       0.037718754 -0.031156458 0.012292152 -0.025778288
0003a0 3f b0 54 bc fe 67 28 bc 77 73 91 bc 14 60 57 3c
       -0.0129814735 -0.0102787 -0.017755253 0.013145465
0003b0 b4 40 a8 3a d4 0c f2 bb 7b 6c 9f 3b 52 78 e4 3b
       0.0012836666 -0.007386783 0.004865227 0.006972351
0003c0 e3 48 21 bd 66 aa 1d 3c e9 66 47 bc fa 40 65 bc
       -0.03937615 0.009623146 -0.012170532 -0.013992542
0003d0 45 73 af 3b 23 57 fd 3b 88 63 69 bc fc 0d 80 bb
       0.0053543174 0.007731335 -0.0142449215 -0.003907917
0003e0 31 52 9c bb 07 fc ae bc c7 fa 43 ba 7b a7 05 3c
       -0.00477054 -0.02136041 -0.00074760284 0.008157606
0003f0 c3 89 fe bb 66 35 d6 bc b4 af 0a 3c f5 dc 02 3d
       -0.0077678873 -0.02614851 0.008464742 0.031949002

action_model._continuous_distribution.mu.bias f4 [5]
000000 ac 29 06 ba 78 21 d7 3a 4e 74 06 3b 75 01 98 ba
       -0.0005117904 0.0016413173 0.00205161 -0.0011597114
000010 b9 8e 1a bb
       -0.0023583604

action_model._discrete_distribution.branches.0.weight f4 [1, 128]
000000 28 48 35 bb 8b 3d b9 3b 66 35 a7 ba 16 0a b1 bc
       -0.0027661417 0.0056530884 -0.0012757003 -0.021611255
000010 f7 53 94 39 23 e9 0e 3c e3 c4 cb ba af e2 97 bb
       0.00028291318 0.008722576 -0.0015546348 -0.004635177
000020 0b 4e fb bb 6f 06 c3 bb a3 af f3 ba 7b 37 4c 3c
       -0.0076692156 -0.0059516947 -0.0018591773 0.012464399
000030 00 64 7a bc cb 51 54 bb 11 c7 17 bc 4a 30 3a 3b
       -0.015282631 -0.0032397385 -0.00926377 0.002841013
000040 62 df f7 ba 2d 6f 7c 3b 8c 24 37 bc 8b 6a 6c bb
       -0.0018911178 0.0038518414 -0.011178147 -0.0036074247
000050 2f 64 11 bc b7 6a 7a bc af eb 39 bb 4b f1 6c bc
       -0.008873983 -0.015284232 -0.0028369238 -0.014461826
000060 0b 73 52 3c ef 1e ed bb 5a ba dd 3b 35 98 9c 3a
       0.012844811 -0.0072363536 0.0067665996 0.0011947217
000070 bb 17 09 ba a9 b4 0c 3c af e9 e1 3a 93 97 84 bc
       -0.00052296714 0.008587995 0.0017235781 -0.016185557
000080 45 ef de 3b d3 77 e5 3c 41 ae 95 bc 0f 17 21 bc
       0.0068034255 0.028011238 -0.018271567 -0.009832158
000090 10 4a 12 3c a7 39 1b bc 97 aa ff bb 3b 21 cd bb
       0.008928791 -0.009474195 -0.0078023183 -0.006260065
0000a0 6d f6 8d 3b 39 13 4c bb f8 89 b5 bb d9 d5 1a ba
       0.0043323548 -0.0031139387 -0.005540129 -0.00059064996
0000b0 71 99 38 bb f7 86 b4 3c 2f 3f d5 3b 2a af e3 3b
       -0.002816763 0.022037013 0.006507776 0.0069483714
0000c0 af 71 d8 ba 11 92 c9 3b 90 87 65 3c 24 41 0a 3c
       -0.0016513373 0.0061514457 0.014009371 0.008438382
0000d0 22 df 26 3b cf c9 bd bb ff c5 a7 ba b6 d3 0e 3c
       0.0025462587 -0.0057918797 -0.0012800096 0.008717468
0000e0 40 e9 71 3c 7f 87 ef 3a e4 d0 81 ba df f4 de bb
       0.014765084 0.0018274634 -0.0009904173 -0.0068040933
0000f0 53 d7 81 3c bf e9 55 3c a7 5a 92 3b 78 7a d7 3b
       0.015849745 0.013056218 0.004466373 0.0065758787
000100 62 be d9 bb 22 dd 42 bb 13 51 01 3c db 78 90 3a
       -0.00664501 -0.0029733856 0.007892865 0.0011022346
000110 0a 6d 4d 3b d0 2f f8 bb bc 12 4a 3b d5 fb c4 bb
       0.003134551 -0.007574059 0.003083392 -0.006011466
000120 d3 69 0f bc db 6c 8d 3b e0 2d ce 3c c5 15 da 3b
       -0.008753258 0.004315955 0.02516836 0.006655427
000130 8f 16 3e bc ee 1e 49 3c 3d 91 f6 ba 90 00 58 3c
       -0.011602058 0.012275441 -0.0018811595 0.013183728
000140 fd 24 5b bb d0 68 92 3c 9d 71 a7 3c 0e 76 9f 3b
       -0.0033438795 0.017872244 0.020439917 0.004866368
000150 49 2d 18 3c 2c 30 a5 bc 45 c0 64 3c 18 22 33 3b
       0.009288141 -0.020164572 0.013961856 0.0027333554
000160 91 90 27 bc 1d 0c 78 3c 3b e1 70 bc cb 10 56 bc
       -0.010227338 0.015139607 -0.014702137 -0.013065527
000170 0b e5 34 bc 5f 9e 39 bc 42 ba 79 bc d5 31 dc bb
       -0.011040936 -0.0113292625 -0.015242161 -0.0067198076
000180 bf 2f b2 bb 0c f4 0b bb 8f 99 5d bc 19 97 b7 bb
       -0.0054378207 -0.002135518 -0.013525381 -0.005602729
000190 d0 f6 1a 3c 9e 2b 33 bc 63 b8 a6 ba a7 92 e2 3b
       0.009458259 -0.010935692 -0.0012719746 0.006914455
0001a0 53 82 b3 3b 07 74 9d bb 67 06 c1 3a 27 aa 42 3c
       0.0054781823 -0.0048050913 0.001472664 0.011881388
0001b0 b6 77 c7 bc f7 41 31 3c c6 45 25 bb d5 95 d2 ba
       -0.024349075 0.01081895 -0.002521859 -0.0016066382
0001c0 55 f0 85 ba 97 fe 77 3c 4f 49 41 bc f8 79 e0 39
       -0.0010218719 0.015136383 -0.011797263 0.00042815483
0001d0 f5 45 e6 ba 68 c7 ac bb 0f 7d 47 3c ac cb 02 bc
       -0.0017568456 -0.0052727945 0.012175812 -0.0079831295
0001e0 28 22 ed 3b eb 5a c2 ba c1 5d ac ba 9f 10 95 3b
       0.0072367378 -0.0014828121 -0.00131505 0.0045491005
0001f0 fe cc 3d 3a 98 b3 c1 bb af a7 1c 3b 7d f0 9b 3c
       0.0007240324 -0.005911302 0.0023903658 0.019035572

exp_avg f4 [128, 8]
000000 12 da 3a 37 12 da 3a 37 12 da 3a 37 5d fa 91 3a
       1.1137237e-05 1.1137237e-05 1.1137237e-05 0.0011137236
000010 28 35 6e 36 00 00 00 00 00 00 00 00 00 00 00 00
       3.5495705e-06 0.0 0.0 0.0
000020 89 1a 1c 36 89 1a 1c 36 89 1a 1c 36 66 e9 73 39
       2.3261257e-06 2.3261257e-06 2.3261257e-06 0.00023261234
000030 91 bf ce 35 00 00 00 00 00 00 00 00 00 00 00 00
       1.5403949e-06 0.0 0.0 0.0
000040 dd f2 c3 2a dd f2 c3 2a dd f2 c3 2a b5 15 19 2e
       3.4807479e-13 3.4807479e-13 3.4807479e-13 3.4807452e-11
000050 4a 30 24 2a 00 00 00 00 00 00 00 00 00 00 00 00
       1.458288e-13 0.0 0.0 0.0
000060 75 5b 8f 37 75 5b 8f 37 75 5b 8f 37 eb fe df 3a
       1.7089516e-05 1.7089516e-05 1.7089516e-05 0.0017089521
000070 5c 7d 47 34 00 00 00 00 00 00 00 00 00 00 00 00
       1.8578925e-07 0.0 0.0 0.0
000080 6b dc bf b6 6b dc bf b6 6b dc bf b6 17 e4 15 ba
       -5.7179036e-06 -5.7179036e-06 -5.7179036e-06 -0.0005717887
000090 70 17 5d 36 00 00 00 00 00 00 00 00 00 00 00 00
       3.2945209e-06 0.0 0.0 0.0
0000a0 43 78 8c 32 43 78 8c 32 43 78 8c 32 e4 7b db 35
       1.6352834e-08 1.6352834e-08 1.6352834e-08 1.6352828e-06
0000b0 e7 b4 90 b0 00 00 00 00 00 00 00 00 00 00 00 00
       -1.0528795e-09 0.0 0.0 0.0
0000c0 67 81 55 37 67 81 55 37 67 81 55 37 0e cd a6 3a
       1.2725918e-05 1.2725918e-05 1.2725918e-05 0.0012725906
0000d0 c7 65 9c b3 00 00 00 00 00 00 00 00 00 00 00 00
       -7.282829e-08 0.0 0.0 0.0
0000e0 fa 0a 52 b8 fa 0a 52 b8 fa 0a 52 b8 95 18 a4 bb
       -5.0078124e-05 -5.0078124e-05 -5.0078124e-05 -0.005007813
0000f0 d6 60 e5 b5 00 00 00 00 00 00 00 00 00 00 00 00
       -1.7090013e-06 0.0 0.0 0.0
000100 d7 e3 b9 37 d7 e3 b9 37 d7 e3 b9 37 fd 39 11 3b
       2.2159815e-05 2.2159815e-05 2.2159815e-05 0.0022159808
000110 4a cf 00 b6 00 00 00 00 00 00 00 00 00 00 00 00
       -1.9194144e-06 0.0 0.0 0.0
000120 e0 c5 89 b7 e0 c5 89 b7 e0 c5 89 b7 39 45 d7 ba
       -1.6423815e-05 -1.6423815e-05 -1.6423815e-05 -0.0016423828
000130 a6 5b 4f 35 00 00 00 00 00 00 00 00 00 00 00 00
       7.7246875e-07 0.0 0.0 0.0
000140 73 cb 9f 96 73 cb 9f 96 31 83 59 94 81 ee a9 97
       -2.581623e-25 -2.581623e-25 -1.0981573e-26 -1.0981576e-24
000150 b9 48 8f 91 00 00 00 00 00 00 00 00 00 00 00 00
       -2.260624e-28 0.0 0.0 0.0
000160 4d be 62 99 4d be 62 99 a5 95 64 99 17 95 b2 9c
       -1.1722357e-23 -1.1722357e-23 -1.1817544e-23 -1.1817591e-21
000170 18 d9 ef 97 00 00 00 00 00 00 00 00 00 00 00 00
       -1.5499815e-24 0.0 0.0 0.0
000180 a8 a0 8b b7 a8 a0 8b b7 a8 a0 8b b7 19 2b da ba
       -1.6644903e-05 -1.6644903e-05 -1.6644903e-05 -0.0016644924
000190 6e ac c2 36 00 00 00 00 00 00 00 00 00 00 00 00
       5.801724e-06 0.0 0.0 0.0
0001a0 65 53 84 a7 65 53 84 a7 65 53 84 a7 50 c2 ce aa
       -3.6727776e-15 -3.6727776e-15 -3.6727776e-15 -3.6727782e-13
0001b0 df 25 43 25 00 00 00 00 00 00 00 00 00 00 00 00
       1.6926385e-16 0.0 0.0 0.0
0001c0 23 6c 4c b5 23 6c 4c b5 23 6c 4c b5 86 b4 9f b8
       -7.615328e-07 -7.615328e-07 -7.615328e-07 -7.615336e-05
0001d0 5a 74 1b 34 00 00 00 00 00 00 00 00 00 00 00 00
       1.4477828e-07 0.0 0.0 0.0
0001e0 9b 20 33 b5 9b 20 33 b5 9b 20 33 b5 7a f1 8b b8
       -6.6730144e-07 -6.6730144e-07 -6.6730144e-07 -6.673015e-05
0001f0 e3 54 9c b4 00 00 00 00 00 00 00 00 00 00 00 00
       -2.9119028e-07 0.0 0.0 0.0
000200 47 42 8a a1 47 42 8a a1 4a 42 8a a1 89 07 d8 a4
       -9.368787e-19 -9.368787e-19 -9.36879e-19 -9.368783e-17
000210 cc 18 c6 9e 00 00 00 00 00 00 00 00 00 00 00 00
       -2.0974321e-20 0.0 0.0 0.0
000220 70 20 e4 97 70 20 e4 97 56 59 b1 97 cd 8d 0a 9b
       -1.4742343e-24 -1.4742343e-24 -1.1460908e-24 -1.1460911e-22
000230 18 1f f8 15 00 00 00 00 00 00 00 00 00 00 00 00
       1.0021546e-25 0.0 0.0 0.0
000240 f6 2a 00 b8 f6 2a 00 b8 f6 2a 00 b8 22 43 48 bb
       -3.055759e-05 -3.055759e-05 -3.055759e-05 -0.0030557592
000250 6b bf 66 b6 00 00 00 00 00 00 00 00 00 00 00 00
       -3.438409e-06 0.0 0.0 0.0
000260 c1 2f 9a 37 c1 2f 9a 37 c1 2f 9a 37 9b ea f0 3a
       1.8380468e-05 1.8380468e-05 1.8380468e-05 0.0018380465
000270 15 a3 fe 36 00 00 00 00 00 00 00 00 00 00 00 00
       7.588775e-06 0.0 0.0 0.0
000280 df de 29 b7 df de 29 b7 df de 29 b7 1b b6 84 ba
       -1.0125076e-05 -1.0125076e-05 -1.0125076e-05 -0.0010125072
000290 cf fb 26 36 00 00 00 00 00 00 00 00 00 00 00 00
       2.48825e-06 0.0 0.0 0.0
0002a0 18 e5 0f b5 18 e5 0f b5 18 e5 0f b5 4f d4 60 b8
       -5.3605027e-07 -5.3605027e-07 -5.3605027e-07 -5.360349e-05
0002b0 6c 7c c5 b6 00 00 00 00 00 00 00 00 00 00 00 00
       -5.885542e-06 0.0 0.0 0.0
0002c0 ed 54 56 37 ed 54 56 37 ed 54 56 37 5c 72 a7 3a
       1.2775167e-05 1.2775167e-05 1.2775167e-05 0.0012775171
0002d0 62 42 5f b6 00 00 00 00 00 00 00 00 00 00 00 00
       -3.326823e-06 0.0 0.0 0.0
0002e0 bc cd 8e a2 bc cd 8e a2 c3 cd 8e a2 ad 21 df a5
       -3.8707007e-18 -3.8707007e-18 -3.8707036e-18 -3.8707153e-16
0002f0 51 e6 b1 22 00 00 00 00 00 00 00 00 00 00 00 00
       4.8219803e-18 0.0 0.0 0.0
000300 b8 3f 98 a2 b8 3f 98 a2 ba 3f 98 a2 96 e3 ed a5
       -4.1267147e-18 -4.1267147e-18 -4.1267156e-18 -4.1267165e-16
000310 c9 9a 12 a2 00 00 00 00 00 00 00 00 00 00 00 00
       -1.9868632e-18 0.0 0.0 0.0
000320 64 3c 2a 38 64 3c 2a 38 64 3c 2a 38 31 ff 84 3b
       4.05874e-05 4.05874e-05 4.05874e-05 0.0040587415
000330 fb f3 3a 37 00 00 00 00 00 00 00 00 00 00 00 00
       1.114327e-05 0.0 0.0 0.0
000340 1f 13 24 b6 1f 13 24 b6 1f 13 24 b6 ef 2e 80 b9
       -2.4449034e-06 -2.4449034e-06 -2.4449034e-06 -0.0002444903
000350 77 6c 65 34 00 00 00 00 00 00 00 00 00 00 00 00
       2.1366746e-07 0.0 0.0 0.0
000360 e2 2a b9 23 e2 2a b9 23 e2 2a b9 23 80 a9 10 27
       2.0075902e-17 2.0075902e-17 2.0075902e-17 2.00759e-15
000370 58 a4 5b a3 00 00 00 00 00 00 00 00 00 00 00 00
       -1.1906815e-17 0.0 0.0 0.0
000380 86 93 62 16 86 93 62 16 37 28 85 86 d7 0e d0 89
       1.8302685e-25 1.8302685e-25 -5.008813e-35 -5.0088134e-33
000390 3f 34 de 84 00 00 00 00 00 00 00 00 00 00 00 00
       -5.223993e-36 0.0 0.0 0.0
0003a0 97 16 79 38 97 16 79 38 97 16 79 38 a8 99 c2 3b
       5.9387265e-05 5.9387265e-05 5.9387265e-05 0.0059387274
0003b0 c8 47 df 36 00 00 00 00 00 00 00 00 00 00 00 00
       6.6542743e-06 0.0 0.0 0.0
0003c0 a8 bd ea b6 a8 bd ea b6 a8 bd ea b6 24 64 37 ba
       -6.9958223e-06 -6.9958223e-06 -6.9958223e-06 -0.0006995818
0003d0 93 d7 2b 35 00 00 00 00 00 00 00 00 00 00 00 00
       6.4016166e-07 0.0 0.0 0.0
0003e0 59 ac 80 38 59 ac 80 38 59 ac 80 38 4a 0d c9 3b
       6.135618e-05 6.135618e-05 6.135618e-05 0.0061356174
0003f0 05 21 01 37 00 00 00 00 00 00 00 00 00 00 00 00
       7.696687e-06 0.0 0.0 0.0

exp_avg_sq f4 [128, 8]
000000 e5 c7 9c 31 e5 c7 9c 31 4e ae 9a 31 c4 d1 3c 38
       4.562923e-09 4.562923e-09 4.501806e-09 4.5018052e-05
000010 ea 43 31 2f 00 00 00 00 00 00 00 00 00 00 00 00
       1.6122184e-10 0.0 0.0 0.0
000020 b0 14 1f 30 b0 14 1f 30 ff 14 0c 30 9c ff aa 36
       5.787326e-10 5.787326e-10 5.096154e-10 5.0961517e-06
000030 ce 7d a9 2d 00 00 00 00 00 00 00 00 00 00 00 00
       1.9268944e-11 0.0 0.0 0.0
000040 bd 21 de 2d bd 21 de 2d 20 ba b0 19 3c bb 57 20
       2.525346e-11 2.525346e-11 1.8273149e-23 1.8273159e-19
000050 4b 29 40 17 00 00 00 00 00 00 00 00 00 00 00 00
       6.2090665e-25 0.0 0.0 0.0
000060 74 37 9e 32 74 37 9e 32 21 71 9d 32 a0 30 40 39
       1.8418838e-08 1.8418838e-08 1.832865e-08 0.00018328661
000070 ce 93 36 30 00 00 00 00 00 00 00 00 00 00 00 00
       6.642126e-10 0.0 0.0 0.0
000080 92 4d 88 33 92 4d 88 33 d4 a7 87 33 57 98 25 3a
       6.3471035e-08 6.3471035e-08 6.316955e-08 0.0006316951
000090 48 26 17 31 00 00 00 00 00 00 00 00 00 00 00 00
       2.1995152e-09 0.0 0.0 0.0
0000a0 bd e3 ca 2e bd e3 ca 2e 4c ee a9 27 75 6f 4f 2e
       9.226351e-11 9.226351e-11 4.7165285e-15 4.7165345e-11
0000b0 04 27 47 25 00 00 00 00 00 00 00 00 00 00 00 00
       1.7273718e-16 0.0 0.0 0.0
0000c0 fe 56 ff 32 fe 56 ff 32 12 6f fe 32 52 4b 9b 39
       2.9725467e-08 2.9725467e-08 2.962e-08 0.00029620022
0000d0 e0 3b 96 30 00 00 00 00 00 00 00 00 00 00 00 00
       1.0930954e-09 0.0 0.0 0.0
0000e0 c1 6a 04 33 c1 6a 04 33 10 32 05 33 9f 97 a2 39
       3.0830737e-08 3.0830737e-08 3.1012007e-08 0.00031012014
0000f0 cb ec 9b 30 00 00 00 00 00 00 00 00 00 00 00 00
       1.1345035e-09 0.0 0.0 0.0
000100 ea 7f 95 32 ea 7f 95 32 60 48 95 32 dc 3a 36 39
       1.7404052e-08 1.7404052e-08 1.7378795e-08 0.000173788
000110 75 ce 2d 30 00 00 00 00 00 00 00 00 00 00 00 00
       6.3230426e-10 0.0 0.0 0.0
000120 51 92 ee 31 51 92 ee 31 85 23 ed 31 ef bc 90 38
       6.943346e-09 6.943346e-09 6.901646e-09 6.901647e-05
000130 46 2a 8f 2f 00 00 00 00 00 00 00 00 00 00 00 00
       2.6041586e-10 0.0 0.0 0.0
000140 72 66 ed 2e 72 66 ed 2e 00 00 00 00 00 00 00 00
       1.079571e-10 1.079571e-10 0.0 0.0
000150 00 00 00 00 00 00 00 00 00 00 00 00 00 00 00 00
       0.0 0.0 0.0 0.0
000160 ef 59 52 2c ef 59 52 2c 85 02 00 00 af 8f 6a 00
       2.9892718e-12 2.9892718e-12 9.04e-43 9.786107e-39
000170 05 00 00 00 00 00 00 00 00 00 00 00 00 00 00 00
       7e-45 0.0 0.0 0.0
000180 a3 35 f5 32 a3 35 f5 32 7f f9 f4 32 46 85 95 39
       2.8546145e-08 2.8546145e-08 2.8518796e-08 0.0002851879
000190 1f d9 91 30 00 00 00 00 00 00 00 00 00 00 00 00
       1.0611848e-09 0.0 0.0 0.0
0001a0 04 32 6f 2d 04 32 6f 2d c5 4b a7 11 00 38 4c 18
       1.3596683e-11 1.3596683e-11 2.639465e-28 2.6394655e-24
0001b0 68 d0 38 0f 00 00 00 00 00 00 00 00 00 00 00 00
       9.112038e-30 0.0 0.0 0.0
0001c0 44 f8 09 30 44 f8 09 30 c8 48 bf 2f 5e 80 69 36
       5.0193116e-10 5.0193116e-10 3.4794412e-10 3.4794425e-06
0001d0 48 a9 52 2d 00 00 00 00 00 00 00 00 00 00 00 00
       1.1974706e-11 0.0 0.0 0.0
0001e0 e8 11 ed 2d e8 11 ed 2d 3c 5e ad 2d 92 a1 53 34
       2.6951733e-11 2.6951733e-11 1.9709671e-11 1.9709685e-07
0001f0 50 cc 54 2b 00 00 00 00 00 00 00 00 00 00 00 00
       7.560107e-13 0.0 0.0 0.0
000200 6e 3a 97 2e 6e 3a 97 2e f9 0d 72 05 07 bd 13 0c
       6.877064e-11 6.877064e-11 1.1381352e-35 1.1381351e-31
000210 e3 3a 1f 03 00 00 00 00 00 00 00 00 00 00 00 00
       4.67935e-37 0.0 0.0 0.0
000220 a5 83 25 2e a5 83 25 2e 00 00 00 00 42 00 00 00
       3.763358e-11 3.763358e-11 0.0 9.2e-44
000230 00 00 00 00 00 00 00 00 00 00 00 00 00 00 00 00
       0.0 0.0 0.0 0.0
000240 e6 54 18 32 e6 54 18 32 9c 88 15 32 37 89 b6 38
       8.866868e-09 8.866868e-09 8.704003e-09 8.7039945e-05
000250 02 bf a9 2f 00 00 00 00 00 00 00 00 00 00 00 00
       3.087664e-10 0.0 0.0 0.0
000260 f4 da 85 32 f4 da 85 32 34 f9 85 32 ad 8a 23 39
       1.5582806e-08 1.5582806e-08 1.5596562e-08 0.00015596552
000270 f6 70 1e 30 00 00 00 00 00 00 00 00 00 00 00 00
       5.764059e-10 0.0 0.0 0.0
000280 2f cb 70 32 2f cb 70 32 2b 5a 72 32 95 eb 13 39
       1.4016037e-08 1.4016037e-08 1.4106756e-08 0.00014106774
000290 b0 66 0b 30 00 00 00 00 00 00 00 00 00 00 00 00
       5.0713833e-10 0.0 0.0 0.0
0002a0 42 39 ad 32 42 39 ad 32 40 d5 ac 32 4e fa 52 39
       2.0165889e-08 2.0165889e-08 2.012041e-08 0.00020120406
0002b0 2e 2e 52 30 00 00 00 00 00 00 00 00 00 00 00 00
       7.646318e-10 0.0 0.0 0.0
0002c0 5c 63 bc 32 5c 63 bc 32 a8 bc ba 32 48 f3 63 39
       2.1931264e-08 2.1931264e-08 2.173904e-08 0.00021739036
0002d0 ba 84 68 30 00 00 00 00 00 00 00 00 00 00 00 00
       8.4589724e-10 0.0 0.0 0.0
0002e0 18 ef f5 2e 18 ef f5 2e dc d4 bb 0a 4e 49 65 11
       1.1183782e-10 1.1183782e-10 1.8087514e-32 1.8087503e-28
0002f0 49 08 6f 08 00 00 00 00 00 00 00 00 00 00 00 00
       7.1931186e-34 0.0 0.0 0.0
000300 7c dc 4e 2e 7c dc 4e 2e 13 11 50 08 ce fc fd 0e
       4.7034807e-11 4.7034807e-11 6.2612794e-34 6.2612757e-30
000310 a8 3d 12 06 00 00 00 00 00 00 00 00 00 00 00 00
       2.7504846e-35 0.0 0.0 0.0
000320 fc 7a ed 32 fc 7a ed 32 b6 b9 e9 32 a1 a7 8e 39
       2.7646358e-08 2.7646358e-08 2.7209222e-08 0.00027209244
000330 62 be 8d 30 00 00 00 00 00 00 00 00 00 00 00 00
       1.031321e-09 0.0 0.0 0.0
000340 bf 36 83 2f bf 36 83 2f fa 4d ca 2e 20 f4 76 35
       2.386766e-10 2.386766e-10 9.199748e-11 9.199739e-07
000350 e7 d0 7a 2c 00 00 00 00 00 00 00 00 00 00 00 00
       3.56431e-12 0.0 0.0 0.0
000360 ab 68 95 2e ab 68 95 2e d8 22 84 0b 89 4c 21 12
       6.794328e-11 6.794328e-11 5.089698e-32 5.089698e-28
000370 cf 80 15 09 00 00 00 00 00 00 00 00 00 00 00 00
       1.7995788e-33 0.0 0.0 0.0
000380 b1 1f 54 2d b1 1f 54 2d 00 00 00 00 00 00 00 00
       1.2057842e-11 1.2057842e-11 0.0 0.0
000390 00 00 00 00 00 00 00 00 00 00 00 00 00 00 00 00
       0.0 0.0 0.0 0.0
0003a0 b2 81 cb 32 b2 81 cb 32 75 4f cb 32 8a 2e 78 39
       2.3691289e-08 2.3691289e-08 2.3668443e-08 0.0002366846
0003b0 82 55 6e 30 00 00 00 00 00 00 00 00 00 00 00 00
       8.670541e-10 0.0 0.0 0.0
0003c0 f4 d2 b3 32 f4 d2 b3 32 54 04 b4 32 59 bf 5b 39
       2.0934273e-08 2.0934273e-08 2.0956726e-08 0.0002095675
0003d0 e5 89 59 30 00 00 00 00 00 00 00 00 00 00 00 00
       7.91401e-10 0.0 0.0 0.0
0003e0 ae b7 80 32 ae b7 80 32 5b 54 75 32 bf bc 15 39
       1.4984689e-08 1.4984689e-08 1.4280057e-08 0.0001428006
0003f0 e1 75 0c 30 00 00 00 00 00 00 00 00 00 00 00 00
       5.109922e-10 0.0 0.0 0.0

exp_avg f4 [128]
000000 10 da 3a 37 86 1a 1c 36 dc f2 c3 2a 76 5b 8f 37
       1.1137236e-05 2.326125e-06 3.4807476e-13 1.7089518e-05
000010 6e dc bf b6 42 78 8c 32 62 81 55 37 fd 0a 52 b8
       -5.717905e-06 1.6352832e-08 1.2725914e-05 -5.0078135e-05
000020 da e3 b9 37 e4 c5 89 b7 1e de 76 96 c7 e5 60 99
       2.215982e-05 -1.6423823e-05 -1.994181e-25 -1.1626932e-23
000030 ab a0 8b b7 65 53 84 a7 25 6c 4c b5 9d 20 33 b5
       -1.6644908e-05 -3.6727776e-15 -7.6153293e-07 -6.6730155e-07
000040 44 42 8a a1 e4 a2 ed 97 f5 2a 00 b8 c5 2f 9a 37
       -9.368784e-19 -1.5356885e-24 -3.0557585e-05 1.8380475e-05
000050 de de 29 b7 32 e4 0f b5 fb 54 56 37 d7 cd 8e a2
       -1.0125075e-05 -5.360372e-07 1.277518e-05 -3.870712e-18
000060 bc 3f 98 a2 67 3c 2a 38 1c 13 24 b6 e5 2a b9 23
       -4.1267164e-18 4.0587413e-05 -2.4449027e-06 2.0075907e-17
000070 f8 fb a5 16 9b 16 79 38 93 bd ea b6 58 ac 80 38
       2.6816202e-25 5.938728e-05 -6.995813e-06 6.135617e-05
000080 e6 da 08 ae 0f 8d a0 37 61 81 2f 2b 76 69 39 b8
       -3.111724e-11 1.9139172e-05 6.235204e-13 -4.4205655e-05
000090 f3 84 30 a7 1e 81 06 b7 99 87 23 38 ce f6 c5 9e
       -2.4496978e-15 -8.017085e-06 3.8988514e-05 -2.0960262e-20
0000a0 0f fe 43 a5 9b 7e d6 32 cd d0 1e 96 be 2a 0f 38
       -1.6999632e-16 2.4970452e-08 -1.2829024e-25 3.4133664e-05
0000b0 25 55 e5 b6 14 ad 59 37 35 a1 7e 18 8a 0c e4 35
       -6.834644e-06 1.2974506e-05 3.291012e-24 1.6990973e-06
0000c0 03 bd db 97 f8 6b 65 b8 25 b6 8a a7 71 46 84 2a
       -1.4200257e-24 -5.469841e-05 -3.8500176e-15 2.349679e-13
0000d0 37 9a 96 1a b2 98 c3 31 bc 56 92 b7 cc 14 50 b8
       6.2287693e-23 5.6926064e-09 -1.7444945e-05 -4.9610433e-05
0000e0 f4 13 d0 32 37 8a 70 b8 6e ba a4 37 1c 40 40 af
       2.422346e-08 -5.734918e-05 1.9637137e-05 -1.7485074e-10
0000f0 99 fd 26 97 cb 70 c3 29 cf 91 12 b7 e1 19 ef 2e
       -5.395758e-25 8.679306e-14 -8.736227e-06 1.0873059e-10
000100 07 0e e1 b7 44 f8 90 36 7d 1a 47 a2 a7 de 8f 35
       -2.6828622e-05 4.3204363e-06 -2.6983552e-18 1.0719131e-06
000110 74 9c 1e 1d d8 c7 40 37 a9 2f 4d b8 e9 d5 32 b8
       2.099201e-21 1.1490622e-05 -4.8920196e-05 -4.2637726e-05
000120 1b 8d 92 b1 25 9b 99 38 03 5d 8b b8 d3 bf 0b 17
       -4.265201e-09 7.3245064e-05 -6.645361e-05 4.515544e-25
000130 90 d7 04 37 4e 5c 3a b7 aa f5 1f 36 2e ed 92 ac
       7.918003e-06 -1.1107955e-05 2.3835842e-06 -4.175902e-12
000140 c8 03 10 b8 db c0 82 38 b8 4e 80 17 f2 10 67 36
       -3.4335797e-05 6.234805e-05 8.291678e-25 3.4431546e-06
000150 17 b1 92 af c1 7a 1c 2d b4 c8 26 b7 80 7b 93 37
       -2.6683075e-10 8.89483e-12 -9.941101e-06 1.7581275e-05
000160 1c 57 16 38 d7 2f 19 2d 4c be 80 b6 e9 b6 1a b7
       3.5843914e-05 8.707666e-12 -3.8368507e-06 -9.221702e-06
000170 59 6c e6 b0 11 bf c4 24 90 59 92 37 f9 4d 3e 29
       -1.6765497e-09 8.532513e-17 1.7446262e-05 4.2256105e-14
000180 42 1f 1c 38 c7 40 ac 33 69 d1 c4 b7 3e 55 ff 34
       3.722241e-05 8.021157e-08 -2.3462535e-05 4.7559473e-07
000190 2c cf 15 16 21 0f ea ab 7d 3f b3 34 ff 0f 78 36
       1.2101496e-25 -1.6630899e-12 3.3387542e-07 3.696419e-06
0001a0 f6 3a 96 37 0c f4 20 b8 62 ed d5 2d 47 8a 36 b8
       1.790885e-05 -3.837426e-05 2.4320716e-11 -4.3520962e-05
0001b0 ba ab d3 32 71 65 86 17 02 3c b9 38 f9 ea 8d b8
       2.4641725e-08 8.685154e-25 8.832665e-05 -6.767171e-05
0001c0 74 ef 70 9f 6a 80 e8 b7 d8 ef 44 32 ec d4 82 b7
       -5.1020048e-20 -2.7716353e-05 1.1463236e-08 -1.5596357e-05
0001d0 91 46 09 2b 77 29 c2 32 09 01 64 34 cd 24 91 b8
       4.877011e-13 2.2603428e-08 2.1234531e-07 -6.9209935e-05
0001e0 67 c8 1b 38 da 3c 2a 37 6d d2 59 1f a1 fe 3c b4
       3.714152e-05 1.0146958e-05 4.6125598e-20 -1.7601498e-07
0001f0 3d a4 9b 26 d1 f5 0a 14 e5 cf 0f 9b e2 b7 ac b6
       1.0799802e-15 7.015698e-27 -1.1895857e-22 -5.1474062e-06
