MLA_Lab4/results/Economic/Economic/Economic-156876.onnx (onnx, 209751 bytes, 12 tensors)

action_model._continuous_distribution.log_sigma f4 [1, 5]
0.014822566 0.022691311 0.0027438903 0.024070308 0.01956473
00000000: 59da 723c 21e3 b93c d7d2 333b 182f c53c
00000010: 3646 a03c

action_model._continuous_distribution.mu.bias f4 [5]
0.000938485 -0.00020176037 0.000118293014 0.0007608657 -0.00017957621
00000000: aa04 763a a38f 53b9 1414 f838 d574 473a
00000010: 9f4c 3cb9

action_model._continuous_distribution.mu.weight f4 [5, 128]
-0.0014554845 -0.005582395 -0.0035988283 0.0049114716 0.0056811627 0.015652819 -0.016072541 -0.0021478925
0.021020446 -0.020990957 0.006356897 0.0034898638 0.019090163 -0.0006755376 0.006753811 0.009525054
-0.003954777 0.013662285 -0.010627941 0.021397011 -0.01458365 0.009449288 -0.0137979165 -0.00022442988
-0.014555026 0.00918593 -0.027353449 0.0036395218 -0.014938301 0.0051112105 0.014921924 0.0012829971
-0.0033567045 -0.019556923 -0.008087365 0.012500665 -0.015503738 -0.02483996 -0.025026482 0.010673225
-0.03036991 0.009850949 0.03577526 0.029311016 0.00946601 0.0033273473 -0.0036950656 -0.023291087
-0.003165114 0.011753765 -0.017706942 -0.014966366 0.0058463058 -0.028403543 -0.00860323 -0.0059623974
0.006472278 0.008685423 0.0050923154 -0.03729971 -0.010521719 -0.0048439433 0.015956672 0.012443324
-0.043480683 0.00689867 -0.008520046 -0.001708457 0.027240105 0.010563507 0.00211532 0.009694495
0.016396776 0.027384171 0.006365898 -0.039230485 -0.03570025 -0.011236068 -0.0037729267 -0.022237394
-0.014926591 0.0054242024 -0.0039610798 -0.017594168 -0.008268161 -0.013552438 0.014200597 0.0031405466
0.0029265513 -0.018479964 0.016217811 -0.017057208 -0.00033077775 -0.0049912254 0.024725245 0.013436283
0.010638332 -0.0008356795 -0.019674955 -0.02114901 -0.020609977 -0.017253343 -0.026553804 -0.030532049
-0.0024696228 0.026740175 -0.00079363724 -0.042775124 0.008507023 0.0061067743 0.029681517 0.0021295613
0.03421497 -0.0087051755 0.023516305 0.0076988274 -0.042468697 0.011735715 0.0089318855 -0.010863457
0.0037857995 -0.008395237 0.006196393 -0.037431963 0.028768634 -0.021120137 -0.00162982 -0.025540031
0.013380219 0.001824099 -0.0057413494 0.02888025 0.027730629 -0.012851056 0.010138944 0.015423829
0.012713642 -0.017644439 -0.002390834 -0.0014560781 0.01324637 0.01058132 -0.013307629 0.016236806
-0.011747977 -0.0011153372 -0.01761153 0.023485 -0.0043418123 0.03681175 0.003604542 -0.0075426446
0.016931131 -0.0034831564 0.0048836083 0.013848733 0.0006827249 -0.00021898704 0.017480096 0.0029128462
0.008212034 0.030263998 0.008554895 0.0071306997 0.019309565 -0.01326785 -0.0049232696 -0.021681473
-0.017920917 -0.006466635 -0.002552991 0.015977968 0.0038439613 -0.027108291 -0.023722738 -0.020088855
-0.005477586 0.013838728 0.009409503 -0.042028863 -0.01714042 0.0094535295 -0.038927443 -0.0041579315
0.023482427 9.967254e-05 -0.0065623587 0.019934807 0.033193994 -0.02149938 -0.019266505 -0.025787031
0.007277548 0.0017567246 -0.0054200934 -0.0049404637 -0.0047016456 0.0059105013 0.04105724 -0.0055118683
0.044620108 -0.012406545 0.0011919773 0.0017374839 0.05148997 0.001195153 -0.026883474 0.0018869916
0.0018031311 0.006324674 0.012706555 -0.016428731 -0.013705063 -0.003126239 -0.0042349864 -0.030361708
0.0022672925 0.029500205 -0.031682078 -0.018234638 0.022757476 0.0039342884 0.0089455955 0.0071110562
0.0316183 -0.013359489 0.016929442 0.00066600245 0.009857215 -0.0237998 -0.017734138 0.0033532393
-0.029315867 0.009497543 0.00024025628 -0.016143275 0.010965602 -0.01834781 0.03692362 -0.009974813
0.015954645 0.007951169 -0.033656556 -0.008259839 -0.028997108 0.018089121 -0.025580423 -0.022794036
-0.008133404 -0.024115916 0.0039565167 -0.04065576 0.015515856 0.008703249 -0.018927678 0.0056416434
00000000: f5c5 beba 86ec b6bb 52da 6bbb 69f0 a03b
00000010: 0c29 ba3b 573a 803c 90aa 83bc a8c3 0cbb
00000020: 1233 ac3c 3af5 abbc 844d d03b 33b6 643b
00000030: f962 9c3c 9016 31ba 134f dd3b f90e 1c3c
00000040: 1397 81bb c7d7 5f3c d120 2ebc c948 af3c
00000050: 43f0 6ebc 30d1 1a3c a810 62bc f054 6bb9
00000060: 3478 6ebc 9580 163c 5714 e0bc 0b85 6e3b
00000070: c7bf 74bc f17b a73b 167b 743c 3d2a a83a
00000080: 28fc 5bbb d735 a0bc de80 04bc 97cf 4c3c
00000090: 6403 7ebc 2c7d cbbc 5604 cdbc c0de 2e3c
000000a0: 51ca f8bc e065 213c 1489 123d a81d f03c
000000b0: 5317 1b3c a00f 5a3b ea28 72bb f3cc bebc
000000c0: cd6d 4fbb dd92 403c 260e 91bc 7d35 75bc
000000d0: 5e92 bf3b 8cae e8bc 90f4 0cbc 3760 c3bb
000000e0: 6715 d43b 4e4d 0e3c 70dd a63b 95c7 18bd
000000f0: 4a63 2cbc f1b9 9ebb 91b7 823c 15df 4b3c
00000100: cd18 32bd 3d0e e23b aa97 0bbc 4eee dfba
00000110: a426 df3c 8f12 2d3c 2ea1 0a3b a9d5 1e3c
00000120: 8852 863c c554 e03c 0699 d03b 25b0 20bd
00000130: 6d3a 12bd 7c17 38bc 3543 77bb 322b b6bc
00000140: a98e 74bc 82bd b13b f2cb 81bb a521 90bc
00000150: 2e77 07bc 0b0b 5ebc 9fa9 683c a1d1 4d3b
00000160: 62cb 3f3b 4b63 97bc 37db 843c 8fbb 8bbc
00000170: 3d6c adb9 6f8d a3bb 998c ca3c db23 5c3c
00000180: 664c 2e3c 8011 5bba 5f2d a1bc b040 adbc
00000190: 41d6 a8bc e256 8dbc 5d87 d9bc 591e fabc
000001a0: 65d9 21bb 360e db3c 180c 50ba f834 2fbd
000001b0: 0a61 0b3c 561b c83b a726 f33c 1c90 0b3b
000001c0: ff24 0c3d 27a0 0ebc 44a5 c03c 7246 fc3b
000001d0: a8f3 2dbd 2847 403c 0b57 123c a4fc 31bc
000001e0: 2d1b 783b 2d8c 09bc 1d0b cb3b 4252 19bd
000001f0: 33ac eb3c 2304 adbc af9f d5ba 5439 d1bc
00000200: b538 5b3c 9b16 ef3a ee21 bcbb 4696 ec3c
00000210: 582b e33c 3c8d 52bc d01d 263c 3ab4 7c3c
00000220: e14c 503c 128b 90bc 8aaf 1cbb e0d9 beba
00000230: 4d07 593c 465d 2d3c 3e08 5abc 0d03 853c
00000240: 967a 40bc 8230 92ba 0e46 90bc 9d63 c03c
00000250: c345 8ebb ebc7 163d 2e3a 6c3b 4a28 f7bb
00000260: 28b3 8a3c ab45 64bb ad06 a03b cce5 623c
00000270: e4f8 323a e39f 65b9 6b32 8f3c 73e5 3e3b
00000280: c48b 063c 34ec f73c d529 0c3c a5a8 e93b
00000290: 182f 9e3c 6561 59bc 6153 a1bb 589d b1bc
000002a0: e3ce 92bc 11e6 d3bb 1550 27bb 3ae4 823c
000002b0: f8ea 7b3b 3512 debc 3056 c2bc 6291 a4bc
000002c0: 527d b3bb d5bb 623c 512a 1a3c 7526 2cbd
000002d0: 116a 8cbc fae2 1a3c 6272 1fbd 423f 88bb
000002e0: 385e c03c 4a07 d138 0e09 d7bb 524e a33c
000002f0: 6df6 073d 781f b0bc cad4 9dbc 533f d3bc
00000300: 7f78 ee3b e541 e63a 0a9b b1bb 9de3 a1bb
00000310: 4310 9abb e1ac c13b a32b 283d e79c b4bb
00000320: 93c3 363d d244 4bbc 1f3c 9c3a 49bc e33a
00000330: 26e7 523d aea6 9c3a bb3a dcbc ee54 f73a
00000340: 0a57 ec3a 363f cf3b 282f 503c 8c95 86bc
00000350: 338b 60bc 96e1 4cbb a4c5 8abb 1eb9 f8bc
00000360: db96 143b 6aaa f13c 11c5 01bd cf60 95bc
00000370: e36d ba3c 34eb 803b 8c90 123c dd03 e93b
00000380: 3182 013d c2e1 5abc 9daf 8a3c ab96 2e3a
00000390: 2880 213c ccf7 c2bc 2f47 91bc 05c2 5b3b
000003a0: d427 f0bc 959b 1b3c 4eed 7b39 e73e 84bc
000003b0: 11a9 333c 254e 96bc 393d 173d 666d 23bc
000003c0: 51b3 823c 9f45 023c 75db 09bd 4754 07bc
000003d0: 588b edbc a32f 943c 098e d1bc 8fba babc
000003e0: f841 05bc be8e c5bc aba5 813b a786 26bd
000003f0: 3836 7e3c 1298 0e3c 380e 9bbc 89dd b83b

action_model._discrete_distribution.branches.0.weight f4 [1, 128]
0.010143522 -0.0035455374 -0.01330995 -0.01730111 -0.019735172 0.012227186 -0.011359925 0.002686646
-0.009648046 0.012783042 -0.005044102 0.0028483535 -0.009059827 0.016925057 -0.0025944884 -0.00096649874
-0.013406086 -0.005388093 0.005752076 -0.018933523 0.005587995 0.0072645904 -0.0046836105 -0.002256331
-0.016411027 -0.0027278268 -0.007575374 -0.005864356 0.0072345333 0.0049720365 -0.006286057 -0.0063038594
-0.021721734 -0.008939307 0.0007936989 0.0020068283 0.0062259273 -0.009780464 -0.014672229 0.0068388805
-0.0054138224 -0.00058387016 0.0017305486 -0.0010658912 -0.0017113545 -0.013986009 0.007676565 0.0007111272
0.0025900088 -0.0057302387 0.0031933908 -0.0054068407 -0.01470939 -0.002714049 -0.0070002377 0.013412367
0.022471014 -0.0049175764 0.0071236156 -0.0053156703 0.013634078 0.014218092 0.00117128 -0.0021742785
0.0084634945 -0.0067274882 0.012404039 0.0058507267 0.0023359002 -0.007302596 0.002388238 -0.011008569
-0.003626447 -0.0117590455 0.005150275 0.018115012 0.0051963027 0.0110887205 0.0036193673 -0.0012359414
0.016975805 -0.0253454 -0.009914104 0.0040527047 0.0027254992 0.0017464381 0.00089174847 -0.0004580427
0.009061459 0.013653539 0.0036717807 0.01272116 -0.0054219943 0.006880565 0.008807354 -0.007969698
0.0015655663 0.0123069575 0.0031933293 -0.002999447 -0.0023877402 -0.008710705 0.006864138 0.009815748
-0.00053918635 0.0033242553 0.007188469 0.0041689333 -0.00042722965 0.0025005545 0.013672014 -0.00344028
-0.009472215 -0.0039491723 0.0037330787 -0.0036843258 -0.0039059084 0.00832363 0.008357311 -0.0037331197
-0.008575171 -0.017376501 -0.00027019018 0.0074918093 -0.014542947 -0.0027720917 -0.0039290464 -0.0015393485
00000000: 0431 263c 3f5c 68bb fa11 5abc 0fbb 8dbc
00000010: a8ab a1bc 8954 483c fb1e 3abc 7112 303b
00000020: d712 1ebc f76f 513c ff48 a5bb 71ab 3a3b
00000030: ab6f 14bc 6ba6 8a3c 4b08 2abb a25c 7dba
00000040: 33a5 5bbc 9a8e b0bb e97b bc3b 7a1a 9bbc
00000050: 801b b73b cd0b ee3b f978 99bb f4de 13bb
00000060: 6b70 86bc 57c5 32bb d83a f8bb c929 c0bb
00000070: aa0f ed3b 77ec a23b 45fb cdbb 9b90 cebb
00000080: c7f1 b1bc 2c76 12bc 3b10 503a fe84 033b
00000090: dd02 cc3b 3d3e 20bc ca63 70bc b018 e03b
000000a0: 6f66 b1bb dd0e 19ba 93d3 e23a 60b5 8bba
000000b0: 874f e0ba 9325 65bc b28b fb3b f06a 3a3a
000000c0: 23bd 293b bac4 bbbb 3548 513b de2b b1bb
000000d0: a7ff 70bc 30de 31bb 4062 e5bb 8bbf 5b3c
000000e0: 2215 b83c 9f23 a1bb 386d e93b 132f aebb
000000f0: 7861 5f3c 00f3 683c a385 993a 577e 0ebb
00000100: 78aa 0a3c 4372 dcbb 4f3a 4b3c 74b7 bf3b
00000110: e715 193b 9d4a efbb fc83 1c3b 495d 34bc
00000120: afa9 6dbb 03a9 40bc a3c3 a83b ef65 943c
00000130: bf45 aa3b 77ad 353c e832 6d3b 50ff a1ba
00000140: d810 8b3c 28a1 cfbc c46e 22bc 8dcc 843b
00000150: 4a9e 323b bde8 e43a 3ac4 693a 7325 f0b9
00000160: 8476 143c 18b3 5f3c 42a2 703b 6a6c 503c
00000170: fcaa b1bb 5d76 e13b b84c 103c 5693 02bc
00000180: b033 cd3a 1fa3 493c 2d47 513b 5f92 44bb
00000190: a27b 1cbb 58b7 0ebc 90ec e03b 3bd2 203c
000001a0: 2f58 0dba c0db 593b 408d eb3b 8c9b 883b
000001b0: cbfd dfb9 58e0 233b 9500 603c 5276 61bb
000001c0: 5931 1bbc 0f68 81bb aba6 743b bb74 71bb
000001d0: 45fa 7fbb d65f 083c 1aed 083c 5ba7 74bb
000001e0: e07e 0cbc 2a59 8ebc 50a8 8db9 da7d f53b
000001f0: 8a45 6ebc fbab 35bb 3bbf 80bb f7c3 c9ba

network_body._body_endoder.seq_layers.0.bias f4 [128]
-0.0029257555 -0.0074865823 0.0004904421 -0.00076871493 -0.004206815 0.0025232409 -0.0021192713 -0.005997204
0.004859109 0.0011979012 -0.0069857175 -0.0013913268 -0.0052051493 -0.0025175952 -0.0021181647 -0.0009883596
0.0007076089 -0.0019523914 -0.005220935 -6.868917e-05 -0.006620566 -0.007255055 0.0061035934 0.0010016968
-0.0007233983 -0.003919693 -0.0007676664 -0.0041940347 -8.4456486e-05 0.0033764807 -0.004318995 0.0031518072
0.0042802426 0.0008762509 -0.003878367 0.004660323 0.002696412 0.0006489222 0.008366562 -0.0050127343
-0.004848054 0.0051836725 -0.0014220116 -0.0026766462 0.000324409 0.0027357033 0.00017215018 0.0019558927
0.0012521512 -0.0012654854 -0.00024292005 -0.009059434 0.0039403746 0.0034512216 0.0034018143 -0.0016575182
-0.003272301 -0.007302031 -0.0046117953 -0.0012640731 -0.005209914 -0.0037782302 -0.0021242483 -0.0063349293
-0.0009311187 -0.0056223334 0.001443473 0.004075549 -0.0016524984 0.0050342306 -0.0012213999 -0.0020106335
0.0065402137 -0.008688076 -0.0018057106 -0.0024452133 0.004235732 0.0017802902 0.0067773205 0.0015558727
0.003451338 -0.00074694114 -0.001659653 0.00019065218 -0.0019011066 -0.0040394734 -0.00026487952 -8.276999e-05
0.0003016982 -0.008339261 -0.0062342556 0.0009020504 -0.0020902546 0.0060732 -0.001955937 -0.0021439192
-0.0005323771 0.0024773492 0.0063667106 -0.0016441998 -0.0039336625 -6.692879e-05 -0.001732046 0.0054164976
-0.0082490705 0.002942193 -0.0030458402 0.001538448 -0.0011220508 -0.00085490046 -0.0055390378 -0.00059792754
0.0025284064 -0.0023296715 0.005639333 0.0053771245 -0.003791908 -0.0005445508 -0.003937418 -0.003984321
-0.0025621396 -0.003198192 -0.0013979126 -0.0038491078 0.008029865 -0.0002955129 0.0017905098 -0.0055235643
00000000: 08be 3fbb 0152 f5bb 0391 003a 9683 49ba
00000010: 52d9 89bb f55c 253b 79e3 0abb 3284 c4bb
00000020: 2939 9f3b e502 9d3a 72e8 e4bb 2e5d b6ba
00000030: f58f aabb 3dfe 24bb e8d0 0abb d88b 81ba
00000040: d47e 393a 62e7 ffba 6114 abbb 380d 90b8
00000050: 55f1 d8bb d0bb edbb a700 c83b 5e4b 833a
00000060: 70a2 3dba c570 80bb 383d 49ba 1d6e 89bb
00000070: 3b1e b1b8 f247 5d3b 5b86 8dbb 8d8e 4e3b
00000080: 4741 8c3b 34b4 653a 332c 7ebb 9fb5 983b
00000090: 49b6 303b 6f1c 2a3a e813 093c dd41 a4bb
000000a0: 6ddc 9ebb ccdb a93b cb62 baba ac6a 2fbb
000000b0: 7015 aa39 7c49 333b 3683 3439 6f2e 003b
000000c0: 391f a43a a5de a5ba 5bb8 7eb9 056e 14bc
000000d0: 421e 813b e42d 623b f9f0 5e3b 1541 d9ba
000000e0: 1a74 56bb e045 efbb 8b1e 97bb 41af a5ba
000000f0: edb7 aabb 2f9c 77bb f936 0bbb 3d95 cfbb
00000100: 5116 74ba 8d3b b8bb eb32 bd3a 2f8c 853b
00000110: a598 d8ba 30f6 a43b 6117 a0ba d5c4 03bb
00000120: 4a4f d63b 6f58 0ebc 98ad ecba df3f 20bb
00000130: e5cb 8a3b a058 e93a 4914 de3b 6dee cb3a
00000140: d82f 623b 5fce 43ba b788 d9ba cee9 4739
00000150: 8d2e f9ba 8f5d 84bb 87df 8ab9 cd94 adb8
00000160: 3f2d 9e39 65a1 08bc ba48 ccbb 9477 6c3a
00000170: a7fc 08bb b201 c73b 2d2f 00bb ff80 0cbb
00000180: 398f 0bba 065b 223b d79f d03b 3182 d7ba
00000190: f4e5 80bb 1f5c 8cb8 d205 e3ba e07c b13b
000001a0: 1c27 07bc cfd1 403b b89c 47bb c0a5 c93a
000001b0: c711 93ba 661b 60ba d180 b5bb 3dbe 1cba
000001c0: 9fb3 253b 67ad 18bb 27ca b83b 9732 b03b
000001d0: a981 78bb 30c0 0eba 7505 81bb e88e 82bb
000001e0: 92e9 27bb c298 51bb 2a3a b7ba 5041 7cbb
000001f0: b28f 033c 12ef 9ab9 8aaf ea3a 04ff b4bb

network_body._body_endoder.seq_layers.0.weight f4 [128, 8]
0.072751455 0.61175716 -0.2419954 0.49733433 -0.059035078 0.16703501 0.39169484 0.38149235
-0.50273573 0.36704126 -0.539332 -0.53546864 -0.06970358 0.3351948 -0.25927413 0.22966097
0.1424735 -0.59293175 -0.34772766 0.08449362 -0.62484676 -0.63081366 -0.17520149 -0.085650004
-0.16934267 0.5520813 -0.23064165 0.08483386 0.19350922 -0.22099315 0.08142187 -0.39275062
-0.48270223 0.02130199 0.013330126 0.016774472 0.043580618 0.16516167 -0.33387315 -0.5420303
0.25037044 0.40359557 -0.32963914 -0.47642595 0.107491076 -0.37961808 0.043116707 0.34691966
-0.08883877 0.41265258 -0.0461283 0.60880065 -0.056479644 -0.04487733 0.22898374 -0.219308
0.18799676 0.2007076 0.36553535 -0.082941614 0.18710774 0.039023306 -0.32585767 0.087461166
-1.182301 0.19313249 -0.13157894 0.09695174 -0.50979704 -0.34209386 -0.033337038 -0.07423276
0.47030646 0.28762528 -0.2363529 0.20126383 -0.16875814 0.08145164 -0.27510378 0.69259727
0.47053155 -0.18525341 -0.11180289 -0.41972736 0.6894568 0.26179978 0.40261155 0.24819623
0.013027722 -0.3210492 -0.6599741 -0.17330094 -0.012664113 -0.25201848 0.39151338 -0.1723752
0.6045387 0.5857074 0.35188523 -0.2326789 0.32920837 -0.2657175 0.7767827 0.39306718
-0.15050775 0.31115097 -0.41166744 -0.0051607178 -0.34113413 0.18181446 0.05977532 -0.051115345
-0.52022845 -0.38802162 -0.5596944 0.6756877 0.19002202 -0.113931485 -0.025048753 -0.35455942
0.115493804 0.22154552 0.08007832 -0.14113751 -0.28779584 -0.07349909 -0.08167216 -0.051555246
0.5714576 0.38597816 0.0010967586 0.33317792 0.24759099 -0.67998415 -0.2644362 -0.086101465
0.23119958 -0.44265884 -0.88217324 0.02674581 -0.28401908 -0.91665304 -0.57267714 0.80467266
0.4484463 -0.15035687 0.3830064 -0.16629471 0.08350136 -0.64418125 0.7070867 -0.27460867
0.0068852953 0.20723242 -0.4616863 -0.023040576 -0.40844426 -0.16366304 -0.52241313 0.5771448
0.14207008 -0.83971095 -0.17855796 -0.5192174 0.19383942 0.41546163 -0.2846622 0.075491495
0.33929324 0.0130133955 0.16083382 -0.38894674 0.21117263 0.18047388 -0.035198145 -0.24314241
0.27941287 0.42387974 -0.26633653 -0.08798293 0.33279553 0.062323935 -0.38629916 -0.17087562
-0.2863349 -0.34080032 0.20715308 0.051199216 0.6107939 -0.33511364 0.28377026 -0.5451895
0.05586385 0.46741235 0.10615242 0.058276016 -0.3746056 0.52215475 0.017499313 -0.5098248
0.519338 0.1748571 -0.19722985 -0.9490682 -0.043290872 0.118109815 0.031842135 -0.7883187
-0.25760943 -0.5340097 -0.37182114 0.06005436 -0.037190672 -0.2535441 -0.03734473 0.29603365
0.104356736 -0.48295042 -0.18205246 -0.27839705 -0.03137875 -0.19771273 0.24273905 0.050394855
-0.68031806 -0.29272923 0.3641092 0.2178527 -0.2808869 0.39965567 0.7787164 0.034449354
-0.18057215 -0.33102545 0.1579737 -0.46761152 -0.012308595 -0.519394 -0.12863417 0.19874378
0.40340084 0.4023556 -0.18915106 0.3088743 0.335351 0.19246057 0.1808835 0.23806384
0.14659552 -0.30357537 -0.3094828 -0.07671567 -0.4739919 -0.1287094 0.6305123 -0.5275256
00000000: b7fe 943d 1e9c 1c3f a4cd 77be 9ba2 fe3e
00000010: c4ce 71bd 3a0b 2b3e 3a8c c83e f752 c33e
00000020: 4ab3 00bf d5ec bb3e a911 0abf 7914 09bf
00000030: c0c0 8ebd a79e ab3e 94bf 84be 3f2c 6b3e
00000040: 93e4 113e 60ca 17bf 5c09 b2be fe0a ad3d
00000050: f5f5 1fbf 017d 21bf 0568 33be 4569 afbd
00000060: 2a68 2dbe 3355 0d3f 532d 6cbe 60bd ad3d
00000070: 4827 463e 074c 62be 82c0 a63d 9c16 c9be
00000080: bf24 f7be 8381 ae3c 9a66 5a3c 9e6a 893c
00000090: 9781 323d 2420 293e 6cf1 aabe 7fc2 0abf
000000a0: 8e30 803e 14a4 ce3e 76c6 a8be 1aee f3be
000000b0: 4824 dc3d 4d5d c2be 259b 303d 749f b13e
000000c0: 1af1 b5bd 3347 d33e 07f1 3cbd 5cda 1b3f
000000d0: 3357 67bd 4bd1 37bd b77a 6a3e 4792 60be
000000e0: 3982 403e 4b86 4d3e 7327 bb3e 4bdd a9bd
000000f0: 2c99 3f3e e7d6 1f3d d1d6 a6be d71e b33d
00000100: a455 97bf 86c4 453e a1bc 06be a28e c63d
00000110: 0f82 02bf ed26 afbe 6b8c 08bd 5807 98bd
00000120: 02cc f03e 9f43 933e 7f06 72be 1b18 4e3e
00000130: efce 2cbe 1ed0 a63d 67da 8cbe 0e4e 313f
00000140: 83e9 f03e 12b3 3dbe eaf8 e4bd 81e6 d6be
00000150: 3e80 303f 9f0a 863e 1a23 ce3e 2727 7e3e
00000160: 3a72 553c 9060 a4be 10f4 28bf cd75 31be
00000170: 247d 4fbc 9108 81be 7174 c83e 2083 30be
00000180: 0cc3 1a3f ecf0 153f 4d2a b43e 6143 6ebe
00000190: 008e a83e 200c 88be 3bdb 463f 1a40 c93e
000001a0: b41e 1abe 2e4f 9f3e 13c6 d2be 3d1b a9bb
000001b0: 22a9 aebe 922d 3a3e f7d6 743d 535e 51bd
000001c0: b12d 05bf c5aa c6be 2248 0fbf def9 2c3f
000001d0: 2295 423e e954 e9bd 0b33 cdbc d088 b5be
000001e0: 0488 ec3d d4dc 623e 1a00 a43d 5a86 10be
000001f0: fa59 93be b186 96bd bc43 a7bd 982b 53bd
00000200: 0c4b 123f ee9e c53e 1dc1 8f3a 4c96 aa3e
00000210: 7e88 7d3e 7113 2ebf 2e64 87be f755 b0bd
00000220: 95bf 6c3e 2ea4 e2be 1bd6 61bf 071a db3c
00000230: f36a 91be c6a9 6abf f89a 12bf 07ff 4d3f
00000240: c19a e53e 27f7 19be 6a19 c43e 2949 2abe
00000250: c302 ab3d 10e9 24bf a203 353f 8299 8cbe
00000260: 0b9e e13b bc34 543e 2662 ecbe 97bf bcbc
00000270: 9b1f d1be 4997 27be debc 05bf c3bf 133f
00000280: d27a 113e 4cf7 56bf e6d7 36be 6eeb 04bf
00000290: d77d 463e 63b7 d43e 3ebf 91be 499b 9a3d
000002a0: d8b7 ad3e 2336 553c 9fb1 243e 0724 c7be
000002b0: a33d 583e 25ce 383e ee2b 10bd 53fa 78be
000002c0: 340f 8f3e c406 d93e 435d 88be 6530 b4bd
000002d0: 2d64 aa3e 6247 7f3d 01c9 c5be 05fa 2ebe
000002e0: 7d9a 92be 617d aebe f01f 543e 45b6 513d
000002f0: fd5c 1c3f 0494 abbe 564a 913e 8a91 0bbf
00000300: 7ed1 643d ac50 ef3e 7166 d93d d5b2 6e3d
00000310: 4ecc bfbe efab 053f b85a 8f3c e183 02bf
00000320: 56f3 043f bd0d 333e 9ff6 49be 22f6 72bf
00000330: c551 31bd 8fe3 f13d e66c 023d 41cf 49bf
00000340: 62e5 83be dcb4 08bf 575f bebe 90fb 753d
00000350: 3f55 18bd 88d0 81be caf6 18bd b991 973e
00000360: fcb8 d53d 4745 f7be f66b 3abe 0f8a 8ebe
00000370: 0187 00bd 3575 4abe 9690 783e d66a 4e3d
00000380: 5329 2ebf 9be0 95be 856c ba3e c714 5f3e
00000390: 68d0 8fbe ab9f cc3e f559 473f c41a 0d3d
000003a0: e8e7 38be 2b7c a9be dcc3 213e c76a efbe
000003b0: fda9 49bc 01f7 04bf adb8 03be 7d83 4b3e
000003c0: 8e8a ce3e 8e01 ce3e d1b0 41be c624 9e3e
000003d0: 20b3 ab3e 6214 453e 8639 393e 02c7 733e
000003e0: 231d 163e 3b6e 9bbe 8874 9ebe 1b1d 9dbd
000003f0: 11af f2be 66cc 03be 4169 213f eb0b 07bf

network_body._body_endoder.seq_layers.2.bias f4 [128]
-0.0016503469 -0.0019010238 -0.0062949816 -0.006593244 -0.001180158 -0.0023659423 -0.00071724365 -0.0020511427
0.002448993 0.0010564388 -0.00020175267 -0.00088585634 0.00032459604 0.0019776085 -0.0011701407 0.0023580117
-0.0011217837 0.0015429474 -0.0006543634 -0.006260828 -0.0015158935 -0.0013025019 -0.002412308 -0.0015463866
-0.0081577115 -0.002444994 -0.0008360268 -0.0025933825 -0.00054194493 0.007016276 0.00052533665 0.00081778085
-0.0026724795 -0.0022479445 -0.004039566 0.00022685154 -0.0025768403 0.00021120788 -0.0030885239 0.0014718584
1.9398141e-05 -0.0017294866 -0.0014065199 -0.0014614834 -0.0010759667 -0.00095932744 -0.0018070579 0.00056969956
-0.0007048788 0.0011607761 0.005444432 0.0024614672 -0.00241907 -0.0029190774 0.0010200382 -0.0026096841
-0.006567566 -0.0076528513 0.008276585 -0.003938652 -0.002008566 -0.0031048218 -0.000457792 -0.0005220454
0.0031311263 -0.0036854197 -0.0034497953 -0.0016815949 -0.0017755096 0.0005183788 -0.0031385792 0.0003942512
-0.0022411647 0.0046806615 0.0025475991 -0.0067348024 0.004197023 -0.0029989157 -0.0029665686 -0.0073917364
-0.0037852514 -0.0026083284 -0.00023651162 0.0015860001 -0.0013368777 0.0034832442 -0.007440399 -0.00068721705
-0.004173337 -0.0013936922 -0.0042311056 0.0018487015 -0.0014996106 0.0074783084 0.0002118196 0.0018977749
-0.0025698952 -0.003745824 -0.0005654161 0.0061810194 -0.0013519148 0.0021716785 -0.0015340373 -0.0024366397
-0.0008684432 -0.001901797 -0.0029940854 0.0007431287 -0.00018244369 -0.0016083135 -0.0006582906 -0.0020742635
-0.0010754053 0.0069725113 -0.00054912653 -0.0010002655 -0.002336056 -0.0011158505 -0.0019900287 -0.0024845307
0.006116668 -0.004871884 -0.00017588072 -0.0025481014 0.001680597 -0.0017947375 0.0036325927 -0.0005554293
00000000: 7450 d8ba c62b f9ba 2246 cebb 240c d8bb
00000010: 88af 9aba ed0d 1bbb 6805 3cba 776c 06bb
00000020: 497f 203b 3478 8a3a 928d 53b9 d038 68ba
00000030: 8b2e aa39 c49a 013b 685f 99ba df88 1a3b
00000040: d108 93ba b93c ca3a 9689 2bba a227 cdbb
00000050: f2b0 c6ba b6b8 aaba d017 1ebb 20b0 caba
00000060: eca7 05bc 313c 20bb cf28 5bba bdf5 29bb
00000070: 4f11 0eba cae8 e53b bfb6 093a 5860 563a
00000080: c424 2fbb 4052 13bb 565e 84bb ffde 6d39
00000090: 35e0 28bb af77 5d39 d568 4abb 5feb c03a
000000a0: 31b9 a237 f1af e2ba fa5a b8ba 3f8f bfba
000000b0: 7407 8dba 607b 7bba cdda ecba e457 153a
000000c0: 9ec7 38ba 2f25 983a 3567 b23b 9150 213b
000000d0: 4389 1ebb fe4d 3fbb cdb2 853a 3c07 2bbb
000000e0: bd34 d7bb c5c4 fabb 839a 073c cf0f 81bb
000000f0: 25a2 03bb 447a 4bbb cd03 f0b9 e0d9 08ba
00000100: 9533 4d3b 1587 71bb f615 62bb f668 dcba
00000110: 37b8 e8ba d0e3 073a 9fb0 4dbb 80b3 ce39
00000120: 81e0 12bb 3c60 993b 9ff5 263b 9eaf dcbb
00000130: 2e87 893b 7589 44bb c36a 42bb 6136 f2bb
00000140: fb11 78bb 7df0 2abb 1b00 78b9 55e1 cf3a
00000150: 2c3a afba 2447 643b 97ce f3bb 5b26 34ba
00000160: 7dc0 88bb 8dac b6ba 16a5 8abb 2150 f23a
00000170: 958e c4ba 990c f53b e41b 5e39 c2be f83a
00000180: b06b 28bb 807c 75bb 6f38 14ba 268a ca3b
00000190: bc32 b1ba b852 0e3b c011 c9ba 08b0 1fbb
000001a0: 3da8 63ba b845 f9ba 6b38 44bb 86ce 423a
000001b0: 5b4e 3fb9 0cce d2ba 2291 2cba 5ef0 07bb
000001c0: 9df4 8cba aa79 e43b 42f3 0fba 571b 83ba
000001d0: 8418 19bb bb41 92ba 246b 02bb 82d3 22bb
000001e0: 556e c83b 53a4 9fbb 9f6c 38b9 0cfe 26bb
000001f0: 7a47 dc3a 663d ebba cb10 6e3b 3b9a 11ba

network_body._body_endoder.seq_layers.2.weight f4 [128, 128]
-0.06948276 0.08193639 -0.051812436 0.13199048 -0.07294207 0.048823297 0.12998073 0.081741005
0.036776103 0.06114123 0.03983035 0.15254539 0.16800706 -0.061293177 0.14831376 0.06865792
0.061678458 -0.0044324338 -0.030170685 -0.14482702 -0.009037556 -0.124544345 0.0138056055 0.21886745
0.044322226 0.020548806 0.03133023 -0.015917035 0.1087858 0.1328327 0.041982245 -0.020148829
-0.19705172 -0.0112332245 0.07629155 0.013212819 -0.011095382 0.054096833 0.04135863 0.056875408
-0.060988106 -0.03627432 -0.019373238 0.007509265 -0.005495091 -0.074563295 0.0037071847 0.038923364
-0.1791173 0.105053276 0.0025921133 0.0012912077 -0.059444334 0.08518456 -0.07490485 -0.024439206
-0.028524058 4.3210017e-05 0.13894394 0.025269778 -0.014438483 -0.014794436 0.0399957 0.050027717
-0.0991569 -0.034921657 0.0693803 -0.06149161 0.06519108 -0.082670555 0.048905127 -0.00089931407
0.013873022 -0.0038640837 -0.011579014 0.003400043 0.011896948 -0.017114902 0.12238951 -0.14449087
-0.052966602 0.01795222 -0.060959186 0.04312084 -0.08174208 0.09415641 0.100184105 -0.005591918
-0.0062154992 0.013517693 0.068734124 0.035717037 -0.0315297 0.045064874 0.016721543 -0.016682697
0.028123377 0.010309379 0.027762156 0.0030134139 0.031786796 0.16836041 0.13911165 0.017761106
-0.041782185 0.1324863 -0.1553348 -0.009032059 0.038178135 0.008215243 -0.03627922 -0.003287959
0.03455811 0.06954676 -0.08258874 0.06346668 -0.15442324 -0.08353578 -0.06580552 0.09964353
-0.0817427 -0.025838224 0.02650618 0.18499984 -0.05672964 -0.13485476 -0.15790376 0.17313825
0.032082506 0.022294544 0.041677613 0.014413043 -0.0109490985 -0.057962738 -0.113292895 -0.24493057
-0.14674933 -0.060572553 -0.002575804 -0.12228133 0.2077216 0.07849244 -0.0043150173 0.022459706
0.117680386 0.06866192 0.015812477 -0.028394429 -0.16509983 0.07888046 -0.018446075 -0.010497689
-0.08298526 0.013882182 -0.08756753 -0.029436868 -0.03617726 0.22195195 0.021115327 0.14356686
-0.08493519 -0.03458827 -0.050304938 -0.060110394 0.00531643 0.0034168724 -0.07631465 0.017638436
0.0058789994 -0.12642755 -0.19749136 -0.06816301 0.021019267 0.030542944 0.06121389 0.08285687
-0.029808506 0.029759387 0.07027028 0.11423858 -0.07147215 0.093515724 -0.055145346 -0.03558438
0.030144796 0.011179504 -0.03648967 -0.1952558 0.037966575 -0.004745829 0.04673641 0.05670985
-0.0626639 0.12012784 0.041370727 0.12635683 -0.14856605 -0.004033729 0.004266567 -0.067277186
0.048659693 -0.14604545 0.10956605 -0.091127574 -0.14180526 0.04750989 0.22503278 -0.006582569
0.036805753 0.05711676 -0.019480184 0.009986521 0.035449788 0.028679695 -0.15375197 -0.18927445
-0.11037602 -0.05979767 0.06678076 0.030171372 -0.079182155 0.0006178774 0.18849678 -0.11443696
0.052861463 -0.1129001 -0.16993654 0.03467517 -0.13849622 -0.020083096 0.13663207 0.07958724
-0.07869458 0.04183288 0.060730927 -0.05288089 0.20260294 -0.01377309 0.0773073 -0.014292456
0.071322694 0.057100747 0.0997618 0.08635772 -0.1056376 0.16402932 0.08386241 0.045772247
-0.08324937 0.12463078 0.0849912 -0.037950113 0.025761148 0.2602366 -0.066001005 -0.02212138
00000000: fa4c 8ebd 44ce a73d 4739 54bd 8328 073e
00000010: a762 95bd f0fa 473d ab19 053e d467 a73d
00000020: 8aa2 163d 3a6f 7a3d 2625 233d dc34 1c3e
00000030: 0b0a 2c3e 8e0e 7bbd 90df 173e 869c 8c3d
00000040: 8da2 7c3d f33d 91bb 8328 f7bc 894d 14be
00000050: 4212 14bc 1b11 ffbd e830 623c ca1e 603e
00000060: 398b 353d f855 a83c 2154 003d 7164 82bc
00000070: 17cb de3d 4c05 083e 93f5 2b3d 280f a5bc
00000080: edc7 49be 8f0b 38bc bf3e 9c3d 947a 583c
00000090: 68c9 35bc a494 5d3d ab67 293d 30f6 683d
000000a0: aace 79bd 6294 14bd a0b4 9ebc 4810 f63b
000000b0: 2a10 b4bb a4b4 98bd 3df4 723b 1b6e 1f3d
000000c0: 876a 37be 2c26 d73d 72e0 293b be3d a93a
000000d0: e77b 73bd 3e75 ae3d b767 99bd bb34 c8bc
000000e0: 49ab e9bc 673c 3538 5247 0e3e 9102 cf3c
000000f0: 638f 6cbc 5d64 72bc 88d2 233d dde9 4c3d
00000100: c612 cbbd 030a 0fbd 4217 8e3d a0de 7bbd
00000110: e782 853d 2e4f a9bd be50 483d f2bf 6bba
00000120: ac4b 633c 913c 7dbb e8b5 3dbc 41d3 5e3b
00000130: 6beb 423c 8d34 8cbc 5aa7 fa3d 6af5 13be
00000140: 82f3 58bd 8910 933c 57b0 79bd 7a9f 303d
00000150: 6468 a7bd 13d5 c03d 532d cd3d 683c b7bb
00000160: 63ab cbbb 5079 5d3c 7ac4 8c3d 074c 123d
00000170: 4925 01bd f295 383d 9efb 883c 27aa 88bc
00000180: ff62 e63c abe8 283c 766d e33c b27c 453b
00000190: df32 023d ac66 2c3e 4973 0e3e bd7f 913c
000001a0: cc23 2bbd 7daa 073e 1610 1fbe 34fb 13bc
000001b0: ad60 1c3d 3a99 063c 8599 14bd cc7a 57bb
000001c0: ce8c 0d3d 886e 8e3d 4924 a9bd d2fa 813d
000001d0: 2021 1ebe cf14 abbd 0bc5 86bd e811 cc3d
000001e0: b768 a7bd afaa d3bc 7d23 d93c 9970 3d3e
000001f0: 575d 68bd 5e17 0abe 86b1 21be 274b 313e
00000200: f268 033d 0ca3 b63c 25b6 2a3d af24 6c3c
00000210: d963 33bc 566a 6dbd 1b06 e8bd 14cf 7abe
00000220: 7545 16be ed1a 78bd d2ce 28bb a26e fabd
00000230: f9b4 543e a5c0 a03d fd64 8dbb 6bfd b73c
00000240: 6a02 f13d 9f9e 8c3d 2b89 813c 6f9b e8bc
00000250: ee0f 29be 148c a13d 391c 97bc 80fe 2bbc
00000260: 2df4 a9bd 1772 633c 9b56 b3bd 9625 f1bc
00000270: 9b2e 14bd 5f47 633e 0dfa ac3c 3103 133e
00000280: 80f2 adbd 6eac 0dbd 8d0c 4ebd 5136 76bd
00000290: 7235 ae3b 9bed 5f3b db4a 9cbd 7b7e 903c
000002a0: 9fa4 c03b 3976 01be 2d3b 4abe 0c99 8bbd
000002b0: 9930 ac3c 3235 fa3c 6abb 7a3d ddb0 a93d
000002c0: f830 f4bc f5c9 f33c dde9 8f3d ebf5 e93d
000002d0: fe5f 92bd 2c85 bf3d 16e0 61bd edc0 11bd
000002e0: 38f2 f63c 3d2a 373c 3176 15bd 23f1 47be
000002f0: d782 1b3d e682 9bbb ae6e 3f3d 9648 683d
00000300: ee55 80bd 9605 f63d 5a74 293d af63 013e
00000310: b321 18be 5f2d 84bb 8fce 8b3b 9fc8 89bd
00000320: 634f 473d f08c 15be 2a64 e03d 18a1 babd
00000330: 6635 11be bb99 423d fe6e 663e 97b2 d7bb
00000340: a1c1 163d 44f3 693d e894 9fbc 819e 233c
00000350: cc33 113d aef1 ea3c 2871 1dbe 29d1 41be
00000360: d30c e2bd 67ee 74bd 5ac4 883d f429 f73c
00000370: 412a a2bd 0df9 213a 4d05 413e ed5d eabd
00000380: 4385 583d 2b38 e7bd d803 2ebe 8d07 0e3d
00000390: f4d1 0dbe 4e85 a4bc 47e9 0b3e a3fe a23d
000003a0: a02a a1bd f458 2b3d fec0 783d a299 58bd
000003b0: 2577 4f3e 87a8 61bc 4a53 9e3d e82a 6abc
000003c0: a211 923d 79e2 693d ea4f cc3d 51dc b03d
000003d0: 8758 d8bd 4df7 273e 0ec0 ab3d ae7b 3b3d
000003e0: a57e aabd 6c3e ff3d de0f ae3d 9471 1bbd
000003f0: 0b09 d33c bb3d 853e 892b 87bd e537 b5bc

network_body._body_endoder.seq_layers.4.bias f4 [128]
0.0028955464 -0.0005167423 -0.007010879 -0.005188288 -0.003254349 -0.00046743907 -0.0044813957 -0.0005243196
0.00069026975 -0.00062984804 -0.0024445583 -0.0005907756 -0.00024144114 -0.006338153 0.00081490277 0.005121169
-0.007342874 0.00448493 0.004788645 -0.0010453202 -0.0024144952 -0.0011489816 -0.0016086494 0.00053998333
-0.0017938367 -0.002213784 -0.0012402255 -0.00058285386 -0.0012907771 -0.007219483 -0.00017526436 -0.0060793348
-0.0016089974 0.007123802 -0.0015443773 -0.0013504183 0.002761921 -0.0005563185 0.002767481 -0.0019056496
-0.003487853 -0.00058819377 0.008232567 -0.0033248146 7.729584e-05 -0.0019354596 -0.0069148443 -0.0013505454
-0.00053919206 -0.0023040017 -0.00062782824 -0.00037806112 -0.0019475407 -0.0007113101 -0.0012618143 0.006397874
0.00079114875 -0.0020952434 -0.0018119541 -0.0013181007 0.0015851145 -0.0025254737 0.0048610894 0.0002587278
0.0005086035 -0.0016594857 -0.0010585095 -0.002871133 -0.006541784 -0.0030044026 0.00024851228 -0.00070355955
-0.00071353815 -0.002469612 0.0004911864 -0.0040695434 3.4507826e-05 -0.0008796608 -0.0006471989 -0.0064056776
-0.0009936647 0.0032629776 0.000613413 0.000855729 -0.0013023674 5.6908942e-05 -0.001051576 0.0006940275
-0.0001687267 -0.00090140745 -0.0064804596 -0.001181049 -0.00069837394 -0.00069652544 0.0002365603 -0.0015940851
-0.0023337337 -0.0015009909 -4.0805295e-05 -0.0076356544 0.0070137316 -0.0057693594 -0.0025041 0.0032858816
0.0038512154 -0.0023060667 0.0074888705 -0.0030143554 -0.0047890786 -0.0029059458 -0.0012861217 -0.0013727389
-0.001715414 0.005521275 -0.0069217067 -0.00621618 0.00024314242 -3.0627838e-05 -0.0048800204 0.002865945
-0.0011827215 0.0015345092 -0.0006969959 -0.0041769403 -0.00095084944 -0.0030295423 -0.001418593 0.0012683664
00000000: 35c3 3d3b fd75 07ba 84bb e5bb 8402 aabb
00000010: eb46 55bb 9c12 f5b9 acd8 92bb 7e72 09ba
00000020: 38f3 343a 631c 25ba e234 20bb 48de 1aba
00000030: 5d2b 7db9 48b0 cfbb 339f 553a 7bcf a73b
00000040: 7e9c f0bb 52f6 923b 11ea 9c3b 2003 89ba
00000050: 823c 1ebb 6d99 96ba 51d9 d2ba ab8d 0d3a
00000060: 2c1f ebba 2215 11bb 108f a2ba a9ca 18ba
00000070: 4b2f a9ba 6a91 ecbb 2bc7 37b9 2835 c7bb
00000080: fee4 d2ba c86e e93b b46c caba 8500 b1ba
00000090: 5801 353b e7d5 11ba a05e 353b fdc6 f9ba
000000a0: 7794 64bb 0431 1aba e4e1 063c 22e5 59bb
000000b0: e319 a238 3faf fdba eb95 e2bb c904 b1ba
000000c0: 9158 0dba bcfe 16bb d794 24ba 8136 c6b9
000000d0: 9f44 ffba 3677 3aba 7663 a5ba 42a5 d13b
000000e0: 1865 4f3a 5a50 09bb 177f edba 1fc4 acba
000000f0: 9ec3 cf3a 6b82 25bb c649 9f3b dca5 8739
00000100: ce53 053a 1a83 d9ba afbd 8aba 9e29 3cbb
00000110: 765c d6bb 83e5 44bb c14a 8239 156f 38ba
00000120: bc0c 3bba 37d9 21bb f6c2 003a ce59 85bb
00000130: 7fbc 1038 0999 66ba c8a8 29ba b8e6 d1bb
00000140: db3d 82ba aed7 553b 73cd 203a 0053 603a
00000150: 33b4 aaba 83b1 6e38 09d5 89ba 66ef 353a
00000160: 3bec 30b9 6e4c 6cba 095a d4bb 6ecd 9aba
00000170: 1513 37ba 0897 36ba 2c0d 7839 9ff0 d0ba
00000180: 8ef1 18bb e6bc c4ba 5a26 2bb8 8334 fabb
00000190: 72d3 e53b e50c bdbb d41b 24bb f257 573b
000001a0: ac64 7c3b 6121 17bb 3365 f53b 7e8c 45bb
000001b0: b4ed 9cbb ae71 3ebb 1593 a8ba 79ed b3ba
000001c0: bed7 e0ba d0eb b43b 7ccf e2bb 19b1 cbbb
000001d0: 0cf4 7e39 6476 00b8 94e8 9fbb 94d2 3b3b
000001e0: 8c05 9bba 9621 c93a 9ab6 36ba b7de 88bb
000001f0: 6d42 79ba 498b 46bb 15f0 b9ba 503f a63a

network_body._body_endoder.seq_layers.4.weight f4 [128, 128]
0.10205963 -0.11933012 -0.08447611 0.09060233 -0.046115037 0.12515599 -0.08080098 -0.045691784
0.07039671 0.0070584407 -0.06737524 0.019494345 0.07128936 0.083558686 0.041592117 -0.120105274
-0.061401032 -0.15778841 -0.069252715 0.0035894325 0.08133248 -0.025921071 -0.034011483 0.08946348
0.16347337 0.0343285 -0.033267017 -0.012539755 -0.016523995 0.013834985 0.08403069 -0.18857206
-0.09479673 -0.009442954 -0.022340428 0.16759835 0.06187155 -0.09439639 -0.0019145733 0.06069154
0.13167979 -0.015543582 -0.1355857 -0.005334809 0.041210383 0.06697459 0.06496989 -0.17547281
0.023985583 -0.06821252 0.07577397 -0.13985392 -0.05234269 0.10480634 -0.09845581 -0.061833266
0.103426605 0.037566118 0.104771666 0.13743675 -0.11761506 0.03483742 -0.009431864 -0.10071257
-0.047986034 0.066778 -0.029546056 -0.0726634 0.16896291 -0.034464158 -0.018523734 0.10510656
-0.07625308 0.057252828 0.19438836 -0.13480298 0.12626809 -0.041405875 0.04324801 0.022728587
-0.17284442 -0.04650009 0.012614021 -0.02172904 -0.041951947 -0.048921525 -0.16333318 0.124895684
0.08216973 0.025176452 -0.023394544 -0.1695535 0.07100464 -0.06360603 -0.1370916 -0.030738005
0.006894997 -0.100416034 -0.14808455 -0.029917542 -0.029610088 0.10546845 -0.007695106 0.017212156
-0.027830891 -0.22483432 0.05746212 -0.014507865 -0.1385312 0.06270747 -0.01732506 -0.081811644
0.014210033 0.041075245 0.05511962 0.009203503 0.079650216 0.104639344 0.07057121 0.0053309477
0.07687917 0.005483971 0.05517914 -0.14699636 -0.08271735 0.054038655 0.03521746 -0.03442007
-0.110860676 -0.14567147 -0.1253488 -0.12687607 0.09465304 -0.074262574 -0.03460603 0.1788142
0.0016391077 0.0060199066 0.054118104 -0.048345532 -0.033105418 0.008862464 0.03805824 0.046722848
-0.0433199 -0.01800641 0.008561978 -0.013664408 -0.13265596 0.09530646 0.0011963848 -0.030166572
-0.086624384 -0.10113052 0.045747433 0.049017135 0.16920158 -0.012914866 -0.18199226 -0.10353506
0.15553404 0.041192956 0.00836613 -0.042598505 -0.024877466 -0.02157062 0.05531014 -0.016795484
0.16659407 0.22114117 -0.054796834 0.024301857 -0.024351569 -0.0699313 -0.009606926 0.07358719
0.10167369 0.11462476 0.10901678 -0.07787039 0.009884232 0.027990222 -0.08988188 0.07172456
0.01876513 0.10131243 0.060673572 -0.19088104 0.09721181 0.010164979 0.057177905 -0.09834626
-0.043810636 -0.12845404 -0.026632328 0.12455315 0.05074553 0.08310999 0.009786 -0.07067031
-0.10971864 -0.009900949 0.10025209 -0.05211271 -0.13786155 0.08073412 -0.04723085 -0.005468786
-0.022600181 0.10296824 -0.08386215 -0.016498476 0.022551065 0.02897778 -0.026511392 -0.06424651
0.1105524 -0.030712252 0.10416072 0.059487112 -0.022648629 0.090294056 0.011997171 -0.041662313
0.04320141 -0.0035765844 -0.13776673 0.009110982 -0.05065966 0.004743614 -0.007088143 -0.05855412
-0.083123766 0.089021534 0.07650477 0.03223866 0.009243657 0.1238584 0.24028727 -0.015193969
-0.10180108 0.1756934 0.06315654 -0.18772207 -0.07116774 0.1239124 -0.04760411 -0.06676674
0.08563809 -0.26987767 -0.09899242 0.042434644 0.01641102 -0.019040715 0.07218497 -0.055685524
00000000: a404 d13d 5a63 f4bd d001 adbd b78d b93d
00000010: 1fe3 3cbd e428 003e fc7a a5bd 4f27 3bbd
00000020: 262c 903d 7e4a e73b 08fc 89bd 9bb2 9f3c
00000030: 2800 923d d120 ab3d 7f5c 2a3d c1f9 f5bd
00000040: a67f 7bbd 4993 21be 5ed4 8dbd af3c 6b3b
00000050: a591 a63d 6d58 d4bc a04f 0bbd a138 b73d
00000060: 9065 273e 0b9c 0c3d ff42 08bd 8b73 4dbc
00000070: 545d 87bc 22ac 623c 4818 ac3d 0919 41be
00000080: ca24 c2bd 9fb6 1abc 4603 b7bc e79e 2b3e
00000090: 066d 7d3d e552 c1bd 6bf2 faba b197 783d
000000a0: 11d7 063e 82aa 7ebc fad6 0abe 9fcf aebb
000000b0: 38cc 283d f929 893d ef0e 853d 25af 33be
000000c0: 6a7d c43c 01b3 8bbd 622f 9b3d de35 0fbe
000000d0: 4a65 56bd b5a4 d63d 33a3 c9bd e144 7dbd
000000e0: 54d1 d33d eede 193d 8792 d63d 38bc 0c3e
000000f0: 2ae0 f0bd afb1 0e3d 1b88 1abc 6442 cebd
00000100: 018d 44bd e7c2 883d 920a f2bc 8cd0 94bd
00000110: 9d04 2d3e 4a2a 0dbd 16bf 97bc 1c42 d73d
00000120: 932a 9cbd f181 6a3d be0d 473e cb09 0abe
00000130: 6c4c 013e 3599 29bd d324 313d 4d31 ba3c
00000140: 21fe 30be e176 3ebd 0aab 4e3c 1a01 b2bc
00000150: ced5 2bbd f061 48bd d040 27be 4fc9 ff3d
00000160: 9a48 a83d d93e ce3c eaa5 bfbc 6f9f 2dbe
00000170: e16a 913d e143 82bd be61 0cbe 45ce fbbc
00000180: 6def e13b eca6 cdbd 7aa3 17be a215 f5bc
00000190: db90 f2bc d8ff d73d 3a27 fcbb 8200 8d3c
000001a0: 9cfd e3bc f83a 66be 665d 6b3d 65b2 6dbc
000001b0: 1fdb 0dbe c66c 803d 49ed 8dbc dd8c a7bd
000001c0: 33d1 683c 843e 283d 1cc5 613d 4aca 163c
000001d0: a71f a33d 274d d63d a387 903d 3baf ae3b
000001e0: d472 9d3d e2b2 b33b 8603 623d 3786 16be
000001f0: b767 a9bd a357 5d3d 2f40 103d 0ffc 0cbd
00000200: ec0a e3bd e72a 15be 705b 00be cdeb 01be
00000210: 74d9 c13d fa16 98bd 0dbf 0dbd 121b 373e
00000220: 54d7 d63a a342 c53b f2aa 5d3d f705 46bd
00000230: 8c99 07bd de33 113c f5e2 1b3d 7560 3f3d
00000240: 3570 31bd 2e82 93bc 8a47 0c3c aee0 5fbc
00000250: f7d6 07be 0930 c33d 03d0 9c3a e31f f7bc
00000260: 2068 b1bd 851d cfbd a961 3b3d 31c6 483d
00000270: 2e43 2d3e e098 53bc 2e5c 3abe 310a d4bd
00000280: 5144 1f3e f2b9 283d 1812 093c c57b 2ebd
00000290: d4cb cbbc deb4 b0bc e38c 623d af96 89bc
000002a0: a397 2a3e d572 623e a572 60bd b014 c73c
000002b0: f17c c7bc 2438 8fbd 5e66 1dbc e1b4 963d
000002c0: 4c3a d03d 63c0 ea3d 3144 df3d 837a 9fbd
000002d0: 79f1 213c c04b e53c fe13 b8bd 53e4 923d
000002e0: 54b9 993c e47c cf3d da84 783d 5276 43be
000002f0: fc16 c73d 038b 263c 6133 6a3d c469 c9bd
00000300: c872 33bd 7589 03be 0a2c dabc b915 ff3d
00000310: 8bda 4f3d 9235 aa3d 7555 203c 98bb 90bd
00000320: 2bb4 e0bd 9737 22bc f850 cd3d 2374 55bd
00000330: 942b 0dbe ee57 a53d 2375 41bd 8133 b3bb
00000340: 0424 b9bc 03e1 d23d ebbf abbd d027 87bc
00000350: 03bd b83c cf62 ed3c 6b2e d9bc ad93 83bd
00000360: 4c69 e23d 4398 fbbc 3752 d53d c2a8 733d
00000370: 9e89 b9bc 17ec b83d c88f 443c 1aa6 2abd
00000380: f6f3 303d 2165 6abb b912 0dbe 3a46 153c
00000390: 8180 4fbd 5170 9b3b a743 e8bb 72d6 6fbd
000003a0: cb3c aabd ec50 b63d 88ae 9c3d af0c 043d
000003b0: b572 173c 79a9 fd3d de0d 763e 20f0 78bc
000003c0: 167d d0bd f8e8 333e 3758 813d 373a 40be
000003d0: 64c0 91bd c9c5 fd3d 87fc 42bd 00bd 88bd
000003e0: 0663 af3d 682d 8abe 8abc cabd f3cf 2d3d
000003f0: 6770 863c 46fb 9bbc b7d5 933d 8116 64bd

network_body._body_endoder.seq_layers.6.bias f4 [128]
-0.00022232419 -0.007462246 -0.00044748856 -0.00048061417 -0.0005166038 0.0051704785 -0.0015525518 -0.000491493
-0.0014300952 0.0005581688 -0.0006372666 -0.0013621305 0.0059805936 -0.00045882465 0.00028156675 -0.00063156994
-0.0012017151 -0.00056817033 -0.0038356087 -0.0017679589 -0.0014833839 -0.00016522074 0.0011164425 -0.0004703318
-0.0002550965 -0.0028924863 0.0007289349 -0.0040115574 -0.0004759501 0.00016261643 -0.000688391 -0.0016462144
-0.0017287647 -0.0009798734 -0.0049130167 0.006539615 -0.0059394618 -0.0008070733 -0.0042970516 -0.0008514223
-0.002483966 -0.00022303598 0.0004054774 -0.00081316085 -0.00030802435 0.0069399835 -0.0014030103 -0.006305446
-0.0018533038 -0.004748679 -0.0069635087 -0.00060987566 -0.00554935 -0.00032793148 -0.00074663514 -0.00079655193
-0.0020263162 -9.002907e-05 -0.001470101 -0.0005814221 -0.0011677303 0.0040583974 0.0058747856 -0.0010161531
-0.007943818 -0.0018737941 0.0058598826 -0.0018419622 0.0074681477 -0.001149852 0.00046530747 0.00050601334
-0.0014153825 -0.00040129022 -0.000766394 -0.0006758558 -0.0007259514 0.0047463556 -0.0015544588 -0.0015953183
-0.0035821972 0.000682883 -0.002201547 -0.0014252461 -0.00087059353 -0.0012816961 -0.00093627535 0.00012096704
0.0002374774 -0.0017909812 0.00019378313 -0.0008141142 -0.001395353 -0.0010939946 0.0029834702 -0.0003141923
-8.8519366e-05 0.006178489 -0.0013711912 -0.00638523 0.0012430054 -0.0003936228 -0.00029659938 -0.0020246257
0.0006163577 -0.00025202558 -0.00075298146 -0.007542529 0.00030703773 -5.7648806e-05 -0.0004925269 -5.543017e-05
-7.3134914e-05 0.00032564718 -0.0021129062 0.0079048835 -0.00065105705 -0.00034397157 0.0011270309 -0.006819388
-0.00022134141 0.00044067123 -0.0012761608 -0.0010859983 -6.0104623e-05 -0.0019822638 0.00445465 -0.001583621
00000000: b21f 69b9 db85 f4bb e69c eab9 f1fa fbb9
00000010: b26c 07ba 1e6d a93b fe7e cbba 89d7 00ba
00000020: 0872 bbba 1352 123a 3d0e 27ba 8489 b2ba
00000030: dbf8 c33b 678e f0b9 409f 9339 f18f 25ba
00000040: de82 9dba 44f1 14ba d65e 7bbb dbba e7ba
00000050: 1b6e c2ba 1b3f 2db9 9855 923a de96 f6b9
00000060: 79be 85b9 de8f 3dbb fe15 3f3a 6273 83bb
00000070: f188 f9b9 0484 2a39 2375 34ba cac5 d7ba
00000080: b897 e2ba 186f 80ba 5ffd a0bb 444a d63b
00000090: d19f c2bb c691 53ba 48ce 8cbb fc31 5fba
000000a0: 09ca 22bb c4de 69b9 4196 d439 4d2a 55ba
000000b0: 547e a1b9 cd68 e33b 37e5 b7ba ea9d cebb
000000c0: 8eea f2ba cf9a 9bbb 252e e4bb 10e0 1fba
000000d0: 52d7 b5bb 38ee abb9 d6b9 43ba b2cf 50ba
000000e0: f2cb 04bb fdcd bcb8 67b0 c0ba 946a 18ba
000000f0: 870e 99ba 4efc 843b 4681 c03b 7130 85ba
00000100: ca26 02bc 199a f5ba 4204 c03b ff6d f1ba
00000110: 5db7 f43b a1b6 96ba 83f4 f339 fba5 043a
00000120: 5b84 b9ba 4364 d2b9 d5e7 48ba ea2b 31ba
00000130: c64d 3eba 5187 9b3b fbbe cbba 001a d1ba
00000140: 4cc3 6abb 8103 333a d447 10bb 53cf baba
00000150: 8b38 64ba 96fe a7ba 6070 75ba afaf fd38
00000160: 5b03 7939 5bbf eaba 4332 4b39 476a 55ba
00000170: 47e4 b6ba 5e64 8fba 5386 433b 2dba a4b9
00000180: 79a3 b9b8 ec74 ca3b 8bb9 b3ba 313b d1bb
00000190: 57ec a23a 285f ceb9 e580 9bb9 95af 04bb
000001a0: 1193 213a 4d22 84b9 bb63 45ba 5227 f7bb
000001b0: e8f9 a039 efcb 71b8 ec1c 01ba b17d 68b8
000001c0: 0260 99b8 a0bb aa39 af78 0abb 7c83 013c
000001d0: b3ab 2aba 1557 b4b9 e2b8 933a 2c75 dfbb
000001e0: e217 68b9 e409 e739 da44 a7ba 0e58 8eba
000001f0: d918 7cb8 dee8 01bb 50f8 913b 8191 cfba

network_body._body_endoder.seq_layers.6.weight f4 [128, 128]
0.21818464 0.031967316 0.028840123 -0.13212569 -0.057426825 -0.06556707 0.06575518 -0.14524505
0.13954034 0.10852366 0.11381173 -0.045098323 -0.008387893 0.0029870444 0.055950373 0.16682462
-0.12475708 0.26756123 0.115291536 -0.12994483 0.10295758 -0.12947175 0.12231605 0.05561217
0.037760023 -0.03825387 0.02690804 -0.18842547 -0.02217178 -0.08687974 -0.11528069 -0.09762155
0.10339925 0.014232525 -0.034166638 -0.068500854 0.025691317 0.06630141 -0.117175 0.11962918
-0.057857614 -0.20153992 -0.0327599 0.13086958 -0.0009141774 -0.13892841 0.16015121 0.11787253
-0.06719243 0.12467621 -0.05354752 0.053922113 0.1135766 -0.09305956 -0.081267856 0.012926026
0.04001526 0.0644433 -0.071761884 -0.015732829 -0.05841654 -0.0028331238 -0.0011021567 -0.09148177
0.04855498 -0.025980646 -0.020033369 -0.06638332 0.017859735 0.075547405 0.016892364 0.055184662
0.10325432 -0.00019577738 -0.032173302 -0.044887755 0.10446776 -0.074604474 -0.026785024 0.042836763
0.045185417 0.15530089 0.028223913 0.046209645 -0.104380295 -0.024835879 0.017769786 -0.07065982
-0.09668827 -0.1432784 0.13128382 0.10273083 0.033421807 -0.073436566 0.069894336 0.17503382
0.0017884328 0.2157561 0.021636693 -0.0523195 -0.056943223 0.009235286 -0.06843452 0.008518957
-0.001500967 0.04251367 0.015439893 0.11744857 -0.0628289 0.07249669 -0.05364446 -0.017253866
0.1524588 -0.05546444 -0.03654466 -0.1365897 -0.011195994 -0.052556742 0.03862185 -0.08312257
-0.05584386 -0.07081734 -0.12569976 0.12251458 -0.017302424 -0.13397162 0.056249376 0.006426065
0.004798977 -5.4471082e-05 -0.074672066 0.03629894 0.056006797 -0.18598011 0.10726456 0.04705849
-0.10365815 0.10512537 -0.022544269 0.04424663 -0.07894301 0.04153504 -0.09173193 0.07156413
-0.042800292 0.16263685 0.05034077 0.14964962 -0.026303431 -0.07857417 -0.19300514 -0.03106489
0.054438304 -0.007874094 -0.15314764 0.026229022 0.08746175 -0.0038207131 0.04746639 0.05826643
0.015780823 -0.15982029 -0.13896343 -0.037583623 0.059198916 0.1177013 -0.047853455 0.082161315
0.083876036 0.035789326 -0.12618789 -0.057206154 0.068475395 -0.0768318 -0.017452206 0.10208502
-0.0008886782 -0.02548911 -0.0727628 0.067912 -0.019369073 0.10602907 -0.048489254 -0.02353858
-0.0012289762 -0.06631546 -0.028946614 -0.017641047 0.06835968 -0.01542108 -0.10515543 0.015180833
0.057697263 -0.0057079736 0.09852843 -0.08536654 -0.08781289 -0.03319178 -0.09722261 -0.042804148
-0.046176624 -0.02082013 0.004247685 0.11129581 -0.039521907 0.071217954 -0.21242833 -0.041291345
0.10092112 0.12660465 -0.068606675 0.05420956 0.007776099 0.11919239 -0.049618423 -0.06324537
-0.026172116 -0.008330835 0.087485865 -0.111442104 -0.1659472 0.08322755 0.09817116 -0.10754253
-0.068134226 0.002940672 -0.14457639 -0.08212562 0.016996587 0.022027344 0.024899358 -0.03861998
-0.11344474 0.022956165 0.044363584 0.04928836 -0.115910105 -0.08758231 -0.19571255 0.06239366
-0.077189244 -0.03460124 0.070076466 0.0058266474 -0.030040385 -0.11581459 0.030793574 -0.18739517
0.048758812 -0.0756458 -0.09313481 0.03276793 0.008287279 -0.014790555 0.08844532 -0.077459745
00000000: cb6b 5f3e 29f0 023d 1f42 ec3c f54b 07be
00000010: 6438 6bbd 0748 86bd a7aa 863d 1ebb 14be
00000020: aae3 0e3e a741 de3d 2016 e93d 05b9 38bd
00000030: 606d 09bc 4ac2 433b 382c 653d 13d4 2a3e
00000040: a480 ffbd c9fd 883e f81d ec3d 4210 05be
00000050: 6cdb d23d 3e94 04be d680 fa3d 96c9 633d
00000060: 41aa 1a3d 17b0 1cbd 406e dc3c 9bf2 40be
00000070: 98a1 b5bc 01ee b1bd 4818 ecbd cfed c7bd
00000080: fcc2 d33d 892f 693c 51f2 0bbd 2d4a 8cbd
00000090: 9976 d23c 09c9 873d 72f9 efbd 2500 f53d
000000a0: 1bfc 6cbd 7b60 4ebe 3f2f 06bd ad02 063e
000000b0: 68a5 6fba 4043 0ebe aefe 233e 2767 f13d
000000c0: 2f9c 89bd 3e56 ff3d a554 5bbd 6fdd 5c3d
000000d0: d99a e83d 0396 bebd c36f a6bd afc7 533c
000000e0: 0be7 233d d9fa 833d e5f7 92bd 22e2 80bc
000000f0: 2f46 6fbd eeab 39bb 3e76 90ba cb5a bbbd
00000100: 96e1 463d 5dd5 d4bc 051d a4bc faf3 87bd
00000110: 944e 923c 99b8 9a3d db61 8a3c 5009 623d
00000120: 0077 d33d 9749 4db9 27c8 03bd 39dc 37bd
00000130: 31f3 d53d 3bca 98bd 446c dbbc 9a75 2f3d
00000140: 5814 393d 3207 1f3e d635 e73c 5346 3d3d
00000150: 56c5 d5bd 9d74 cbbc f191 913c 19b6 90bd
00000160: 8004 c6bd 93b7 12be 446f 063e 8b64 d23d
00000170: 4ee5 083d e965 96bd c324 8f3d 113c 333e
00000180: d969 ea3a 2bef 5c3e 6f3f b13c f94c 56bd
00000190: 4c3d 69bd 994f 173c 6627 8cbd 1893 0b3c
000001a0: 18bc c4ba d022 2e3d 9bf7 7c3c e088 f03d
000001b0: 70ac 80bd 2579 943d 4bba 5bbd fb57 8dbc
000001c0: 291e 1c3e ae2e 63bd daaf 15bd 2cde 0bbe
000001d0: 676f 37bc bd45 57bd f231 1e3d 2a3c aabd
000001e0: 88bc 64bd ae08 91bd 70b7 00be ede8 fa3d
000001f0: d0bd 8dbc db2f 09be bf65 663d be91 d23b
00000200: bd40 9d3b e177 64b8 abed 98bd 33ae 143d
00000210: 6267 653d 9271 3ebe 86ad db3d 67c0 403d
00000220: b94a d4bd f84b d73d c2ae b8bc f43b 353d
00000230: dfac a1bd a520 2a3d f3dd bbbd 3790 923d
00000240: 5c4f 2fbd 468a 263e 2032 4e3d c03d 193e
00000250: 4b7a d7bc 7feb a0bd 24a3 45be cc7b febc
00000260: b3fa 5e3d 5802 01bc bcd2 1cbe 3fde d63c
00000270: 251f b33d ee64 7abb 1e6c 423d c8a8 6e3d
00000280: c946 813c eea7 23be 6e4c 0ebe 49f1 19bd
00000290: 907a 723d 610d f13d fc01 44bd 3144 a83d
000002a0: 33c7 ab3d d497 123d 6637 01be 0051 6abd
000002b0: d43c 8c3d fe59 9dbd eef7 8ebc f311 d13d
000002c0: 2ff6 68ba 8ace d0bc aa04 95bd 7215 8b3d
000002d0: e4ab 9ebc c525 d93d ab9c 46bd fbd3 c0bc
000002e0: 9915 a1ba 66d0 87bd 7321 edbc f583 90bc
000002f0: 2900 8c3d b3a8 7cbc bb5b d7bd 07b9 783c
00000300: f753 6c3d f409 bbbb 46c9 c93d a7d4 aebd
00000310: 3fd7 b3bd 1bf4 07bd a61c c7bd 6753 2fbd
00000320: b323 3dbd fa8e aabc 2a30 8b3b 0fef e33d
00000330: b9e1 21bd b8da 913d d086 59be 1d21 29bd
00000340: bbaf ce3d a6a4 013e a881 8cbd d80a 5e3d
00000350: a5ce fe3b 241b f43d b03c 4bbd ca86 81bd
00000360: e866 d6bc 0e7e 08bc ca2b b33d c23b e4bd
00000370: 10ee 29be 3573 aa3d f60d c93d 423f dcbd
00000380: f589 8bbd 4ab8 403b d50b 14be 7a31 a8bd
00000390: 6d3c 8b3c b072 b43c bdf9 cb3c fc2f 1ebd
000003a0: b755 e8bd 910e bc3c 97b6 353d 97e2 493d
000003b0: 4762 edbd 5b5e b3bd df68 48be 7f90 7f3d
000003c0: 6515 9ebd 08ba 0dbd 4084 8f3d 76ed be3b
000003d0: 4117 f6bc 3330 edbd ce42 fc3c 85e4 3fbe
000003e0: 52b7 473d 2fec 9abd 77bd bebd aa37 063d
000003f0: 5ec7 073c 1654 72bc d222 b53d 37a3 9ebd
