MLATest/results/RollerBall/RollerBall/checkpoint.pt (torch, 448335 bytes, 39 tensors)

network_body._body_endoder.seq_layers.0.weight f4 [128, 8]
000000 c3 02 db 3c fd f9 e5 3d ee 98 6f be 02 c2 7d 3e
       0.026734715 0.11229322 -0.23398182 0.2478104
000010 17 86 44 3e 73 f7 8f 3e d0 7e 36 bf d3 01 0f bf
       0.19191776 0.28118476 -0.7128725 -0.5586216
000020 e2 1a 15 3d 22 2b 59 be 6f b1 33 3d ca cb de 3e
       0.03640259 -0.2120786 0.043870386 0.43514854
000030 e3 1d e3 be 14 77 ce 3e 6e fe 21 be 71 4b 33 bf
       -0.4435874 0.40325224 -0.15819713 -0.7003699
000040 2f 97 26 be 10 64 c1 bc 93 64 81 be b4 8d 64 be
       -0.1626861 -0.023607284 -0.25272045 -0.2231968
000050 54 8a a1 be bb b8 05 bf 94 08 01 3e 3c d8 18 3d
       -0.31550848 -0.52235 0.12600929 0.037315592
000060 f2 23 a3 3d 25 2e 87 3e c2 4f f9 bb 11 4b 0b 3e
       0.079658404 0.26402393 -0.007608385 0.13602854
000070 08 95 85 3e cc 9b 7b 3e 4f af 2f 3c 2d f4 49 39
       0.26090264 0.2457115 0.010722949 0.00019259816
000080 67 26 37 be cb f4 8e be a6 78 00 3e f1 fb 2c 3f
       -0.17885743 -0.27921137 0.12546024 0.6757193
000090 bd b1 5b bd f6 5d 07 bf 74 75 a4 be 7f 60 b7 3f
       -0.0536363 -0.5287775 -0.3212086 1.4326323
0000a0 8b e2 ef 3e 5e 9c 3e be f3 78 bc bc 93 3c 2d 3e
       0.46852526 -0.18614337 -0.023006892 0.16917638
0000b0 6e 55 a7 3e 35 f2 a1 3e bb ab 9d be 3e 43 a5 3d
       0.32682365 0.31630102 -0.30795082 0.08069466
0000c0 5d 40 b4 be 44 23 0f bf cf c3 13 3d 9d 88 03 3f
       -0.35205355 -0.55913186 0.03607541 0.5138033
0000d0 46 90 59 3f 6e 26 c8 bd 95 26 83 be 93 5c 08 3f
       0.8498577 -0.09772955 -0.25615373 0.5326626
0000e0 37 35 b0 3e 3c b4 1f bf 94 ef 13 bf 10 a3 31 3e
       0.344156 -0.6238439 -0.5778744 0.1734736
0000f0 ac 85 12 bf 12 fa 84 be 62 b3 52 be b1 9b 17 bf
       -0.5723522 -0.25972039 -0.20576242 -0.5922194
000100 56 30 2e bf 39 aa 11 bf 79 c1 83 3e cc 1a e7 be
       -0.68042505 -0.56900364 0.25733545 -0.45137632
000110 ac c0 08 3f 42 af 07 3f 36 fe 2b be 0e 49 f3 bb
       0.53418994 0.530018 -0.16796193 -0.0074244803
000120 73 dd 57 be a4 1b 5e 3e 3e 07 04 3e ba a6 54 bd
       -0.2108057 0.21690232 0.12893388 -0.051916815
000130 59 f7 07 3f 50 b9 ca 3e 76 f7 0a be 27 3c b4 3e
       0.531118 0.39594507 -0.13570961 0.35202143
000140 34 32 48 bf f2 6c 0a 3d 43 8b 5a be 26 58 5a be
       -0.78201604 0.033795305 -0.21342187 -0.21322688
000150 23 f1 bb bc f3 91 c5 3e f6 d0 6d 3e 6b a7 26 3d
       -0.022942131 0.38587913 0.23224244 0.040687006
000160 fb d0 24 3e 34 cc 97 3e 8b ff b2 3d bd 99 78 be
       0.16095345 0.29647982 0.08740147 -0.24277397
000170 d6 a0 0c 3d 74 49 5b be 24 ec 6d 3e 58 4f 81 bd
       0.034333073 -0.21414739 0.23234612 -0.06313962
000180 e9 83 84 be 43 e3 43 be 74 33 b2 be 4c 65 32 3f
       -0.2588189 -0.19129662 -0.3480488 0.69685817
000190 fa da 07 3f b7 d6 a5 bd 99 dc b2 3e 46 00 36 3e
       0.53068507 -0.08097594 0.34933928 0.17773542
0001a0 78 d8 57 3e 83 59 15 bf d6 ad 0c 3e 24 8b a0 bd
       0.2107867 -0.5833971 0.13738188 -0.07839039
0001b0 72 93 5b be 5d 95 6f 3e c7 58 ff be 5c a6 85 bd
       -0.21442965 0.23396821 -0.4987242 -0.06525871
0001c0 ab e4 8b be 75 03 30 be 8e b1 9a be 02 4c 01 3e
       -0.27322897 -0.17188819 -0.30213588 0.12626651
0001d0 73 5c 18 3e f2 07 ba 3e 5f 12 da 3e 43 03 a0 3e
       0.14879017 0.36334187 0.4259214 0.31252488
0001e0 c4 8e a2 3d 01 4d 52 be 94 e6 a1 be d2 94 ce 3e
       0.07937387 -0.20537187 -0.3162123 0.40347916
0001f0 d7 c2 17 3e 42 bd 54 be e1 39 04 be 33 17 41 3e
       0.14820419 -0.20775321 -0.12912704 0.18856506
000200 c1 73 3e 3c 22 c0 62 be 19 6f a2 3e 34 dc 0e 3f
       0.011624278 -0.22143605 0.31725386 0.55804753
000210 a0 36 35 bf 3c 84 6f bd 6b 52 d3 3d 68 5d 1b be
       -0.70786476 -0.058475718 0.10318454 -0.1517235
000220 b1 34 1e bd 7b 61 94 be c6 15 03 3f 64 fd 04 3f
       -0.03862447 -0.28980622 0.512051 0.51949143
000230 6b e0 ed 3c e7 ef 66 be ac ad 5d be fb 9e 0d bf
       0.029037675 -0.22552453 -0.21648282 -0.5532071
000240 4e 13 a7 be 24 21 b8 be d9 52 40 3f 23 32 a2 be
       -0.32631916 -0.35962784 0.75126415 -0.31678876
000250 b3 1c 1b 3e 24 3f 58 3d 52 9f 27 3e 76 43 b9 3d
       0.15147667 0.05279459 0.1636937 0.0904607
000260 e2 e4 a1 be 1f b9 cb be d4 83 b3 3e d0 89 80 bf
       -0.31619936 -0.39789674 0.35061514 -1.0042057
000270 6d 08 26 3e ff 19 18 3d c2 10 08 3f cc fb b1 be
       0.16214152 0.037134167 0.5315057 -0.34762418
000280 0e e6 4c bd 29 9f 1c 3f e3 ab 86 bd 7c 1d 07 3f
       -0.050024085 0.6118036 -0.065757535 0.52779365
000290 e7 5f 9e 3e ad c8 a8 3e 61 1c 94 3e 1e 52 43 3d
       0.30932543 0.32965603 0.289279 0.047685735
0002a0 ef e4 ac be 13 39 5c 3e 8f 77 d4 be 68 91 03 bf
       -0.33768412 0.21506147 -0.41497466 -0.5139375
0002b0 3b f9 c0 3d a2 35 c7 3e 4b a1 1b 3e 9a bc 11 be
       0.09422537 0.38908106 0.15198247 -0.14232102
0002c0 f5 54 97 3e 53 2a 5a be ca 82 55 3e e6 c0 b2 3d
       0.29557005 -0.21305208 0.20850673 0.08728199
0002d0 54 02 60 3b be 56 3b 3e d9 ab 68 be 83 b1 0d 3e
       0.0034181075 0.18294808 -0.22721805 0.13837247
0002e0 ed 10 9e 3d 2e 59 83 bf a6 67 9b be 82 6e 18 3e
       0.07718072 -1.026159 -0.30352515 0.14885905
0002f0 08 8a 8c be df e9 48 3e 78 f2 03 bf 75 85 55 3e
       -0.2744906 0.19620465 -0.5154185 0.20851691
000300 c2 5b 15 bc 42 11 65 be b4 0e 81 3d cd 79 08 bf
       -0.009116115 -0.22369865 0.063016325 -0.53310853
000310 d9 f4 a0 be 83 3e 27 be 12 be 29 be 4d 13 81 be
       -0.31436804 -0.1633244 -0.16576412 -0.25210038
000320 9e 61 69 be dd 4b 92 be 70 76 77 3e e4 2c be 3e
       -0.22791144 -0.28573504 0.24166274 0.37143624
000330 d5 b8 b8 bd 6e 4f b0 be 98 82 4a be 2b 34 d5 be
       -0.09019629 -0.344356 -0.1977638 -0.41641364
000340 01 94 f9 be 2a 03 8a bd 57 d9 40 be 16 cc 67 be
       -0.4874573 -0.06738885 -0.18832909 -0.22636446
000350 45 15 02 bf b4 a3 0e bf e0 62 ab be 21 a2 c2 be
       -0.50813705 -0.5571854 -0.33473873 -0.3801432
000360 c3 87 34 bf b4 00 07 3e 75 dd 6f be 63 12 ab 3e
       -0.70519656 0.13183862 -0.23424323 0.33412465
000370 ff f7 15 be db 37 a9 be db c4 ac 3d 04 c9 be 3c
       -0.14645384 -0.33050427 0.08435985 0.023289211
000380 06 21 ae be 1d 32 01 bf bf c2 b2 be af ff f0 bd
       -0.3400957 -0.5046709 -0.34914204 -0.11767518
000390 24 d9 51 be d1 73 13 3d c3 8a 82 3e cd 47 4d 3e
       -0.20492989 0.035999123 0.25496492 0.20046921
0003a0 bc 96 70 bd fd 44 8d be 30 6f ef 3e 69 9c 9b 3d
       -0.0587375 -0.27591696 0.46764517 0.07598192
0003b0 3a 65 78 3d 68 ac 82 be d3 de 80 3e 24 4b 98 be
       0.060643412 -0.2552216 0.2517 -0.29744828
0003c0 5f 8c 11 3f 3d d9 aa 3d 1e 10 7d 3e e5 78 02 be
       0.56854814 0.08342216 0.2471318 -0.1274143
0003d0 1f 5b 24 bf 3b 68 18 3f 3a 3f f1 3e 23 4a 0b bd
       -0.6420154 0.59534043 0.4711855 -0.03400625
0003e0 19 c7 c2 3d b1 16 be bd 29 2f 51 3f 86 d2 15 be
       0.09510631 -0.09281672 0.81712586 -0.1463109
0003f0 38 35 55 be a8 ee 9a 3e ac 9d 9c 3e c0 42 ab bd
       -0.20821083 0.30260205 0.30589044 -0.08362341

network_body._body_endoder.seq_layers.0.bias f4 [128]
000000 27 fb f1 3b 26 78 2a bd a5 f4 aa bd 0b 7d fe bc
       0.007384676 -0.04161849 -0.083474435 -0.031065485
000010 8e fc 2d 3d df f7 5e 3d c6 b5 77 3c 81 e9 99 bd
       0.042477183 0.054435607 0.015119022 -0.075152405
000020 96 f2 7f bd 2e 26 83 bd 14 fb 0c bc 14 d8 b7 3c
       -0.062487207 -0.064037666 -0.008604784 0.022441901
000030 c7 de 5a 3d 98 ce 53 bd f5 6d ba 3b 78 a9 49 bb
       0.053435113 -0.051710695 0.0056893774 -0.0030771177
000040 cc 84 62 bd 26 b5 fc 3c ec 04 11 be 8b ad 31 be
       -0.055302426 0.030848097 -0.14162034 -0.17351358
000050 ae 49 87 bc fc e2 5b bd 97 12 a2 3c da 3c e7 bd
       -0.016514625 -0.053683266 0.019784255 -0.112909034
000060 08 93 bc bd 43 38 f2 3c bd 79 c5 bd 13 a8 04 3d
       -0.092077315 0.029567843 -0.0964236 0.03238685
000070 a3 43 c5 bc 19 cf 52 bd 8c 1a 09 3b 1c 6e e6 bc
       -0.024080103 -0.051467035 0.0020920364 -0.028128676
000080 11 ea fe bb 61 18 87 bd 3d f2 0b be 6e 23 32 bd
       -0.0077793677 -0.06596447 -0.13666625 -0.04349082
000090 0c 2a b7 bd 3d 10 0d 3c 02 03 af bc dd 5a b3 bd
       -0.08943567 0.008609829 -0.021363739 -0.08757565
0000a0 a0 06 11 bd 75 b7 fb bd 41 9d 13 bd d7 58 28 bd
       -0.03540671 -0.12290851 -0.03603864 -0.04110035
0000b0 d6 38 82 3c 2a 2e 85 bd e6 07 57 3d 1f ad c1 bd
       0.015896242 -0.06502946 0.052497767 -0.09456848
0000c0 95 6e b5 bd 5f e7 87 3d c0 7c 46 3d 32 31 cb bc
       -0.088589825 0.066359274 0.048458815 -0.024803732
0000d0 33 1e 51 3d eb a5 e8 bd 90 30 80 3d 6a 45 57 3b
       0.05105419 -0.11359771 0.062592626 0.003284777
0000e0 ec 8c 73 bd 91 4b 12 3d cd bb 37 bc a5 89 4e 3d
       -0.059460565 0.035716597 -0.011214209 0.050424237
0000f0 6e a4 8f 3c 12 7a bb bd d5 c1 c9 bc 87 6c 08 3c
       0.01753446 -0.091541424 -0.02462856 0.008326656
000100 e0 f9 4a 3d 22 f3 09 3d e5 68 ff 3d 4a bb f2 bd
       0.049554706 0.033679135 0.12471179 -0.11852129
000110 df ac 3b bd 15 79 0c 3e 33 5a 80 3c df 46 bb ba
       -0.04581916 0.13718064 0.01566801 -0.0014288089
000120 66 51 e2 bc 03 11 71 3c fe a1 f6 bd 2e b6 f4 bd
       -0.027626704 0.014713529 -0.12042616 -0.119488105
000130 47 90 9a 3c d2 02 80 3d 71 da 58 bd 64 6a dc bd
       0.018867625 0.06250538 -0.052942697 -0.1076248
000140 ce bd bd bd a0 14 58 3d 06 2c 92 bd 4a 93 dd bd
       -0.09264718 0.052754045 -0.07137303 -0.10819109
000150 d6 d8 6c bb 5b 9c 93 bd 67 78 de 3c 05 dd c1 3d
       -0.0036139986 -0.07207557 0.027157022 0.09465984
000160 b8 de ed bd 93 8e ff bc c7 58 0c 3d 33 57 88 3d
       -0.11614746 -0.031195914 0.034264352 0.06657257
000170 86 4a ca bd 61 f4 83 3c d5 d3 d1 3d b7 5d f9 3b
       -0.098774955 0.01610774 0.10245482 0.0076100486
000180 58 9c 83 3d b9 bd ae 3c d7 eb a2 3c 5f 7b 4c 3d
       0.064263046 0.021330701 0.019887848 0.049922343
000190 ab 03 75 bd ae fc 39 bd cc 3b 97 3d 36 c0 4d 3d
       -0.05981795 -0.04540699 0.07384452 0.050232135
0001a0 69 7d 78 3c 36 88 48 bd 9c 6d e9 3c ab 02 c9 bd
       0.015166619 -0.048958026 0.028494649 -0.09814962
0001b0 25 d4 3d bb 78 a4 c0 3d e7 1c b4 bd ac 19 8b bc
       -0.002896556 0.0940637 -0.08794575 -0.016980015
0001c0 6e 09 17 bd 75 f4 17 bd 9d ee 53 bd 7b 4d b8 bd
       -0.036874227 -0.037098367 -0.05174123 -0.08999153
0001d0 57 41 f2 bb 96 00 0e be 47 fe 37 bb f0 d2 4d 3b
       -0.007393043 -0.13867411 -0.0028075145 0.0031406246
0001e0 71 06 0c be 4d 25 31 bd 4b c9 2d bd 0f 48 13 3d
       -0.13674332 -0.043248463 -0.042428296 0.035957392
0001f0 c9 f4 4f bc e5 10 8b 3d a9 36 24 bd b8 3d ad bd
       -0.012692639 0.06790332 -0.04009119 -0.084590375

network_body._body_endoder.seq_layers.2.weight f4 [128, 128]
000000 c5 ff 45 be 28 ff 94 bd 1a 0c c5 3d 9c 93 4c 3d
       -0.1933585 -0.0727523 0.09621449 0.04994546
000010 63 ed a2 3e cd e8 55 3d f4 63 00 3e 42 89 59 bd
       0.31821737 0.05222397 0.12538129 -0.053109415
000020 d3 06 c9 bc 5a 2a a4 3c 81 df 01 3e b0 e7 70 bc
       -0.024539387 0.020039726 0.12682916 -0.014703676
000030 ea d2 1e 3c a8 a0 bf be e3 87 e6 bd 3b f5 4c 3c
       0.0096938405 -0.37427258 -0.11256387 0.012509639
000040 d2 74 25 3d b9 eb cc ba e6 24 9a 3c 4d 8c fe 3d
       0.04039461 -0.0015634216 0.018816423 0.12429104
000050 7f f7 9b 3c 28 35 bc bd ac 76 79 bc d8 50 6e be
       0.019038914 -0.09189826 -0.0152260475 -0.23273027
000060 8f bc a0 bd fb 9a a0 3d 6c 72 dc bd 2b 5a 00 3e
       -0.07848465 0.0784206 -0.10764012 0.12534396
000070 e3 3d 88 3d 23 f6 14 bd 07 11 1a bb 0d 32 be 3d
       0.06652429 -0.036367547 -0.0023508684 0.0928689
000080 b2 56 9c bd a6 a8 0b bd 32 e4 cf bd 56 01 19 be
       -0.07633723 -0.034096383 -0.10150947 -0.14941916
000090 e4 b8 7d bd 77 7a 4e 3c db cb f2 3c b2 0e f4 bc
       -0.061943904 0.01260244 0.029638221 -0.029792164
0000a0 94 a5 33 3d eb 92 29 3d b9 d1 e3 3d 6a b3 e2 bd
       0.04385908 0.041399878 0.11123986 -0.11069377
0000b0 77 2f 1e bd 1d fc 78 bd 6d ae 7e bc d8 88 26 3d
       -0.038619485 -0.06078731 -0.015544516 0.040657848
0000c0 ab 0f 3f be 52 d0 e6 3a 2b 0d ab bd 19 fb 8b 3d
       -0.1865832 0.0017609692 -0.08352121 0.068350025
0000d0 31 44 96 be 2e a3 f2 bb a0 ca 56 3d 7f b8 00 be
       -0.293489 -0.0074047064 0.052439332 -0.1257038
0000e0 17 d1 a6 bd 7e c7 ef 3d 45 4c 37 3e 7a 86 d6 bd
       -0.081453495 0.11707972 0.17900188 -0.10474868
0000f0 90 aa a9 3e 4d aa b6 bd e3 b9 54 3d 36 6b d7 3c
       0.3313794 -0.08919201 0.051935088 0.02629624
000100 5f e9 9a bd c4 6e 0f 3e 54 e6 97 3a fd 3e 20 3e
       -0.07564043 0.14007097 0.0011589029 0.15649028
000110 88 d9 05 be 3b d5 07 3d e2 7f 89 3d da ab 37 3d
       -0.13071263 0.033162337 0.06713845 0.044841625
000120 5e 10 31 3d f7 a2 8f 3d fb a2 14 bd 85 22 a0 bc
       0.0432285 0.07013505 -0.036288243 -0.01954771
000130 84 a6 6b 3d 5b ce eb bd aa b6 12 be fc a7 35 be
       0.05753185 -0.115139686 -0.14327493 -0.17739862
000140 9f 74 66 be 4f 80 7a bd b6 4c e2 3c 90 a1 f4 bd
       -0.22505425 -0.06115752 0.02762447 -0.11944878
000150 e7 40 33 bd 8c e7 b6 bc 13 0a ac bd 90 1b 95 3e
       -0.043763068 -0.022327207 -0.08400359 0.2912259
000160 4f 7d a9 bd eb 98 38 bd b2 51 1d 3d 76 fb 7d be
       -0.08275854 -0.04506771 0.03840799 -0.24802956
000170 c7 95 37 be ea e6 d7 bc 26 13 34 3e 5b a4 78 3e
       -0.1792823 -0.026355226 0.1758543 0.24281447
000180 2c a3 08 be 60 8a 87 3d db 0b 8e bd 0c 62 e3 bd
       -0.13343495 0.0661819 -0.06935855 -0.11102685
000190 2f ac 5e bd 6f 67 fa bd 9e 11 06 3e a3 81 08 3c
       -0.054363426 -0.1222676 0.13092658 0.008331689
0001a0 50 54 ea 3d 1f 12 c5 3d 0e 96 06 3e f0 0d b8 bc
       0.114418626 0.09622597 0.13143179 -0.022467583
0001b0 21 78 9b 3c c0 2f d9 bb d7 b4 6b be 3e e7 8b bd
       0.01897818 -0.0066280067 -0.23018204 -0.06831215
0001c0 d8 9b 81 bc 54 8d a2 bd b1 cd 27 3c 4d e6 42 bd
       -0.015821382 -0.079371125 0.010241912 -0.047582913
0001d0 2f 6f e0 3d 4c eb d7 bc e2 08 92 bc 73 1f 70 3e
       0.109587066 -0.026357315 -0.017826501 0.23449497
0001e0 3a fb 2f be 73 d2 e3 bd 9c e8 30 3e 7b 54 2d 3d
       -0.17185679 -0.111241244 0.17276233 0.042316895
0001f0 35 51 c1 3d 9c c5 65 bd a7 51 6b 3d 52 1a 1d 3c
       0.09439317 -0.056096658 0.057450917 0.009588795
000200 92 13 98 bd ae 45 48 3e 54 82 f1 3c b7 a1 15 3c
       -0.07425608 0.1955783 0.02948109 0.009132794
000210 47 13 e9 3d e2 d8 10 3e 58 7c 52 bc 20 a2 fd 3d
       0.1138063 0.14145234 -0.012847029 0.123844385
000220 4d c7 84 3d e8 2c 80 bd fa 81 2c be 59 c7 ee bb
       0.06483326 -0.06258565 -0.16846457 -0.0072869477
000230 5a 15 72 bd d7 88 59 3c 08 5c c2 3c 5b 15 ed 3d
       -0.059102394 0.013277254 0.023725525 0.11576339
000240 d7 05 26 bd c4 09 69 3d 73 4b ad bb 79 46 18 be
       -0.040532913 0.05689408 -0.0052885353 -0.14870633
000250 a5 ee 56 3d ca ed 04 be 7e 7a 12 be ab 8f e9 bd
       0.052473683 -0.12981334 -0.1430454 -0.114043556
000260 89 1e 34 3e 12 58 8e 3d 2b 63 a2 3d 02 88 dd bd
       0.17589773 0.06950392 0.07929071 -0.10816957
000270 7d 32 78 bc 4a b6 88 3b 3b bc 7c 3d b4 b4 18 3e
       -0.015148756 0.004172121 0.061702948 0.14912683
000280 c7 b8 11 bc 81 6a 29 3d 69 8c e9 bd 0f c1 a1 3d
       -0.008894152 0.041361336 -0.11403734 0.07898151
000290 64 ab d7 bd c8 d6 0a 3e 57 42 1f 3d 22 fc b5 ba
       -0.10530737 0.13558495 0.038881626 -0.0013884346
0002a0 32 dc 25 3e 97 4b 8a 3c eb 36 01 bc 03 60 00 3e
       0.16197279 0.016881747 -0.007886629 0.12536626
0002b0 6e ce 7e bd 7c 13 61 bc 9e a7 41 3e d5 95 38 be
       -0.062208585 -0.013737556 0.18911597 -0.18025906
0002c0 f4 b9 04 3e 24 29 79 3c a6 eb 45 3d 73 61 ea 3c
       0.1296156 0.015207563 0.048320435 0.02861092
0002d0 ca 8e 33 bc a9 e5 ac bd b6 34 34 bd b1 e6 63 3d
       -0.0109593365 -0.08442242 -0.04399558 0.055639926
0002e0 08 03 32 3d 41 35 13 3e d5 22 ad 3d 16 05 57 3d
       0.043459922 0.14375784 0.08453909 0.052495085
0002f0 e3 53 04 3e 30 41 89 3d 45 e2 32 3e 6e 12 6c bd
       0.12922625 0.06701887 0.17469127 -0.057634763
000300 54 00 f1 bd 14 23 7f 3e b2 36 5d bd 3b 9f cd bc
       -0.11767641 0.24915725 -0.05400724 -0.025100341
000310 44 f6 01 be 1c 85 b5 3d 37 d5 61 bd ef ed 01 3c
       -0.12691599 0.08863279 -0.05513498 0.007930263
000320 e6 2b 06 3e 05 a0 16 bc 6c 22 de bb 13 99 11 3e
       0.13102683 -0.009193425 -0.0067790058 0.1421855
000330 1d 43 69 bc d3 c7 1f bd 1c 88 fd bd b4 31 ce bb
       -0.014237192 -0.039008927 -0.123794764 -0.006292546
000340 75 f4 22 bc 4d 92 25 bd c8 de eb 3d cb 61 ae bd
       -0.009945978 -0.040422726 0.115171015 -0.08514746
000350 5d dd b5 3d 22 ce 01 be 18 0c 4a be 41 88 92 3d
       0.08880112 -0.1267629 -0.19731176 0.071548946
000360 1a aa b0 3d 70 8c ac bd 58 66 c8 bc a4 00 eb 3c
       0.08626194 -0.08425224 -0.024462864 0.028686829
000370 7d 69 b0 bd 01 14 80 3e 8c ca 11 3e e3 43 6f 3e
       -0.0861387 0.25015262 0.14237422 0.2336574
000380 0b 18 d8 bd f6 92 61 3c 5a fd 0e be dc 69 a5 bd
       -0.10551461 0.013767948 -0.13963833 -0.08076832
000390 96 6e da 3c 46 92 cf ba 4e f8 b0 bc 16 40 88 bc
       0.02666406 -0.001583644 -0.021602776 -0.016632121
0003a0 01 ea f3 3d ce ff 40 3d 0d 53 93 3d 70 a6 01 be
       0.11909867 0.047118954 0.07193575 -0.12661147
0003b0 16 2a 15 3e 03 86 55 bd f1 1a 98 ba f5 06 cb bd
       0.14566836 -0.052129757 -0.0011604709 -0.09913436
0003c0 df 6a eb bd c3 1c aa 3c a4 0f 86 bd 8b 42 e9 bd
       -0.114949934 0.020765668 -0.06545952 -0.11389645
0003d0 cc 34 57 3d 32 4a 6d bd 56 10 41 bc 63 86 39 3e
       0.052540585 -0.057932086 -0.01178368 0.1811767
0003e0 7b 88 bf bd bf 20 3d 3e 13 5f 71 3d ad ee 55 bb
       -0.093522035 0.18469523 0.05892856 -0.0032643483
0003f0 e7 03 db bc 4f 0f ca 3c 74 2e 61 bc 68 92 08 3e
       -0.02673526 0.024665503 -0.013743985 0.133371

network_body._body_endoder.seq_layers.2.bias f4 [128]
000000 57 65 94 3d 19 68 ab ba c7 04 c5 3d dc f8 e5 3d
       0.072458915 -0.0013077288 0.09620052 0.11229107
000010 25 82 83 bd 82 47 76 3c f3 9a 26 3d 83 9d 96 3a
       -0.064213075 0.015031697 0.040675115 0.0011491034
000020 9e 81 52 bd 53 d7 6a 3d 11 79 94 bd c1 03 ac bd
       -0.051393144 0.057334255 -0.07249654 -0.083991535
000030 ff f9 11 3d 59 18 e7 3a c4 4b 8e 3c 29 7d 18 bd
       0.035638805 0.0017631158 0.017370112 -0.037228737
000040 67 bd 17 bd 0a 7a 6b bd 90 33 a4 3d a7 34 22 bd
       -0.037045863 -0.057489432 0.08017647 -0.039600994
000050 aa fd 9d bd 13 46 b0 3d 2e 85 d6 bd ad 26 c3 3b
       -0.07714398 0.086071156 -0.10474621 0.0059555382
000060 6c 7c 94 bc 46 13 33 ba 90 90 e1 3c 28 dc bc 3b
       -0.018125735 -0.000683118 0.027534753 0.0057635494
000070 5d 0f 8f bb ef e2 9c 3d 09 9b 93 3d 8b 46 d4 3d
       -0.004365845 0.07660472 0.07207305 0.103650175
000080 0f 2b 3c 3d 0f f9 0b 3b 23 e1 0a bd 4c 58 5c 3c
       0.0459395 0.0021358167 -0.033906113 0.013448786
000090 05 98 0f bc a4 44 ac 3d a4 03 a4 3b 1a 9e a4 3b
       -0.008764272 0.0841153 0.005005317 0.00502373
0000a0 2f 35 a0 bc ce 8d 79 bd 47 68 e3 bb 34 fa 52 bd
       -0.01955661 -0.06092625 -0.006939921 -0.051508144
0000b0 7e 4a a5 bd 7c a0 ab bd 41 f0 ad 3d 22 d8 5a ba
       -0.08070849 -0.08380219 0.084930904 -0.00083482463
0000c0 d0 7c b1 bd b3 a8 6c 3d db a7 be 3d 21 fe ab 3d
       -0.08666384 0.05777807 0.0930936 0.083980806
0000d0 8e 2a cf 3c de fd 16 bc 0d e0 ed 3c 55 eb 7b 3b
       0.025288846 -0.0092158 0.0290375 0.003843983
0000e0 4a d8 0e 3c 15 0e a9 3d d1 16 5c bc cb 13 bb bc
       0.0087185595 0.08254639 -0.013433174 -0.022836586
0000f0 84 7a 03 3d 8e 6b 89 bd 26 67 ec 3d 72 e3 b7 3c
       0.032099262 -0.067099676 0.115431115 0.022447322
000100 44 ef a7 3d d8 74 de 3c 55 a8 68 3d 40 d8 ad bc
       0.08199933 0.027155325 0.05680116 -0.02122128
000110 65 e5 05 bd c9 f6 37 3c d6 58 22 3e 91 c0 54 3d
       -0.03268947 0.011228272 0.158542 0.051941458
000120 4d f9 81 bd 42 16 d8 3c dd 55 17 3e 58 7e ef 3c
       -0.063463785 0.0263778 0.14778848 0.02923505
000130 d9 74 ce 3d 3e c9 61 3d 98 7a 71 3d 19 d6 b6 bd
       0.10080881 0.05512356 0.058954805 -0.08927555
000140 92 54 86 3d de 2a e4 bc ac e7 d4 3d 56 b5 64 3c
       0.06559099 -0.027852472 0.103957504 0.0139592495
000150 0e b1 85 3c ef 10 24 bd 63 87 f6 3d 9f fa f9 3c
       0.016319778 -0.04005521 0.12037542 0.030515013
000160 e8 8e 31 3c 8d 9c 03 bd f9 7b 36 bc de d3 29 3d
       0.010837294 -0.03213172 -0.011137956 0.041461818
000170 2f f4 01 3d 79 cf b8 3c ef 0c df 3d 70 e5 57 bc
       0.031727012 0.022559868 0.10891139 -0.013177261
000180 a8 8e a2 bd b8 d1 10 bd e3 ef 6d bd a1 d8 9a bd
       -0.07937366 -0.035356253 -0.058090102 -0.0756085
000190 1c 91 aa 3d 3c 92 bc 3c 64 84 db 3c f3 7d 3c bd
       0.08328459 0.023018949 0.026796527 -0.046018552
0001a0 ad 0a 91 3c 08 8a 41 bd 51 89 a6 3d d0 26 87 bd
       0.017705286 -0.047250777 0.0813166 -0.065992
0001b0 37 6e 79 bc 6d ff 70 bb 2f 0d 68 bc 6c 45 4b 3d
       -0.015224031 -0.003677334 -0.014163299 0.049626753
0001c0 56 bd 17 bc 96 ea 01 be b9 73 02 3d d4 c3 9a 3d
       -0.00926145 -0.12687144 0.031848643 0.075568825
0001d0 79 ff 80 3c 2c 7c 55 3c 84 86 88 3d 31 99 38 bc
       0.015746819 0.013030093 0.06666282 -0.011266992
0001e0 04 a1 cc 3c a9 77 05 3c 38 38 13 bd e2 93 15 bd
       0.024979122 0.008146205 -0.035942286 -0.036517985
0001f0 62 4d fc bd 4f 2c 64 3d 7b 38 e2 3d cf 8d b7 bd
       -0.12319447 0.05570632 0.11045929 -0.08962595

action_model._continuous_distribution.log_sigma f4 [1, 2]
000000 cc 1d ab bd 3e 18 b1 bd
       -0.08355293 -0.08647202

action_model._continuous_distribution.mu.weight f4 [2, 128]
000000 11 96 fe bc 57 85 3c bc 1e c4 ab 3d fe 64 05 3e
       -0.031077417 -0.0115064 0.08387016 0.13026807
000010 80 7e 02 bc 86 14 de bb 36 0e 52 3d 4c cf 81 3c
       -0.00796473 -0.006777349 0.051283084 0.015845917
000020 23 d5 e4 ba d3 da 08 bd 6d 7b 19 3c 8f ee 07 bd
       -0.0017458539 -0.033411812 0.009367806 -0.03318649
000030 88 c6 14 3b f6 c8 2f bd 1a 04 dc bc 1d 30 c1 bd
       0.0022701342 -0.04291626 -0.026857425 -0.09433005
000040 d1 79 2a bd da df 87 b9 d3 9f 60 3d fd aa ca bc
       -0.04162008 -0.0002591599 0.05483992 -0.024739737
000050 8e 75 91 3b 18 61 61 bd fa 9f 63 bc 5c ee 3a bd
       0.0044390624 -0.055024236 -0.013893122 -0.045637473
000060 64 04 85 3d 17 d4 7b 3c 49 6b 2e 3c 95 90 86 3d
       0.06494978 0.01537039 0.010645696 0.065705456
000070 6f 45 8c bc ba 3d a1 3d 8d 58 f3 3c 2c cf ec 3d
       -0.017122952 0.078731015 0.02970531 0.115629524
000080 ab 92 19 bd e8 98 87 bc 7c 54 06 bd d9 bb 63 bd
       -0.03749339 -0.016552404 -0.032795414 -0.055599067
000090 51 19 48 3b a0 e1 a3 3d 47 2c 47 bd 22 76 9b bd
       0.0030532668 0.08002019 -0.04862621 -0.075908914
0000a0 c6 95 ab bc 64 f2 2c bd 00 5f 58 bc b9 d7 6e 3c
       -0.020945441 -0.04222335 -0.0132062435 0.0145777995
0000b0 17 e2 32 3c 6d d5 f0 bc 8f 37 c3 3c 84 68 98 3b
       0.010918162 -0.029398644 0.023830203 0.004651131
0000c0 59 70 91 3c c2 11 bc bd 61 14 5d bd 9b 33 83 3c
       0.017753767 -0.091830745 -0.053974513 0.016015818
0000d0 35 02 96 3c df 91 07 bd 5a 90 15 bd 9c 68 b5 bc
       0.0183116 -0.033098098 -0.036514618 -0.022144608
0000e0 28 d7 79 bd 7e c4 86 3d 18 0c a3 bd cd 76 02 bd
       -0.060996205 0.06580447 -0.07961291 -0.03185158
0000f0 b1 23 7d bd 41 b5 19 bd 48 47 e5 3d 86 0c 95 3d
       -0.061801616 -0.037526373 0.111952364 0.07277779
000100 4a db 0d 3d 77 0e c8 3b 48 63 15 3d b6 b4 b8 bc
       0.03463296 0.00610524 0.036471635 -0.022547107
000110 b3 8d 93 bc d9 19 c8 3b 6b 84 0d 3e b5 b8 b1 bc
       -0.018011903 0.006106597 0.13820045 -0.02169452
000120 aa d6 84 3c 61 1c 86 39 80 c6 e3 3d d7 50 98 bb
       0.016215641 0.00025579616 0.11121845 -0.0046483087
000130 20 31 12 bd 4f 63 5d bd 14 9f 1c bd 97 3a 88 bc
       -0.03569138 -0.054049786 -0.038237646 -0.0166295
000140 89 79 16 bd af 67 42 bd 67 ab b4 bd ac 30 49 bc
       -0.036737 -0.04746216 -0.08821755 -0.012279671
000150 29 47 2e 3b d0 00 c6 bb 23 50 da 3d a6 88 b5 bc
       0.0026592708 -0.0060425773 0.10659816 -0.022159886
000160 59 36 70 3d be 5d 90 bc 9c 46 7b bc 2b 62 c3 bb
       0.05864558 -0.017622825 -0.015336659 -0.0059626303
000170 0d 82 31 3d 56 ef 24 3d 01 75 0e 3e 40 00 2a 3c
       0.043336917 0.04026731 0.13911821 0.010376036
000180 ba 10 bc bc d9 c8 ac bd 18 19 9f bb 2c 57 00 bc
       -0.022957195 -0.08436746 -0.0048552863 -0.007833283
000190 b7 05 8d bc b6 7e a2 3a 3d d3 04 bc 34 cd c5 bc
       -0.01721464 0.0012397382 -0.008107004 -0.0241457
0001a0 33 5b 8d bc 3c d8 b5 bc 8c dc aa 3d cb 95 01 bd
       -0.017255401 -0.022197835 0.08342847 -0.031636994
0001b0 a4 c4 b4 3c 23 c4 b5 bd 4f cc 96 bd 84 fd ac bc
       0.022066422 -0.08875301 -0.073631875 -0.02111698
0001c0 e4 61 a1 3c da 20 a6 3b 1a 66 1d bd 11 26 b3 3d
       0.019699998 0.005069834 -0.03842745 0.08747495
0001d0 0e d6 38 ba f1 95 6e bd 0d 55 98 3b b0 63 38 bc
       -0.00070509396 -0.058248464 0.0046488107 -0.011254236
0001e0 b1 ff e2 bd fd f5 d2 bc 59 0f 2c bd a9 74 3d bd
       -0.110839255 -0.025752062 -0.042006824 -0.046253834
0001f0 66 c8 85 3c 0d 03 7a 3c 47 d2 29 bd c6 ee ed 3c
       0.016330909 0.015259516 -0.0414603 0.02904452
000200 a4 a0 eb 3d 65 a7 48 3d 11 54 0c 3d 69 d1 ad 3c
       0.11505249 0.048987765 0.03425986 0.021218019
000210 e4 58 1d 3d 0a 0b 56 3d 3e 72 65 bd 41 ec 82 3c
       0.03841485 0.05225662 -0.056017153 0.015981795
000220 c0 5a 18 3d 28 58 9c bc 73 6a 13 3d d6 16 1e bb
       0.03719592 -0.019085005 0.03599019 -0.0024122498
000230 4d f4 de 3c 21 4a 40 bd 84 15 89 bc 9d 1e 35 bd
       0.027216101 -0.046945695 -0.016733892 -0.04421865
000240 b3 7a 97 3c 58 87 7f ba c8 ee 9f 3d 0b 0e bc 3c
       0.018491125 -0.0009747646 0.07809216 0.022955915
000250 21 29 02 3d 85 fd e0 bd 2a 3d 7a 3c 20 f3 8a bd
       0.031777505 -0.10985855 0.015273372 -0.06784654
000260 0a e3 8e 3c 33 65 90 bc 53 1f 39 3d e4 d4 c3 bc
       0.017442245 -0.01762638 0.04519589 -0.023905225
000270 9a c2 60 3d c2 f5 47 bd 4d 73 ab 3d 9d 65 45 3d
       0.054873087 -0.048818357 0.08371601 0.04819261
000280 d6 fa d2 3d cc 7c 6a 3d 80 d9 25 3d 8f ea 7f 3c
       0.103017494 0.05724792 0.040490627 0.015619888
000290 dd b9 d7 3c 2b af 1e bd ca ec b8 3b 52 5c 96 bb
       0.026333744 -0.038741272 0.005643462 -0.004588642
0002a0 b9 95 b3 bb 50 ae d6 3c b3 8a ec bc d1 9f 1f 3c
       -0.005480495 0.026206166 -0.02887473 0.009742693
0002b0 38 85 bb 3b 99 01 1a 3b 19 a7 a0 3d db f8 9b bd
       0.005722668 0.0023499487 0.07844371 -0.07615825
0002c0 23 77 10 3c 5c d4 e8 bd d4 46 d5 bd 27 6b f6 bd
       0.008817467 -0.11368629 -0.104139 -0.120321564
0002d0 76 98 07 bd c0 6d de 3c 52 9d 4f 3c 9f 4a 33 3d
       -0.033104382 0.027151942 0.012671785 0.043772336
0002e0 72 81 19 bc 1b 25 46 3d 10 7b 25 3d 30 3d 11 bd
       -0.009369241 0.04837523 0.040400565 -0.035458744
0002f0 08 45 f0 bc b6 44 ce bb b2 ad 93 bc 59 89 7c bc
       -0.029329792 -0.006294812 -0.01802716 -0.015413606
000300 f8 a4 ac 3d ae 44 42 3d de 20 af 3d 7c f6 18 3d
       0.08429903 0.04742878 0.08551191 0.03734444
000310 5a 2d b1 bc 68 9a 8d 3c 53 40 79 3d 8e 85 31 bd
       -0.02162807 0.01728554 0.06085236 -0.04334026
000320 59 ff 83 bd 35 51 dc bd 17 a3 2c 3d 95 56 69 bd
       -0.06445188 -0.107576765 0.042147722 -0.056967337
000330 6b 0a e5 bd cb 7e 6a bd 2d 56 45 bd 2d 1b 69 3d
       -0.11183628 -0.057249825 -0.048177887 0.056910682
000340 27 f6 93 bd 76 f7 90 bc de 2f c9 bc 5f 9e 3d bd
       -0.07224684 -0.017696124 -0.024558958 -0.046293613
000350 52 a4 73 bd 28 5c f1 3c ab 5c a7 3c f7 16 b5 bd
       -0.05948288 0.029462889 0.02042993 -0.08842271
000360 0b 91 e7 3b 48 50 b0 3c 8c 43 82 3d 0a d5 b8 bd
       0.007066851 0.021522656 0.0636054 -0.09025009
000370 13 35 b5 3d 1a ed df bb 28 99 74 3c 09 73 73 bd
       0.08848014 -0.0068336846 0.014929093 -0.059435878
000380 4a 25 cb 3c ea 61 7f bb 34 a4 a8 bc d9 ea 41 3c
       0.024798054 -0.0038968273 -0.02058611 0.011835777
000390 dc b1 ef bd e0 2a 9d 3d 35 44 51 3d 1d 60 33 3d
       -0.11703846 0.076741934 0.051090438 0.043792833
0003a0 c6 79 ce 3d 2a 50 58 3d e9 15 84 3d 30 15 ea 3c
       0.1008182 0.052810825 0.064494915 0.028574556
0003b0 e9 76 5a bc 6a 26 9b bc d8 49 d5 3b 10 cb 96 bd
       -0.013334014 -0.018939216 0.006509047 -0.0736295
0003c0 c9 40 21 3d 70 2e af bc 9b 90 7e 3d 54 51 86 3d
       0.039368425 -0.021384448 0.062149625 0.06558481
0003d0 11 e9 d5 bc 05 40 94 bc c0 7d b3 3d b5 5f 50 3b
       -0.026112111 -0.018096933 0.08764219 0.0031795327
0003e0 f6 e2 9a b9 65 9e 7b 3d ae 4d dd bb a1 ba 1a bc
       -0.00029542268 0.061430354 -0.006753645 -0.00944391
0003f0 c0 39 85 3b 47 4f 3d bd 14 0f df 3d b5 ee ce 3c
       0.004065722 -0.046218183 0.10891548 0.025260309

action_model._continuous_distribution.mu.bias f4 [2]
000000 62 10 fd 3c b8 8d 13 bb
       0.030891601 -0.002251489

action_model._discrete_distribution.branches.0.weight f4 [1, 128]
000000 7b fe d9 ba aa 77 03 3c ea bf 7c 3b 73 a8 9e bb
       -0.0016631627 0.008024136 0.0038566538 -0.004841858
000010 53 ce 67 bb 77 ed 41 3b 47 62 34 bc bb c9 69 3c
       -0.0035370782 0.0029591003 -0.011009759 0.014269288
000020 e7 c5 18 3b 5d 38 36 bb 95 4a b9 3b 8b 0e 5b bc
       0.0023311318 -0.0027804591 0.005654643 -0.0133701665
000030 d9 a7 b4 bc 1f 87 32 bb 12 fb 46 bc 77 09 1c bc
       -0.022052692 -0.0027241183 -0.012144821 -0.009523741
000040 be aa 23 bb d2 32 5b 3a b0 ba 7e bb 3d fe 6d 3c
       -0.0024973596 0.000836176 -0.0038868599 0.014525947
000050 8c 8c 0b bb 07 32 b9 3c cd ba 23 3c c1 6a 08 bb
       -0.002129349 0.022606863 0.009993267 -0.0020815583
000060 e2 c1 42 3c 8f 6a 85 bc cc 42 4b 3b 26 eb 08 3c
       0.011887046 -0.016286163 0.0031015156 0.008356845
000070 18 ac 76 3c b0 4e 7f 3c 5d 36 f1 3b 2b cc 0b 3c
       0.015055679 0.015582725 0.007361217 0.008532564
000080 de 32 17 3b 62 ba da bb 7f 71 d2 3b 13 1c a3 3b
       0.002307109 -0.0066750506 0.006422221 0.004977712
000090 c5 1e e0 3a 1a f1 ad b8 b2 71 b5 bb 3d 02 ad 3b
       0.0017099014 -8.2941915e-05 -0.005537235 0.005279808
0000a0 d6 47 22 bb 79 db 24 3a 68 9f 54 3b 79 cb 33 bc
       -0.0024762056 0.00062888075 0.0032443646 -0.010973805
0000b0 84 26 03 ba a2 a5 1f 3c 67 0a df bc 8f 17 6c bb
       -0.00050029927 0.00974408 -0.02722664 -0.0036024784
0000c0 b2 65 8d 3c 16 8e a8 39 78 f0 74 3c 0d 32 ed bb
       0.017260406 0.0003214932 0.01494991 -0.0072386325
0000d0 42 5a f8 bb ae 22 0e 3c 5b e3 49 3c ca 19 3a 3c
       -0.007579119 0.0086752605 0.012322272 0.011358688
0000e0 d4 ba 09 3c cf a1 bd ba 54 2a cb ba 7e 65 ad 3b
       0.00840636 -0.0014467778 -0.0015500286 0.00529164
0000f0 37 ff 53 bc 7b bd 82 3b 5d 57 3a bc 71 e4 33 bc
       -0.012939266 0.003989873 -0.011373368 -0.010979758
000100 49 e7 2a bb 66 bb 01 bc 72 c8 2c 3b 35 1a 52 3b
       -0.0026077798 -0.007918214 0.0026364592 0.0032059078
000110 d0 52 d5 3a 20 e8 d2 3b 5f 2e dc 3b 58 cf 5c 3b
       0.001627529 0.006436363 0.006719395 0.0033692922
000120 8d 7f f2 bb b0 d7 a3 3b 60 57 fe b7 72 22 d2 bb
       -0.007400459 0.005000077 -3.0319847e-05 -0.0064127976
000130 6f fa 24 b9 4c e0 87 3c 05 f0 24 bc 98 02 5c 3c
       -0.00015733553 0.016586445 -0.010066991 0.013428353
000140 73 eb 21 3c e7 60 37 3c e0 96 d0 ba 8c bb 29 bc
       0.009882796 0.011192537 -0.0015914105 -0.010359656
000150 72 14 40 bc d5 3d ab bc ed 52 45 bc 29 7a 09 bc
       -0.011723625 -0.020903507 -0.012043697 -0.008390942
000160 7c 70 22 3c 3f 0e b9 3a 63 c6 da 3a e3 db f7 bb
       0.009914514 0.0014118626 0.0016691204 -0.0075640543
000170 67 48 8e 3c 89 51 84 3c 09 79 49 bc 9d 89 eb 3b
       0.017368509 0.01615216 -0.012296923 0.0071880356
000180 fb 7b 8b bb bf c0 b0 3b 4b 80 c5 bb 29 66 8f 3b
       -0.004256723 0.005394071 -0.0060272566 0.004376192
000190 fb 9d be bb c2 f1 03 3c 65 62 ed 3b 57 10 9d 3b
       -0.0058171726 0.008053245 0.0072443956 0.0047932076
0001a0 aa c9 2b bc 28 5f 5b 3c d5 4a ce ba 23 ea 02 ba
       -0.010485092 0.013389386 -0.0015738854 -0.00049939955
0001b0 83 4e 4f 3c 9a ed 8d 3a b6 66 a8 3b 47 8b 16 3b
       0.012652996 0.0010828257 0.005139197 0.00229712
0001c0 1b 92 b0 bc 13 0d 99 3b b7 10 ac 3b 33 84 24 3a
       -0.021554044 0.004670748 0.005251016 0.0006275803
0001d0 b3 d6 d5 bb 8e 41 38 bc f7 22 29 bc 1a 09 03 bb
       -0.0065258383 -0.011246098 -0.010323278 -0.0019994439
0001e0 7b bc a9 bb ef 91 98 bb 44 cc 09 bc f5 20 d6 bb
       -0.0051799393 -0.0046560685 -0.008410517 -0.0065346905
0001f0 bb 91 5b 3c a1 2f 36 bb 3f 2c 91 3b 0f 1e 90 3a
       0.013401444 -0.0027799385 0.0044303234 0.0010995286

exp_avg f4 [128, 8]
000000 3f f6 3e bb df 5f 0d ba 78 6c 7d bb 76 e5 bc ba
       -0.0029138473 -0.0005393009 -0.0038669389 -0.0014411646
000010 b5 60 0d ba 88 b3 1d bb d5 02 ee ba 81 25 93 35
       -0.00053931336 -0.0024063308 -0.0018158803 1.0963269e-06
000020 da b9 30 ba 4b 41 de b9 78 0a 01 bc c7 09 0f bb
       -0.0006741561 -0.00042391787 -0.007876031 -0.0021825896
000030 38 47 de b9 35 7b bc 39 82 26 1a ba da af 3b 36
       -0.00042396202 0.0003594995 -0.0005880372 2.796753e-06
000040 2d a4 e2 b9 e1 52 14 b9 08 46 a4 ba c8 db 16 b9
       -0.000432284 -0.00014145255 -0.0012533078 -0.0001438699
000050 7e 84 14 b9 c0 c6 ef 38 22 8a 85 ba 03 e9 5a 37
       -0.00014163737 0.00011433428 -0.0010188262 1.3048065e-05
000060 47 21 a9 ba f2 4f d1 b9 77 08 a8 bb d1 4f 33 bb
       -0.0012903594 -0.0003992315 -0.005127962 -0.0027360807
000070 33 50 d1 b9 8d cc bd ba d2 6c 04 b9 97 60 e7 34
       -0.0003992334 -0.0014480517 -0.0001262904 4.309738e-07
000080 c8 ee 07 ba b2 a1 47 3a 0a bd 17 3b 84 fb 83 39
       -0.00051854225 0.0007615342 0.0023153448 0.0002517366
000090 b5 a2 47 3a b1 3f 2e 39 4f 90 24 bb 7b 6d 27 35
       0.0007615493 0.0001661766 -0.0025110429 6.2371663e-07
0000a0 20 e1 9d ba f2 13 2f b8 aa f1 71 3b c7 c6 b5 39
       -0.0012045242 -4.1741827e-05 0.0036917725 0.0003467111
0000b0 74 0c 2f b8 8d 43 1d 39 84 f4 d6 3a bd 1e d5 b4
       -4.173485e-05 0.00014997851 0.0016399776 -3.9696707e-07
0000c0 15 33 41 bb dc 00 9a 39 65 ee c9 bb 16 d4 53 bb
       -0.002947991 0.0002937381 -0.006162452 -0.0032322458
0000d0 19 00 9a 39 e3 cf 53 bb 30 49 04 bc 1f 5a 30 36
       0.00029373242 -0.0032319955 -0.00807409 2.62785e-06
0000e0 72 64 7c 3a e2 9e a5 39 92 9e ed ba 89 32 83 3a
       0.00096280046 0.0003158963 -0.0018128923 0.0010009567
0000f0 7a 9a a5 39 40 5f c7 3a 1f ef b7 b9 75 8c 1b 36
       0.00031586346 0.0015210882 -0.0003508264 2.3178557e-06
000100 f5 2b 21 bb 1a ce a9 b8 b4 ea eb b9 76 57 b0 ba
       -0.002459285 -8.0969374e-05 -0.0004499756 -0.00134538
000110 d2 d5 a9 b8 8c 8b 7a bb 68 cd 51 bb df 12 1a 35
       -8.098375e-05 -0.003823015 -0.00320133 5.739693e-07
000120 02 8b 1c bb ea 58 09 ba 9b f8 f5 bb 1e 7b 90 bb
       -0.0023886566 -0.00052393845 -0.0075064427 -0.004409208
000130 1b 57 09 ba 33 f6 5d bb 54 a2 09 bb 3d db cd b5
       -0.0005239115 -0.003386867 -0.0021001296 -1.5337497e-06
000140 72 88 42 ba 72 fc d3 b8 7f 7b 90 3a 25 97 0c 3b
       -0.00074208446 -0.00010108286 0.0011023133 0.0021452394
000150 b3 0a d4 b8 c8 36 d0 38 05 9c 2b bb 60 88 e5 35
       -0.00010110941 9.928417e-05 -0.0026185524 1.710152e-06
000160 00 f1 7a 38 c2 88 f3 39 a8 82 b8 bb b8 3c bb 39
       5.9829094e-05 0.00046450464 -0.00563081 0.00035712658
000170 20 40 f3 39 c0 c3 16 3b ac 25 15 3b c1 03 1e 38
       0.0004639635 0.002300486 0.002275805 3.767363e-05
000180 66 14 e2 3b de 2b b6 b9 d0 f2 36 bb 06 20 75 3b
       0.0068994043 -0.0003474643 -0.0027915724 0.003740312
000190 88 2b b6 b9 c4 75 07 3c 17 57 18 3b 63 62 7a 35
       -0.00034746178 0.008267824 0.002324527 9.327543e-07
0001a0 a6 87 d5 39 7c 7f 5c b8 00 43 86 3b f8 79 30 ba
       0.00040727592 -5.2570816e-05 0.0040973425 -0.0006732042
0001b0 20 ae 5c b8 dc 99 1c bb a5 7e 9e 3a 42 31 42 36
       -5.2614254e-05 -0.0023895418 0.0012092186 2.8936925e-06
0001c0 8c 61 b0 3a 71 5c 4d ba 50 76 3d bb ea a9 00 3b
       0.0013456806 -0.0007833904 -0.002890963 0.0019632527
0001d0 88 5d 4d ba e4 94 05 3b 2e 47 89 ba 80 9c 8e 35
       -0.00078340666 0.0020382935 -0.0010473484 1.0625372e-06
0001e0 f2 62 6a 3a 31 60 99 39 5d 4e 3e bb fb e9 b8 3a
       0.00089411356 0.00029254102 -0.0029038407 0.0014107818
0001f0 95 5e 99 39 78 c9 4f 3b 7e 99 8a bb 8c 2e da 35
       0.00029252903 0.0031705778 -0.0042297235 1.6255813e-06
000200 a0 61 c0 ba 82 87 51 ba 3f cf 03 bc 0a 16 7a bb
       -0.0014677532 -0.00079929095 -0.008045017 -0.003816011
000210 b1 73 51 ba 3c 98 49 bb cd 20 43 ba 37 98 ac b7
       -0.00079899566 -0.0030760905 -0.00074435474 -2.0574878e-05
000220 ae ba 97 b9 c0 8b cb b8 00 c4 56 39 05 84 92 3a
       -0.00028940052 -9.705825e-05 0.00020481646 0.0011178261
000230 ae c0 cb b8 d0 73 71 b8 9a 58 e4 3a 51 5e da 36
       -9.715684e-05 -5.7566736e-05 0.0017421425 6.507886e-06
000240 d6 53 42 ba 27 c0 c1 b9 a4 80 25 bb c2 a2 12 ba
       -0.0007413005 -0.00036954993 -0.0025253678 -0.0005593711
000250 8a c9 c1 b9 d5 2d cf ba b2 09 bf 38 1c 77 a5 36
       -0.00036961987 -0.0015806506 9.1093956e-05 4.9312494e-06
000260 81 6a 91 ba e4 aa 95 39 10 79 2d bb ad 0a 8e ba
       -0.0011094363 0.00028546818 -0.0026469864 -0.0010836922
000270 1e a0 95 39 29 73 28 ba 89 79 6d 3a 3b ae c6 36
       0.0002853879 -0.00064258516 0.00090589427 5.921143e-06
000280 28 02 87 ba 94 73 1f ba e4 34 43 bc d7 f2 49 bb
       -0.0010300325 -0.0006082591 -0.011914466 -0.003081491
000290 7f 6f 1f ba 1c bf 19 39 52 61 37 ba 1d eb 57 b6
       -0.0006081983 0.00014662411 -0.0006995398 -3.217435e-06
0002a0 f7 e6 05 3a 5c c6 d9 b8 48 ab 63 3a bb 20 9a b9
       0.0005107964 -0.00010384314 0.00086848857 -0.00029397555
0002b0 22 c7 d9 b8 5c 33 02 ba 92 79 83 3b 24 e5 d9 34
       -0.00010384458 -0.00049667596 0.004012295 4.0586121e-07
0002c0 24 f2 26 ba 1b d7 2c b9 10 18 2f 3b 28 64 19 3a
       -0.0006368479 -0.00016483331 0.0026717223 0.0005851411
0002d0 bd e8 2c b9 1a 73 94 39 c4 fe b6 39 5b 76 8a 36
       -0.000164899 0.00028314517 0.0003490356 4.126499e-06
0002e0 9e 32 0f bb 40 5e a9 b9 25 c0 94 3a 10 2d 74 3a
       -0.0021850239 -0.00032304414 0.0011348767 0.0009314576
0002f0 0e 61 a9 b9 ae 28 6f bb 6e 2e d2 b9 51 58 c6 35
       -0.00032306503 -0.0036492753 -0.00040088914 1.4777853e-06
000300 b6 82 71 39 49 f1 86 38 6e f6 3e bb 22 0e c0 ba
       0.00023032245 6.434561e-05 -0.0029138583 -0.0014652649
000310 d1 d7 86 38 34 4c a1 3a 06 f9 a6 3b 9e 09 69 36
       6.429817e-05 0.0012306035 0.005095604 3.4725304e-06
000320 ab d2 1d bb 76 51 0b 3a 12 c4 84 b9 50 00 20 3a
       -0.0024081867 0.0005314568 -0.00025323086 0.0006103562
000330 3f 4e 0b 3a f9 09 34 ba 61 54 4b bb 63 fb 8d 36
       0.0005314089 -0.0006867941 -0.0031025636 4.2313927e-06
000340 e2 b5 cd 39 f4 9b c9 b7 2f cd 0b 3a e2 71 db b7
       0.0003923616 -2.4033689e-05 0.0005333004 -2.6159865e-05
000350 94 95 c9 b7 ae 9c 6c b8 02 4f 55 3a 0d 1a 80 b4
       -2.403072e-05 -5.6412704e-05 0.0008137078 -2.3860812e-07
000360 c3 70 71 ba 77 13 61 b9 06 d5 60 3b 4e 95 94 b9
       -0.0009210223 -0.00021464923 0.003430666 -0.0002834
000370 4f 10 61 b9 56 8d 79 ba da 6b ab bb a8 7e 09 35
       -0.00021463748 -0.0009519657 -0.005231363 5.1220786e-07
000380 18 81 37 b9 d0 03 a7 b9 70 b8 26 3b 92 6c 37 3b
       -0.00017500331 -0.00031855563 0.0025439523 0.0027988297
000390 f9 02 a7 b9 18 c4 46 b8 e1 4e 25 bb 14 49 80 b4
       -0.00031854937 -4.7389505e-05 -0.0025224017 -2.389503e-07
0003a0 30 03 5f 3a d9 7c b3 39 c0 d0 51 3b 50 ad a8 3b
       0.000850725 0.0003423456 0.0032015294 0.0051476136
0003b0 15 5d b3 39 78 b1 90 3b 26 ad a0 3a 4a 69 88 37
       0.00034210892 0.004415687 0.0012258634 1.6261492e-05
0003c0 18 63 89 bb fe 9f 15 ba 29 e8 3c 3b aa cd ae bb
       -0.004192721 -0.00057077396 0.0028824902 -0.0053345757
0003d0 89 a5 15 ba 86 9a e6 bb f4 6b 89 3a 71 fe e6 36
       -0.00057085656 -0.0070374636 0.0010484443 6.884155e-06
0003e0 ae 13 6a ba c4 f0 b5 b9 86 c4 27 bb 61 26 44 3b
       -0.0008929324 -0.00034702395 -0.0025599315 0.0029930102
0003f0 f7 2e b6 b9 e6 57 51 3a 35 f1 c7 3a 17 ff 08 38
       -0.00034748737 0.0007985815 0.001525438 3.2662498e-05

exp_avg_sq f4 [128, 8]
000000 d2 42 49 3a 4c b8 dd 37 e8 fc 2c 3a fe 06 44 3a
       0.00076774985 2.6431073e-05 0.0006598965 0.00074778486
000010 39 36 dd 37 b1 a7 00 3a 25 72 7c 3a 7f fb 1f 36
       2.6370502e-05 0.00049078005 0.0009630046 2.3839236e-06
000020 b7 1d 06 3a 0c cc 8c 37 b3 9d f5 39 99 03 02 3a
       0.0005116122 1.6784317e-05 0.00046847537 0.00049596425
000030 6e 71 8c 37 b6 f0 a9 39 4b bb 07 3a 61 48 af 35
       1.674212e-05 0.00032413536 0.000517775 1.3059581e-06
000040 82 09 6b 38 1e 50 0f 36 97 46 5d 38 59 a9 69 38
       5.603722e-05 2.1355295e-06 5.2756248e-05 5.5709246e-05
000050 94 4e 0d 36 1b 6e 5d 38 3e ec a2 38 3a ef 6d 35
       2.1056376e-06 5.279305e-05 7.7687655e-05 8.86375e-07
000060 4c 3d bc 39 bb a6 66 37 86 ac ab 39 57 b2 a3 39
       0.00035903824 1.3747888e-05 0.00032744202 0.00031222656
000070 f5 13 66 37 54 17 a9 39 4e d1 c5 39 e7 9a 08 35
       1.3713715e-05 0.00032251573 0.00037730712 5.088936e-07
000080 fc e4 0f 3b 1b 07 91 38 be 7b c2 3a fd 5e 09 3b
       0.0021956554 6.915462e-05 0.0014837903 0.0020961158
000090 9a d4 90 38 2d f7 9d 3a 53 9f 45 3b 31 b1 2f 36
       6.906055e-05 0.0012051814 0.003015478 2.618017e-06
0000a0 59 62 8f 39 96 98 2b 37 60 da 83 39 b1 f1 81 39
       0.0002734836 1.0227921e-05 0.0002514897 0.00024784871
0000b0 87 33 2b 37 02 bc 78 39 5e 3d de 39 5a aa ae 35
       1.0204391e-05 0.00023721161 0.00042388862 1.3013589e-06
0000c0 96 27 18 3b c6 e8 8f 38 a2 cc d1 3a 22 f0 d9 3a
       0.0023216954 6.862129e-05 0.001600642 0.0016627351
0000d0 20 d6 8f 38 99 89 ac 3a 04 45 6b 3b 63 3e 5d 36
       6.858655e-05 0.0013163566 0.003589929 3.296788e-06
0000e0 6f f4 82 38 4a 69 0e 36 c1 67 59 38 cb 06 80 38
       6.244412e-05 2.1220935e-06 5.183346e-05 6.104781e-05
0000f0 1f b1 0c 36 65 cc 90 38 0d 4a 7a 38 16 db 8b 35
       2.0964724e-06 6.9045265e-05 5.967361e-05 1.0420069e-06
000100 2f ae 13 3a 1a bd 92 37 8c f2 d8 39 5f 4f fd 39
       0.00056335604 1.7492614e-05 0.00041379442 0.00048315056
000110 65 1f 92 37 08 4e a0 39 63 30 8e 3a 92 19 59 36
       1.7419175e-05 0.00030575716 0.0010848161 3.2350404e-06
000120 e1 c9 2c 3a 2b c5 cc 37 7d 5c 2c 3a 73 3c 1e 3a
       0.00065913616 2.4410509e-05 0.0006575061 0.00060362293
000130 dd f7 cc 37 19 4e 11 3a 62 e8 78 3a 11 25 a7 35
       2.4434115e-05 0.00055429485 0.0009495077 1.2453257e-06
000140 32 de 7f 39 47 85 e9 36 54 10 40 39 e6 e1 45 39
       0.0002440147 6.9594566e-06 0.0001831663 0.00018871538
000150 11 4f e9 36 20 e0 01 39 db f5 d3 39 c7 32 b2 35
       6.9531457e-06 0.00012385892 0.00040428233 1.3276812e-06
000160 a0 55 19 3a ea 33 bf 37 de 5c 20 3a 75 ea 30 3a
       0.0005849246 2.2793149e-05 0.0006117354 0.0006748804
000170 e2 d1 bd 37 c7 c7 01 3a 54 e2 49 3a c0 4d 0e 37
       2.262829e-05 0.00049507286 0.0007701267 8.481962e-06
000180 52 11 05 3b 50 3b 8e 38 e7 8f f2 3a f3 6e eb 3a
       0.0020304513 6.7821355e-05 0.0018506021 0.0017962143
000190 09 c9 8e 38 6c 86 a6 3a 91 9d dd 3a 69 7a bd 36
       6.808533e-05 0.0012704856 0.001690792 5.6468893e-06
0001a0 93 96 a4 39 82 85 09 37 bb 66 4c 39 bb 47 84 39
       0.00031392704 8.196921e-06 0.00019493226 0.00025230445
0001b0 3a cb 08 37 46 12 19 39 31 05 0d 3a b5 a2 93 35
       8.153549e-06 0.00014598024 0.0005379497 1.0999707e-06
0001c0 e9 bb ed 39 0b 05 8b 37 15 3e f3 39 76 04 95 39
       0.00045344167 1.657244e-05 0.00046394826 0.00028422818
0001d0 46 95 8b 37 35 44 b5 39 08 10 0d 3a a6 42 67 35
       1.6639602e-05 0.00034573828 0.0005381112 8.615119e-07
0001e0 bf 8b d6 39 41 8c 75 37 81 eb e4 39 63 4a b6 39
       0.0004092138 1.4635793e-05 0.00043663013 0.00034769168
0001f0 f1 08 76 37 65 04 94 39 fa 5a d4 39 6f 28 9a 35
       1.4664824e-05 0.00028232034 0.00040503574 1.1485662e-06
000200 53 eb 15 3a fb a7 98 37 4e 75 0a 3a e0 32 11 3a
       0.0005718965 1.8198034e-05 0.0005281762 0.0005538892
000210 d8 01 99 37 8c bd b2 39 5a 99 10 3a 8b 77 d9 35
       1.823988e-05 0.0003409203 0.0005516015 1.6202551e-06
000220 4e f2 1c 3a ca f0 89 37 15 5b c9 39 24 fe e0 39
       0.0005987034 1.6443799e-05 0.0003840557 0.0004291396
000230 43 97 88 37 ff 13 c6 39 16 0e 66 3a ee 8c 5d 36
       1.62829e-05 0.000377804 0.00087759027 3.3013598e-06
000240 0d 59 83 38 3d cc ef 35 fe 8e 56 38 fc 3d 3a 38
       6.263154e-05 1.7866329e-06 5.1154748e-05 4.4403583e-05
000250 bb b6 ea 35 90 d4 2a 38 59 57 b7 38 e0 f4 04 35
       1.748754e-06 4.0729123e-05 8.74239e-05 4.953017e-07
000260 1d 97 55 39 83 cd cc 36 6b 62 2d 39 93 8a 40 39
       0.00020369557 6.1035985e-06 0.00016535229 0.0001836217
000270 90 32 cc 36 4e bd 19 39 5a 45 82 39 f4 e8 dc 35
       6.08556e-06 0.00014661739 0.00024847203 1.6459076e-06
000280 ac 09 b2 3a 72 8c 39 38 c6 d1 a3 3a 67 73 a3 3a
       0.0013583205 4.4238237e-05 0.001249843 0.0012470306
000290 61 b5 39 38 94 22 6a 3a 79 4e 88 3a 0d 10 54 36
       4.427636e-05 0.0008931544 0.0010399363 3.1599805e-06
0002a0 ee 12 86 39 b8 6e f7 36 06 2a 46 39 c9 4f 61 39
       0.00025572575 7.374063e-06 0.00018898406 0.00021487394
0002b0 6b bf f5 36 1f 1d f5 38 91 10 ca 39 bb 2d c0 35
       7.323853e-06 0.000116879346 0.00038540785 1.4318424e-06
0002c0 79 00 b0 39 74 79 38 37 d2 23 92 39 6e a7 aa 39
       0.00033569688 1.0995533e-05 0.00027873978 0.00032549672
0002d0 2c 63 38 37 5f 51 4e 39 48 15 0d 3a 35 60 1a 35
       1.0990345e-05 0.00019676004 0.00053818943 5.750947e-07
0002e0 b0 d6 5c 39 8f d8 ce 36 b2 ea 1e 39 f7 09 10 39
       0.00021060812 6.164489e-06 0.00015155485 0.00013736622
0002f0 f9 f6 ce 36 9a ae 38 39 9e 30 ed 39 c3 17 99 34
       6.16803e-06 0.00017612652 0.00045240385 2.851576e-07
000300 39 52 d3 39 3a 75 3b 37 a4 ef 97 39 ea 41 98 39
       0.00040306317 1.11733625e-05 0.0002897951 0.0002904081
000310 fb d1 3a 37 cb 17 7a 39 f8 96 41 3a 37 ab 0b 36
       1.1135354e-05 0.00023850721 0.0007384862 2.0812274e-06
000320 f0 f1 01 3b 38 b2 6a 38 0e c2 9a 3a 5d d6 d3 3a
       0.0019828044 5.5955927e-05 0.00118071 0.0016161908
000330 8b 93 68 38 b9 3c 8e 3a c6 a8 4c 3b 01 d6 02 37
       5.545052e-05 0.0010851837 0.0031228526 7.7984305e-06
000340 b9 f0 9b 38 64 91 e8 35 ab f3 0d 38 ca ba 15 38
       7.435814e-05 1.7327661e-06 3.3843953e-05 3.569833e-05
000350 fb 54 e8 35 a0 14 06 38 93 62 10 39 f6 9e 47 34
       1.731008e-06 3.1967298e-05 0.00013769632 1.8591149e-07
000360 a7 e6 b1 3a 8d 77 26 38 1d 38 6b 3a 92 d7 7a 3a
       0.0013572768 3.9688824e-05 0.00089729 0.00095688656
000370 95 f9 25 38 c1 15 39 3a 91 69 f8 3a cd 3f 63 36
       3.9571507e-05 0.00070604315 0.001895236 3.3862773e-06
000380 6a b3 4e 39 aa d1 e2 36 99 71 82 39 e8 cf 32 39
       0.00019712528 6.759733e-06 0.0002488017 0.00017052854
000390 87 c1 e0 36 dc bd 06 39 5f df 49 39 37 4b e3 35
       6.6982498e-06 0.00012849964 0.00019252066 1.6934708e-06
0003a0 54 9e 8c 39 0a b4 24 37 8e 91 9c 39 68 eb 9b 39
       0.00026820845 9.81708e-06 0.00029863085 0.00029739295
0003b0 34 83 23 37 7c 22 20 39 a8 1d 82 39 f2 c3 8f 35
       9.746105e-06 0.00015271635 0.00024817628 1.0711358e-06
0003c0 42 35 01 3a 05 73 af 37 34 37 e4 39 09 95 e1 39
       0.00049288955 2.0915186e-05 0.00043528678 0.00043026384
0003d0 e0 f4 ae 37 47 35 09 3a b6 e0 3b 3a ce ed 40 36
       2.0856445e-05 0.0005234074 0.00071669684 2.874865e-06
0003e0 4d 27 2a 39 d6 e5 d5 36 e0 27 48 39 6e 2f 33 39
       0.00016227104 6.374651e-06 0.00019088341 0.00017088439
0003f0 eb 07 d4 36 d0 77 23 39 84 c6 2b 39 5c 49 79 35
       6.319014e-06 0.00015589525 0.00016381784 9.286648e-07
