MLATest/results/RollerBall/RollerBall/RollerBall-184202.pt (torch, 448335 bytes, 39 tensors)

network_body._body_endoder.seq_layers.0.weight f4 [128, 8]
000000 18 33 db 3c 71 e2 e3 3d ec 83 70 be fa 69 79 3e
       0.026757762 0.11127175 -0.23487824 0.24356833
000010 c0 79 43 3e 07 4d 90 3e a3 d6 35 bf 7b d8 0e bf
       0.19089413 0.28183767 -0.71030635 -0.55799073
000020 2d c1 1b 3d 78 d2 5a be 26 ee 3b 3d 39 dd dd 3e
       0.038026024 -0.2136935 0.045881413 0.43332842
000030 88 2c e4 be f0 b5 cf 3e 78 98 1e be 08 01 35 bf
       -0.44565225 0.40568495 -0.1548785 -0.707047
000040 06 ad 25 be 9f ac bd bc 08 6d 82 be 47 d4 64 be
       -0.16179284 -0.023153601 -0.2547381 -0.22346602
000050 f0 49 a1 be 06 fd 05 bf 43 18 04 3e 0c e9 19 3d
       -0.31501722 -0.5233921 0.1289988 0.037575766
000060 74 d3 a2 3d 79 46 86 3e b6 18 04 bc 27 27 0f 3e
       0.07950488 0.2622564 -0.008062532 0.13979779
000070 75 c2 84 3e 3e 22 7c 3e 12 c2 16 3c fc 6d 05 3c
       0.2592961 0.24622437 0.009201543 0.008143898
000080 22 47 3a be db 73 8d be 6c 75 fd 3d 87 52 2d 3f
       -0.18191198 -0.27627453 0.12375912 0.6770405
000090 05 97 4f bd 38 ae 07 bf df 46 a6 be 1e 84 b7 3f
       -0.050681133 -0.5300021 -0.32475945 1.4337194
0000a0 2f 46 f0 3e 8b ff 40 be 3a 5e de bc 6f fe 30 3e
       0.46928546 -0.18847482 -0.02714454 0.17284559
0000b0 87 4e a6 3e 2b 89 a0 3e 48 b8 9c be a1 21 ae 3d
       0.32481787 0.3135465 -0.30609345 0.08502508
0000c0 da 3e b5 be fd e3 0e bf bd 2d 11 3d e9 94 03 3f
       -0.35399514 -0.5581663 0.03544401 0.51399094
0000d0 36 cb 59 3f ef d2 c7 bd f9 bf 83 be 03 8b 08 3f
       0.850757 -0.09757029 -0.257324 0.53337115
0000e0 45 a6 b1 3e 78 5f 20 bf 46 bb 13 bf 87 87 2e 3e
       0.34697166 -0.62645674 -0.5770763 0.17043887
0000f0 58 33 13 bf 8f 84 85 be 28 03 4f be a3 a6 17 bf
       -0.5750022 -0.26077697 -0.20216048 -0.5923864
000100 a2 46 2e bf 43 12 11 bf c1 4d 86 3e a1 95 e7 be
       -0.6807653 -0.5666849 0.26231197 -0.45231345
000110 54 32 09 3f 72 16 09 3f ca f2 2b be 6e e5 6f bc
       0.5359242 0.53549874 -0.16791835 -0.014642103
000120 f7 0d 57 be 95 d5 60 3e 4b 22 05 3e af 19 5f bd
       -0.21001421 0.21956475 0.13001363 -0.054467853
000130 7d 97 08 3f d7 3d cc 3e b2 c6 0b be a9 57 b2 3e
       0.5335615 0.3989093 -0.13650015 0.34832504
000140 92 7b 49 bf 3b d1 18 3d 58 fe 5c be f4 f5 5d be
       -0.7870418 0.037308913 -0.215814 -0.21675855
000150 00 94 a2 bc 6a ae c5 3e 85 40 6c 3e fc 59 16 3d
       -0.019845963 0.3860963 0.23071487 0.03670691
000160 d2 24 24 3e 2f 8b 96 3e 0f 3e b4 3d 94 2b 74 be
       0.16029671 0.29403064 0.08800899 -0.23844749
000170 fd 82 03 3d 64 61 59 be 12 05 6f 3e cb dd 79 bd
       0.032107342 -0.21228558 0.23341778 -0.061002534
000180 22 d5 85 be c5 8c 43 be 93 9d b2 be 92 9f 32 3f
       -0.2613917 -0.19096668 -0.34885845 0.69774735
000190 34 f3 07 3f 45 ae a6 bd a3 48 b3 3e ed 81 37 3e
       0.53105474 -0.08138708 0.35016355 0.17920657
0001a0 f6 9d 59 3e 77 d1 15 bf 57 9a 09 3e 8c d2 a1 bd
       0.21251664 -0.58522743 0.13437782 -0.07901487
0001b0 4a 71 5d be f7 67 6c 3e da 4d fe be c6 9a 86 bd
       -0.21625248 0.23086534 -0.4966877 -0.065724894
0001c0 38 8b 8d be 19 cc 30 be 9d 36 9c be 95 7d 03 3e
       -0.27645278 -0.17265357 -0.30510417 0.12840874
0001d0 8a 84 17 3e be c9 b8 3e ae a4 d8 3e 65 8d a0 3e
       0.14796653 0.36091417 0.4231314 0.31357875
0001e0 d5 f7 a1 3d 9b 5a 51 be f5 32 a3 be a5 38 cf 3e
       0.07908598 -0.2044472 -0.31874815 0.40472904
0001f0 aa be 18 3e db dd 55 be 3c 28 01 be 71 00 42 3e
       0.14916483 -0.20885412 -0.12613004 0.18945481
000200 45 0e 26 3c 4d fc 65 be 92 f0 a2 3e 21 ec 0e 3f
       0.010135238 -0.22459526 0.31824166 0.55829054
000210 8b 0c 36 bf 8d 7d 71 bd 0e b9 d8 3d bc 1e 1c be
       -0.7111289 -0.058957625 0.105821714 -0.15246099
000220 8d 2c 24 bd fb 82 92 be 3c a4 03 3f f4 ed 04 3f
       -0.04008155 -0.28615555 0.51422477 0.5192559
000230 d4 3d 03 3d de 14 67 be df e6 61 be 91 53 0f bf
       0.032041386 -0.22566554 -0.22060727 -0.5598689
000240 23 3e a6 be 9f 20 b7 be 76 c6 40 3f 55 13 a2 be
       -0.32469282 -0.35767075 0.7530283 -0.31655374
000250 86 ca 1c 3e f2 94 5e 3d 17 5c 25 3e 22 c9 b5 3d
       0.15311632 0.054341264 0.1614841 0.08876254
000260 9b 96 9f be 0e cc cc be 44 b4 b4 3e b7 ed 7f bf
       -0.3116959 -0.3999943 0.35293782 -0.999721
000270 33 a3 24 3e 68 64 27 3d ab a9 09 3f db 75 ae be
       0.1607788 0.04086724 0.5377452 -0.34074292
000280 88 74 53 bd 99 7b 1c 3f 0a 06 87 bd 10 e9 07 3f
       -0.051624805 0.61126095 -0.06592949 0.5309
000290 54 17 9e 3e 08 3c a8 3e 18 3d 93 3e c3 65 4d 3d
       0.30877173 0.328583 0.28757548 0.050145876
0002a0 dd 4c ab be e3 99 57 3e 1b 2c d4 be 29 bd 03 bf
       -0.3345708 0.21054797 -0.414399 -0.5146051
0002b0 c6 7e b8 3d b4 12 c7 3e 6c 0b 1d 3e fb 0c 0d be
       0.09008555 0.38881457 0.15336388 -0.13774483
0002c0 cc 0b 97 3e e1 82 5b be bb 05 50 3e 19 21 bf 3d
       0.29501188 -0.21436645 0.20314686 0.09332485
0002d0 e2 a3 15 3b b6 a9 34 3e f5 00 67 be 5a 67 11 3e
       0.0022833277 0.17642865 -0.22558959 0.14199582
0002e0 5f 4a a1 3d 1c e7 83 bf e0 5d 9c be 41 43 14 3e
       0.07875513 -1.0304904 -0.3054037 0.1447878
0002f0 ee d9 8e be e1 63 48 3e cf 39 03 bf 28 ac 4f 3e
       -0.27900642 0.19569351 -0.51260084 0.20280516
000300 22 26 28 bc 84 e8 65 be c0 e6 84 3d 87 e3 06 bf
       -0.010262998 -0.22451979 0.064893246 -0.5269093
000310 8d 1b a1 be 88 20 25 be f8 a7 28 be 44 9b 7c be
       -0.31466332 -0.16125691 -0.16470325 -0.24668604
000320 25 8e 6c be 66 af 90 be 70 80 77 3e c7 36 be 3e
       -0.23101099 -0.28258818 0.24170089 0.37151167
000330 77 05 b3 bd ee 28 b0 be b6 2b 4e be b6 a9 d7 be
       -0.08741277 -0.34406227 -0.20133862 -0.42121667
000340 f3 f4 fb be 3c c2 80 bd b3 23 40 be e9 5e 68 be
       -0.4921032 -0.06287047 -0.18763618 -0.22692455
000350 d9 e4 00 bf 5e 58 0e bf 3f 94 ad be 92 cd c1 be
       -0.50349194 -0.5560359 -0.33902165 -0.3785215
000360 c9 e5 34 bf de 53 08 3e d3 0a 73 be 76 ac aa 3e
       -0.70663124 0.13313243 -0.23734598 0.33334702
000370 f9 b3 14 be cc 01 a9 be e6 2c af 3d d7 3e bf 3c
       -0.14521779 -0.33009183 0.085534856 0.023345394
000380 4d fa af be ad e1 ff be c6 a3 b5 be 38 5a f8 bd
       -0.34370652 -0.49976864 -0.35476512 -0.12126583
000390 f6 ea 4c be d9 52 fc 3c c7 4d 81 3e ff 66 4c 3e
       -0.20011505 0.030801224 0.25254652 0.19961165
0003a0 40 34 65 bd 5d 7f 8c be 87 7e ef 3e c0 cb 96 3d
       -0.055958033 -0.2744092 0.4677622 0.07363081
0003b0 7f 3e 7e 3d af 5c 81 be f8 9b 81 3e a4 41 99 be
       0.06207132 -0.25266024 0.25314307 -0.29932892
0003c0 5b fe 10 3f d6 cb a6 3d 63 6f 7c 3e 2d 4d fb bd
       0.56638116 0.08144347 0.24651866 -0.122705795
0003d0 18 b5 24 bf 30 6b 18 3f 73 41 f0 3e 88 7f c9 bc
       -0.6433883 0.59538555 0.46924934 -0.024596944
0003e0 74 68 cd 3d 32 25 bc bd cc 9b 50 3f c4 72 0e be
       0.100296885 -0.09186782 0.8148773 -0.13910967
0003f0 9b f0 53 be 48 8e 99 3e 7e e7 9d 3e 92 fa 9d bd
       -0.20697252 0.29991364 0.30840677 -0.07713808

network_body._body_endoder.seq_layers.0.bias f4 [128]
000000 b5 82 d0 3b 5d 15 31 bd ce 06 aa bd 20 7c 06 bd
       0.0063632377 -0.043233264 -0.08302079 -0.03283322
000010 6a 04 3a 3d 08 6b 55 3d b6 c2 83 3c 71 43 9f bd
       0.045414366 0.052104026 0.016084056 -0.07776535
000020 34 73 76 bd a1 64 7b bd 9a d3 a6 bb c1 c7 a3 3c
       -0.06016846 -0.061375264 -0.005091143 0.019992711
000030 cf 38 5c 3d 8e 4d 5b bd 3f 59 a1 3b 55 12 0d bb
       0.053765114 -0.05354076 0.004923969 -0.002152582
000040 7d 75 6f bd 7b 4e 0d 3d d2 03 0f be 6b d3 33 be
       -0.058461655 0.034498673 -0.13966301 -0.17561118
000050 b4 bb 8b bc b2 5f 6e bd 7f 4e 97 3c a0 1b f0 bd
       -0.017057277 -0.05819673 0.018470047 -0.11724019
000060 8d 41 be bd 2a 00 06 3d cc 38 bc bd b8 f4 09 3d
       -0.092898466 0.032715 -0.09190521 0.033680648
000070 15 1b 9d bc 33 a2 4c bd a4 c0 ed 38 45 a8 de bc
       -0.019177953 -0.049959373 0.00011336923 -0.027179847
000080 6a 4f 31 bc d7 29 7c bd 7e 48 0b be 8d 18 3e bd
       -0.010822156 -0.06156334 -0.13601872 -0.046410132
000090 eb b3 bb bd 88 97 33 3c 92 77 bc bc 4d f4 ac bd
       -0.09165176 0.010961421 -0.023006234 -0.08445034
0000a0 36 99 10 bd 82 93 fd bd b0 0e 0d bd e5 ad 25 bd
       -0.035302363 -0.123816505 -0.034437835 -0.040449042
0000b0 eb a8 78 3c 83 e3 84 bd 2e 8c 58 3d d1 1a be bd
       0.015176992 -0.06488707 0.05286806 -0.092824586
0000c0 cc 58 b0 bd 69 64 86 3d 9c 01 4b 3d 5c 09 e4 bc
       -0.08610687 0.065621205 0.04956208 -0.027836494
0000d0 5a ba 3e 3d 2a f5 e8 bd 6c c8 79 3d 9d 6d a1 3a
       0.046564437 -0.11374886 0.060982153 0.0012315992
0000e0 95 4e 74 bd 92 d1 12 3d 32 61 06 bc 7a 76 41 3d
       -0.059645254 0.035844393 -0.008201884 0.04723213
0000f0 0e cf a3 3c 33 e9 bb bd 4e f3 de bc 73 74 08 3c
       0.019996192 -0.091753386 -0.027215626 0.008328545
000100 b0 94 46 3d 31 af 09 3d aa 0e fc 3d b1 be ee bd
       0.048481643 0.03361434 0.123074844 -0.11657465
000110 3d b1 41 bd 48 cf 0c 3e e8 56 53 3c 78 8a 70 3a
       -0.04728817 0.13750947 0.012899138 0.0009175907
000120 80 ef bd bc 75 a2 76 3c 28 5a f2 bd c2 5b f1 bd
       -0.023185492 0.015053381 -0.11833602 -0.117850795
000130 8c 7e a1 3c 47 fc 78 3d 9c 8e 66 bd f5 0d db bd
       0.019713663 0.060787465 -0.056288347 -0.106960215
000140 46 ba b6 bd 27 21 4e 3d c9 9d 8c bd 83 6c db bd
       -0.089222476 0.050324585 -0.06866033 -0.10714056
000150 d0 a1 d7 bb 6d cc 93 bd c8 f5 dd 3c 21 8e c4 3d
       -0.006580569 -0.072167255 0.027094737 0.095974214
000160 bc c2 f0 bd 22 98 08 bd 79 55 08 3d 6b e9 83 3d
       -0.11755893 -0.03334821 0.033284638 0.06441005
000170 01 1e d0 bd 45 7a a1 3c 27 31 d6 3d be 62 1c 3c
       -0.10161973 0.019711623 0.10458594 0.009545026
000180 98 7b 80 3d ce 8c b1 3c bb 2d 94 3c 3c ad 3d 3d
       0.06273574 0.021673586 0.018088212 0.046307787
000190 fc b5 72 bd 1a 5c 45 bd 99 ae 96 3d 76 cb 4d 3d
       -0.059255585 -0.048183538 0.073575206 0.050242864
0001a0 45 d5 92 3c ee 8c 47 bd 66 cd eb 3c 3f c5 cc bd
       0.01792396 -0.048718385 0.028784465 -0.09998559
0001b0 f0 c8 04 bb b6 0d c0 3d f4 53 bb bd 32 fa 92 bc
       -0.002026137 0.09377615 -0.09146872 -0.017941568
0001c0 e8 60 1b bd 93 3b 1e bd ff 21 41 bd 61 c6 b8 bd
       -0.037934214 -0.038631033 -0.04715156 -0.09022213
0001d0 ff d5 1a bc 3c f3 0c be d2 01 6e bb ed cf a0 3b
       -0.009450435 -0.13764662 -0.0036317003 0.004907599
0001e0 4f ab 0c be f7 f1 2a bd a6 0f 29 bd 46 17 0f 3d
       -0.13737224 -0.041734662 -0.04127469 0.034934305
0001f0 9c c1 26 bc 3b 90 84 3d 95 94 23 bd 87 08 ad bd
       -0.010177996 0.06472822 -0.03993662 -0.08448892

network_body._body_endoder.seq_layers.2.weight f4 [128, 128]
000000 09 19 42 be 0d d5 92 bd 18 21 c7 3d 17 c5 57 3d
       -0.18954863 -0.071695425 0.09723109 0.052678194
000010 d3 6e a4 3e 9f cc 66 3d b4 9b 02 3e 82 cf 54 bd
       0.32115802 0.056347486 0.12754709 -0.051955707
000020 f8 b9 c6 bc a7 fc a8 3c 34 13 04 3e 21 28 53 bc
       -0.024258599 0.020628287 0.1289795 -0.012887985
000030 a9 5b 4d 3c b4 b0 be be bf f9 dc bd 45 a8 81 3c
       0.0125340605 -0.3724419 -0.10789823 0.015827307
000040 70 58 27 3d 9d 9e b6 38 4c c7 9a 3c 7b 79 00 3e
       0.040855825 8.70798e-05 0.01889386 0.12546341
000050 0e a6 b0 3c ca 22 b7 bd 45 b1 44 bc a5 fd 6b be
       0.021563556 -0.08942182 -0.012005155 -0.23045976
000060 52 d7 a2 bd b1 a2 a3 3d 30 93 da bd dd 1b 02 3e
       -0.07951225 0.07990015 -0.10672605 0.12705941
000070 ea eb 91 3d 5d 91 13 bd e5 38 c2 3a 1c 52 c1 3d
       0.07125075 -0.0360273 0.0014817981 0.09439489
000080 e8 9c 9d bd 34 64 04 bd 1f 1f d1 bd b6 4a 18 be
       -0.07695943 -0.032322124 -0.10211014 -0.1487225
000090 a6 08 6c bd c9 99 54 3c bc 2f f9 3c 13 48 f6 bc
       -0.057625435 0.012976118 0.03041827 -0.030063665
0000a0 51 f0 42 3d 7b 00 2f 3d 9f 34 e3 3d 48 4b e2 bd
       0.047592465 0.042725068 0.11094021 -0.11049515
0000b0 92 29 12 bd 22 71 72 bd ce b6 3c bc 67 93 1d 3d
       -0.035684176 -0.059189923 -0.011518193 0.038470652
0000c0 30 bf 3e be cc 5a 9d 3b 35 a1 a9 bd 2f 18 93 3d
       -0.1862762 0.0048020836 -0.08282701 0.07182347
0000d0 05 d2 95 be c9 d7 00 bc 78 a8 5a 3d df aa fa bd
       -0.29261795 -0.007863947 0.05338332 -0.12239622
0000e0 a1 27 a2 bd d7 72 f2 3d 80 a7 37 3e 37 5d d1 bd
       -0.07917715 0.1183831 0.1793499 -0.102228574
0000f0 b2 ca a9 3e b6 fc af bd 44 53 5f 3d 96 83 dc 3c
       0.33162457 -0.08593123 0.054522768 0.026918214
000100 d7 db 90 bd 60 a1 0f 3e 17 f6 bb 3b e1 f3 25 3e
       -0.07073181 0.14026403 0.0057361233 0.16206314
000110 ca 7c 05 be ca 5b 11 3d eb 9e 92 3d 76 c2 40 3d
       -0.13035884 0.035487927 0.071592174 0.047060452
000120 64 55 33 3d 01 d0 90 3d 79 40 13 bd e6 f0 84 bc
       0.043782607 0.070709236 -0.035950158 -0.01622815
000130 0f 78 77 3d 18 85 ee bd 38 62 0f be 87 a5 36 be
       0.06041723 -0.11646479 -0.14002311 -0.17836581
000140 6d fd 64 be d4 60 6a bd 98 a1 f1 3c c2 a9 f2 bd
       -0.223623 -0.05722125 0.029496 -0.11848785
000150 da fd 31 bd ba 30 b6 bc a0 6b a7 bd c7 f7 94 3e
       -0.043454982 -0.022240032 -0.08174825 0.2909529
000160 78 28 a6 bd 96 ba 32 bd 03 4c 23 3d ff 13 7c be
       -0.081131876 -0.043634973 0.039867412 -0.24617003
000170 0b 3e 34 be 94 e5 d6 bc fc 4f 35 3e 26 eb 7a 3e
       -0.17601793 -0.026232518 0.17706293 0.24503765
000180 e3 91 06 be 41 1e 8b 3d 80 01 86 bd 4d 1e dc bd
       -0.13141589 0.0679288 -0.06543255 -0.10747967
000190 63 2e 54 bd ea 61 fa bd fd 9b 08 3e e7 72 2c 3c
       -0.05180205 -0.12225707 0.13340755 0.010525442
0001a0 e8 5e eb 3d 2c 39 c9 3d 40 21 08 3e ba 66 a7 bc
       0.11492711 0.09825358 0.13293934 -0.020434726
0001b0 c8 db 94 3c 0f 5a aa bb bd 5c 6a be 8a a5 87 bd
       0.018171206 -0.005198724 -0.2288694 -0.06623371
0001c0 1b 1a 4d bc 44 61 9c bd 5c 2d 3e 3c e0 22 44 bd
       -0.012518431 -0.076357394 0.011607494 -0.047884822
0001d0 1b 05 e8 3d f9 0e d7 bc 4a 62 7c bc 10 74 70 3e
       0.11329099 -0.026252257 -0.015404293 0.23481774
0001e0 89 6d 2d be af 63 e1 bd b3 8f 34 3e ae 15 35 3d
       -0.16936316 -0.11005341 0.17632942 0.04421013
0001f0 bd e8 c0 3d 95 07 56 bd b1 42 74 3d 76 1a 27 3c
       0.09419391 -0.052253325 0.059633914 0.01019918
000200 8a b3 8a bd 48 21 4d 3e 5a e9 e3 3c ba 39 5b 3c
       -0.067725256 0.20032227 0.027821232 0.013380462
000210 0b df f3 3d b5 3d 14 3e 99 fd ec bb eb 90 fb 3d
       0.119077764 0.14476664 -0.0072323796 0.122835
000220 8f 7d 8d 3d 0f bf 6a bd 7a b0 28 be d3 4f df bb
       0.06908714 -0.057311114 -0.1647357 -0.0068149357
000230 5b 08 65 bd 90 9b 9c 3c 40 08 f9 3c ac 92 f2 3d
       -0.05591617 0.019117147 0.030399442 0.11844382
000240 2d 60 23 bd f8 cf 78 3d 5e 09 3a bb 91 5d 16 be
       -0.039886642 0.06074521 -0.002838693 -0.1468413
000250 5b 35 63 3d c7 1c 03 be e3 76 0e be a1 04 e0 bd
       0.055470806 -0.12803946 -0.13912539 -0.10938383
000260 26 06 33 3e 81 93 97 3d 0f d5 a4 3d 75 11 d9 bd
       0.17482814 0.07401181 0.0804845 -0.10599033
000270 78 14 63 bc d1 0a 8d 3b a2 31 87 3d 70 e2 1a 3e
       -0.013859861 0.004304268 0.066012636 0.15125442
000280 39 ac 35 bc 15 ff 2e 3d df 7f e6 bd 0b 45 a3 3d
       -0.011088424 0.042723734 -0.11254858 0.07972153
000290 df a2 cd bd a3 1e 0c 3e 29 a4 25 3d 5c d4 b8 3a
       -0.10040831 0.13683562 0.04043976 0.0014101374
0002a0 9b ae 27 3e e6 66 96 3c 95 8b db bb 44 d5 00 3e
       0.163752 0.018359613 -0.006699989 0.12581354
0002b0 b3 d9 63 bd 6c 75 06 bc f5 f6 44 3e 66 9e 34 be
       -0.055627536 -0.0082067065 0.19234832 -0.17638549
0002c0 cc 7b 09 3e ef d3 ac 3c 15 11 47 3d 69 44 08 3d
       0.13426131 0.021097152 0.048600275 0.033268366
0002d0 43 36 56 bc 87 50 af bd 89 84 2f bd 22 48 65 3d
       -0.01307446 -0.08560281 -0.042851005 0.055976994
0002e0 09 cb 3f 3d e7 20 13 3e a1 71 b3 3d cf d5 60 3d
       0.04682449 0.1436802 0.08761907 0.054891404
0002f0 f5 62 04 3e ff 06 99 3d 7c 73 34 3e cd 2d 6f bd
       0.12928374 0.074720375 0.17622179 -0.05839329
000300 31 16 ec bd 42 8b 7f 3e f3 80 45 bd 94 e6 b2 bc
       -0.1152767 0.24955466 -0.04821868 -0.021838464
000310 0a 56 02 be 10 b2 b6 3d 5b 15 5a bd fc d2 0a 3c
       -0.12728134 0.089206815 -0.053243022 0.008473154
000320 8d 5f 09 3e 85 5e 05 bc 79 22 67 bb 12 9b 13 3e
       0.13415356 -0.008140211 -0.003526835 0.14414623
000330 c4 e7 5f bc dc 04 2e bd c9 c9 f2 bd 59 2b b2 bb
       -0.013666097 -0.042485103 -0.11854894 -0.0054372963
000340 55 7c 9f bb 3f 57 16 bd 67 97 f6 3d de 32 b0 bd
       -0.0048671165 -0.036704298 0.120405965 -0.08603452
000350 2f c3 b1 3d 5a 81 f9 bd 39 65 43 be ba 2a 91 3d
       0.086798064 -0.12182875 -0.19081582 0.070882276
000360 8c 97 b4 3d c3 71 a7 bd 57 4f a1 bc 89 da ee 3c
       0.08817968 -0.08175995 -0.019691152 0.02915694
000370 22 89 a7 bd 62 2b 80 3e 43 dc 12 3e ea 31 71 3e
       -0.08180453 0.25033098 0.14341836 0.23554197
000380 c8 a0 d7 bd 76 b0 5f 3c 5b 32 09 be 17 6a 9c bd
       -0.105287135 0.013652911 -0.13398115 -0.076374225
000390 2c 3f fb 3c 52 50 4c bb b2 61 98 bc cc 95 6d bc
       0.030669771 -0.0031175804 -0.018601272 -0.014501046
0003a0 c7 33 f8 3d 68 f2 4b 3d 78 a7 98 3d c4 ab fe bd
       0.12119251 0.049791723 0.07453817 -0.124351054
0003b0 f8 52 15 3e 95 c3 51 bd 5e c4 b7 3b 6a 77 c2 bd
       0.14582431 -0.051211912 0.0056081256 -0.09495433
0003c0 a5 5c de bd eb 33 cb 3c ef 48 75 bd 8a ee e9 bd
       -0.10857514 0.02480503 -0.059884008 -0.11422451
0003d0 b1 cc 6a 3d 13 6a 59 bd 5b 23 ae bb a2 6c 39 3e
       0.057324115 -0.053079676 -0.0053142733 0.18107846
0003e0 8f c2 b9 bd cd 9c 3c 3e 86 e7 82 3d 49 0d 5f 3a
       -0.09070312 0.1841919 0.06391816 0.00085087545
0003f0 f1 92 d6 bc 9c 51 fa 3c 2c bd 4b bc a9 95 07 3e
       -0.026193114 0.030556493 -0.012435239 0.13240685

network_body._body_endoder.seq_layers.2.bias f4 [128]
000000 79 9f 9b 3d 13 01 24 3b 21 ad c1 3d 33 e4 df 3d
       0.07598776 0.0025025054 0.0945685 0.109321974
000010 fe 35 7e bd e4 25 96 3c 60 14 2c 3d b2 64 fd 3a
       -0.06206321 0.018328615 0.04201162 0.0019332378
000020 7b b7 4e bd bc 63 6c 3d b7 4f 8e bd 3a 39 a8 bd
       -0.05046795 0.0577123 -0.06948798 -0.0821404
000030 60 0a 1b 3d b6 fe 22 3b 3e 36 8c 3c db fb 1b bd
       0.03785169 0.0024871058 0.017115708 -0.038081985
000040 07 9c 10 bd eb 95 6a bd 99 82 a7 3d d9 6a 18 bd
       -0.03530505 -0.05727188 0.081792064 -0.037211273
000050 b4 2c a0 bd 59 cd b0 3d 2f f8 d9 bd 8a 35 f7 3b
       -0.078210264 0.08632917 -0.106430404 0.007544224
000060 20 99 83 bc e5 3b 96 3a 91 56 ef 3c 3a 88 4e 3b
       -0.016064227 0.0011461942 0.029216083 0.0031514303
000070 d3 b1 61 bb 10 47 9c 3d f2 4b 93 3d 3f c6 cc 3d
       -0.0034438267 0.076307416 0.0719222 0.0999875
000080 be 96 45 3d a7 b3 c0 3b 00 94 ff bc fd db 6d 3c
       0.048239462 0.005880791 -0.031198502 0.014517781
000090 1e 15 03 bc bd b1 ab 3d 7f 8d a0 3b b8 c7 9d 3b
       -0.00800064 0.0838351 0.00489968 0.004815068
0000a0 10 8d ba bc 73 97 6d bd ef 2e c5 bb 3e 60 4d bd
       -0.022772342 -0.05800576 -0.006017558 -0.05014061
0000b0 35 77 a7 bd ae 95 ad bd 20 62 b2 3d fc ce 11 bb
       -0.08177034 -0.08475815 0.08710122 -0.0022248616
0000c0 4b 75 ad bd 23 0a 5e 3d 57 0a bf 3d c6 71 a8 3d
       -0.084696375 0.054208886 0.09328144 0.082248256
0000d0 5d 78 c1 3c dc 27 ac bb 8e 0b f6 3c a8 00 ca 3b
       0.023616964 -0.005253775 0.030034807 0.006164629
0000e0 55 14 04 3c 70 2a a7 3d 25 05 50 bc f7 86 c2 bc
       0.008061488 0.08162391 -0.012696539 -0.023745997
0000f0 0a 1d 09 3d 6a 8f 83 bd d2 d0 e7 3d ec 0f a6 3c
       0.03347496 -0.064238384 0.11319126 0.020271264
000100 f2 9f ac 3d df 85 f3 3c ed e5 60 3d 87 d9 a8 bc
       0.08428945 0.02972692 0.054906774 -0.020611538
000110 76 5e f8 bc 0e cc 88 3c f3 d7 1f 3e 1f 82 5a 3d
       -0.03031848 0.016698863 0.15609722 0.05334675
000120 1d c8 82 bd 7f 27 c7 3c bc 32 15 3e f5 5e f4 3c
       -0.06385825 0.024310825 0.14570135 0.029830435
000130 b7 11 ce 3d 91 ad 62 3d df 66 70 3d f1 ee b4 bd
       0.100619726 0.055341307 0.058691856 -0.08834637
000140 0a d6 83 3d 48 a6 d6 bc 3c 96 d9 3d af b3 4e 3c
       0.06437309 -0.026202336 0.10624358 0.012616082
000150 b8 29 8b 3c 70 e6 22 bd c1 98 f1 3d 2a 70 fa 3c
       0.016987666 -0.039770544 0.117967136 0.030571062
000160 bf 1c 23 3c cb 69 00 bd 91 87 d7 bb fb ea 1d 3d
       0.009955584 -0.031350892 -0.00657744 0.038554173
000170 3a 69 f5 3c da 77 af 3c 97 d6 da 3d 90 95 80 bc
       0.029957402 0.021419454 0.10685461 -0.015696317
000180 a6 4a 9c bd eb d1 08 bd 16 1e 7c bd 3e 4f 9c bd
       -0.076314256 -0.03340332 -0.06155213 -0.07632302
000190 28 c9 a7 3d f7 79 ce 3c 1b 9d fa 3c c4 b0 30 bd
       0.081926644 0.025204642 0.030592492 -0.043137327
0001a0 7f b9 a6 3c 63 f8 3a bd d4 74 ad 3d de eb 81 bd
       0.020352123 -0.045647036 0.08469549 -0.06343816
0001b0 32 68 50 bc f3 b1 07 bb a2 69 66 bc d8 d7 45 3d
       -0.012720155 -0.0020705431 -0.014063271 0.048301548
0001c0 95 8d 31 bc 30 3a 08 be 74 2b 0e 3d 4b b3 98 3d
       -0.010836978 -0.13303447 0.03470941 0.074560724
0001d0 10 40 5f 3c 7e 6d 3c 3c fb 7c 8e 3d b9 37 33 bc
       0.0136261135 0.011500714 0.06957432 -0.010938578
0001e0 ee d9 c8 3c b6 66 2a 3c 7f 36 16 bd 37 53 0f bd
       0.02451798 0.010400465 -0.036673065 -0.03499147
0001f0 d7 91 fc bd 2b cf 60 3d ed 37 ea 3d 4f cd b1 bd
       -0.12332504 0.05488507 0.11436448 -0.08681738

action_model._continuous_distribution.log_sigma f4 [1, 2]
000000 1f 69 a5 bd fa 6f b8 bd
       -0.08076691 -0.09005733

action_model._continuous_distribution.mu.weight f4 [2, 128]
000000 ef fe 05 bd 86 7f 4b bc d9 18 a5 3d af 28 01 3e
       -0.032713827 -0.012420541 0.0806138 0.12613176
000010 c1 6b 2c bc 88 85 ca bb 84 67 4e 3d 84 c6 54 3c
       -0.010523737 -0.006180469 0.05039169 0.012986783
000020 d6 f4 3f bb b7 e9 05 bd ac a3 2a 3c 97 43 1e bd
       -0.002929022 -0.03269359 0.010414999 -0.038638677
000030 e6 75 61 b9 ae b9 2b bd ea bf d4 bc 2e 34 c6 bd
       -0.00021501593 -0.041925125 -0.025970418 -0.09677921
000040 e4 14 36 bd cd ea 5a 3a 0b ff 59 3d e2 5c cf bc
       -0.044453517 0.0008351028 0.053221744 -0.025312845
000050 e3 29 68 3b 11 04 65 bd 90 54 4a bc 8c 9b 3c bd
       0.0035425357 -0.05591208 -0.012349263 -0.04604678
000060 e5 7b 89 3d 74 72 8c 3c 70 84 0d 3c ac 59 74 3d
       0.06713084 0.01714442 0.008637533 0.05965583
000070 e7 2d a4 bc 6b 98 9b 3d 0f b0 f0 3c 8d 7e e7 3d
       -0.02004142 0.07597431 0.029380826 0.113034345
000080 da 53 1b bd 33 20 71 bc 36 98 0c bd 1e 7b 6f bd
       -0.037921764 -0.01471715 -0.034324847 -0.058467023
000090 66 78 d4 3a 5c e4 a3 3d 4a 78 46 bd 98 77 9f bd
       0.0016210198 0.080025405 -0.04845456 -0.077864826
0000a0 ba 5f 76 bc 48 4d 2c bd 4e 10 7b bc 80 b4 79 3c
       -0.015037471 -0.04206589 -0.015323712 0.015240788
0000b0 50 14 20 3c 9c 8a ba bc fc e1 c2 3c 48 07 fa 3b
       0.009770468 -0.022771172 0.023789398 0.0076302625
0000c0 22 6a 98 3c 52 e4 ba bd c6 04 5d bd f7 bf 92 3c
       0.018605296 -0.0912558 -0.05395963 0.017913802
0000d0 1b 3c 8a 3c 9f e8 1b bd ac 0f 18 bd e9 00 da bc
       0.016874364 -0.03806364 -0.03712432 -0.026611762
0000e0 17 cb 80 bd e4 5c 86 3d 38 f2 a2 bd ac c9 06 bd
       -0.06288736 0.06560686 -0.07956356 -0.032907173
0000f0 13 bf 84 bd 23 1e 1f bd ea 60 e0 3d a6 b1 90 3d
       -0.06481757 -0.0388471 0.10955985 0.07065134
000100 71 2c 0f 3d 3f d5 ae 3b 18 83 0a 3d 4a 26 d4 bc
       0.034954492 0.0053354795 0.033816427 -0.025897164
000110 ad 0a a4 bc 4a 2f f9 3b 44 f4 09 3e 05 90 ae bc
       -0.020024622 0.0076045142 0.13472086 -0.021308908
000120 59 98 89 3c cd e1 83 3b ab 53 dc 3d aa 87 c1 ba
       0.016796278 0.0040247203 0.10758146 -0.0014765162
000130 f6 89 0b bd 0d 59 61 bd 96 c7 22 bd 6b dd 66 bc
       -0.034067117 -0.055016566 -0.03974112 -0.014090876
000140 58 29 16 bd 26 0d 59 bd 70 7f bb bd 73 3e 43 bc
       -0.036660522 -0.052991055 -0.09155166 -0.0119167445
000150 e1 77 c8 3a 1a 78 ad bb 6b 44 d4 3d e4 e6 a5 bc
       0.0015294516 -0.0052938582 0.10364612 -0.020251699
000160 5f 9d 65 3d 4a d7 97 bc c2 b8 80 bc 70 4f 89 bb
       0.056058284 -0.018535275 -0.0157131 -0.004190378
000170 25 b5 2a 3d 7f 62 19 3d 19 2b 0b 3e 89 bc 5f 3c
       0.04167666 0.03744745 0.13590659 0.01365579
000180 0b 28 c0 bc 2e 68 b2 bd 1e cd 55 b9 ad 97 ac bb
       -0.023456594 -0.08711277 -0.00020389675 -0.0052671046
000190 63 74 81 bc 6c 60 cb 39 8f 87 e8 bb c2 ef c1 bc
       -0.015802568 0.00038791017 -0.007096238 -0.023673896
0001a0 78 19 9e bc 74 f5 c8 bc c3 62 aa 3d ae 3a 07 bd
       -0.019299254 -0.024531104 0.083196186 -0.033014946
0001b0 52 34 de 3c 4d c6 bb bd 09 46 98 bd 70 28 9d bc
       0.027124558 -0.09168682 -0.07435233 -0.019184321
0001c0 30 10 8b 3c d3 61 81 3b ec 2e 1e bd a0 aa ad 3d
       0.016975492 0.003948429 -0.038618967 0.0847981
0001d0 9f 1c 57 ba ee dc 70 bd 88 6d 95 3b ab ff 43 bc
       -0.0008205864 -0.058804445 0.0045601763 -0.011962811
0001e0 a7 0c e4 bd 9b e6 e1 bc e4 80 31 bd 79 cf 4b bd
       -0.11135226 -0.027575782 -0.04333581 -0.04975841
0001f0 df 38 8e 3c df 2a 86 3c 6c e6 29 bd 94 b1 fe 3c
       0.017361103 0.016377864 -0.041479513 0.031090535
000200 0e a3 eb 3d 57 30 4c 3d 33 c2 02 3d b7 71 a3 3c
       0.115057096 0.049850788 0.031923484 0.019951684
000210 30 a0 1d 3d 94 9d 54 3d 8b 28 6f bd bf be 4a 3c
       0.038482845 0.05190809 -0.058388274 0.012374579
000220 1a 42 1a 3d d7 cf ad bc 51 db 20 3d e2 45 cc 3b
       0.037660696 -0.02121727 0.039271656 0.0062339166
000230 bd 25 fb 3c ce 66 37 bd 19 47 76 bc 5e 98 19 bd
       0.030657643 -0.044775777 -0.015031599 -0.037498824
000240 96 9e 9f 3c 8d 6f 6f bb b8 a3 9e 3d 1f 80 d8 3c
       0.0194848 -0.0036534995 0.077460706 0.02642828
000250 bc 01 e8 3c 3b c9 d9 bd 9d 51 76 3c 9e d9 8b bd
       0.02832114 -0.10634085 0.015034107 -0.068286166
000260 38 1f 88 3c 41 2c af bc c1 4f 30 3d 2b 4b 02 bd
       0.016616449 -0.021383407 0.04304481 -0.031809967
000270 b6 10 57 3d f0 56 56 bd 0e b9 ab 3d 60 8e 2f 3d
       0.05250617 -0.052329004 0.08384906 0.04286039
000280 50 69 d4 3d 68 9b 70 3d 8c 54 28 3d 60 61 5d 3c
       0.10371649 0.058741957 0.041096255 0.013511986
000290 50 a3 ec 3c ec 63 21 bd cf b2 15 3c 75 ed 63 bb
       0.028886467 -0.039401934 0.00913687 -0.0034778987
0002a0 95 25 a0 b9 33 61 02 3d 3e 7b ea bc 91 1d fa 3b
       -0.0003054558 0.031830978 -0.02862322 0.007632919
0002b0 bc d1 8e 3b f4 20 0d bb 02 7e a2 3d ae 29 9b bd
       0.0043584984 -0.0021534534 0.0793419 -0.07576309
0002c0 53 46 f9 3b 51 4d e2 bd 17 3c d3 bd 81 a8 f3 bd
       0.0076072603 -0.11049903 -0.103141956 -0.11897374
0002d0 45 c2 0c bd 5a 38 15 3d 0d e9 7a 3c e4 0a 28 3d
       -0.034364957 0.036430694 0.015314353 0.04102601
0002e0 94 4c fc bb c7 6d 3c 3d f4 94 33 3d a1 2d 06 bd
       -0.0076995585 0.04600313 0.043843225 -0.03275836
0002f0 c2 c9 e0 bc a7 30 f0 bb b0 69 a8 bc 0f f9 4b bc
       -0.027439956 -0.0073300186 -0.020558208 -0.012449517
000300 4b 4b ae 3d 24 fa 3e 3d 07 12 a4 3d 2f 3f 13 3d
       0.08510455 0.04662527 0.08011251 0.03594893
000310 1c 7e bd bc 68 ae b5 3c f1 9b 69 3d db 06 33 bd
       -0.023131423 0.02217789 0.057033483 -0.04370771
000320 78 db 86 bd b6 72 da bd 51 c7 1c 3d e0 a3 71 bd
       -0.06584829 -0.106664106 0.03827602 -0.058994174
000330 a9 e0 e3 bd 5c 1e 66 bd fd 73 40 bd ce 71 67 3d
       -0.11126835 -0.056181297 -0.046985615 0.056505017
000340 1e 4f 8f bd 02 cd 65 bc c9 74 bc bc c8 3a 36 bd
       -0.06997512 -0.014025928 -0.023004906 -0.044489652
000350 2c 5a 80 bd 76 41 f9 3c fe 0c 8a 3c 46 58 b7 bd
       -0.06267199 0.030426722 0.016851898 -0.08952384
000360 84 5f c7 3a d4 e7 b4 3c 26 15 86 3d 12 17 b7 bd
       0.0015210961 0.0220832 0.065470025 -0.08939947
000370 fa be b0 3d 3c 4f 3f bc 18 c5 34 3c a5 99 78 bd
       0.08630176 -0.011676606 0.011033319 -0.0606934
000380 06 a7 d4 3c a6 41 91 39 20 1a 8f bc d7 01 23 3c
       0.02595855 0.00027705467 -0.017468512 0.009949169
000390 c7 83 ee bd c6 58 99 3d 11 a4 57 3d ad 38 3d 3d
       -0.11646228 0.07487635 0.0526467 0.04619663
0003a0 d2 d0 cb 3d 90 cd 4a 3d 84 77 82 3d 2f c6 e8 3c
       0.09951939 0.049512446 0.06370452 0.028414814
0003b0 ff c2 5c bc 2f 7f 61 bc 30 6d 12 3c ad 12 93 bd
       -0.013474225 -0.013763233 0.008937165 -0.071812965
0003c0 5d b5 12 3d 15 a6 93 bc a0 97 83 3d c2 f2 80 3d
       0.035817493 -0.01802353 0.064254045 0.062963024
0003d0 4c a9 e8 bc 98 40 9a bc 7b bb b4 3d ad 74 13 3b
       -0.02840104 -0.018829629 0.088248216 0.0022499964
0003e0 66 b3 ec 3a 83 07 7f 3d 3a 5e 01 bc 88 37 ab bb
       0.0018058836 0.062263023 -0.0078960005 -0.0052251257
0003f0 d5 ee 18 3c 00 32 3d bd 8e 2d e1 3d 1c 01 db 3c
       0.009334286 -0.04619026 0.10995017 0.026733927

action_model._continuous_distribution.mu.bias f4 [2]
000000 c9 e1 f4 3c 04 ae a1 ba
       0.029892819 -0.0012335186

action_model._discrete_distribution.branches.0.weight f4 [1, 128]
000000 7b fe d9 ba aa 77 03 3c ea bf 7c 3b 73 a8 9e bb
       -0.0016631627 0.008024136 0.0038566538 -0.004841858
000010 53 ce 67 bb 77 ed 41 3b 47 62 34 bc bb c9 69 3c
       -0.0035370782 0.0029591003 -0.011009759 0.014269288
000020 e7 c5 18 3b 5d 38 36 bb 95 4a b9 3b 8b 0e 5b bc
       0.0023311318 -0.0027804591 0.005654643 -0.0133701665
000030 d9 a7 b4 bc 1f 87 32 bb 12 fb 46 bc 77 09 1c bc
       -0.022052692 -0.0027241183 -0.012144821 -0.009523741
000040 be aa 23 bb d2 32 5b 3a b0 ba 7e bb 3d fe 6d 3c
       -0.0024973596 0.000836176 -0.0038868599 0.014525947
000050 8c 8c 0b bb 07 32 b9 3c cd ba 23 3c c1 6a 08 bb
       -0.002129349 0.022606863 0.009993267 -0.0020815583
000060 e2 c1 42 3c 8f 6a 85 bc cc 42 4b 3b 26 eb 08 3c
       0.011887046 -0.016286163 0.0031015156 0.008356845
000070 18 ac 76 3c b0 4e 7f 3c 5d 36 f1 3b 2b cc 0b 3c
       0.015055679 0.015582725 0.007361217 0.008532564
000080 de 32 17 3b 62 ba da bb 7f 71 d2 3b 13 1c a3 3b
       0.002307109 -0.0066750506 0.006422221 0.004977712
000090 c5 1e e0 3a 1a f1 ad b8 b2 71 b5 bb 3d 02 ad 3b
       0.0017099014 -8.2941915e-05 -0.005537235 0.005279808
0000a0 d6 47 22 bb 79 db 24 3a 68 9f 54 3b 79 cb 33 bc
       -0.0024762056 0.00062888075 0.0032443646 -0.010973805
0000b0 84 26 03 ba a2 a5 1f 3c 67 0a df bc 8f 17 6c bb
       -0.00050029927 0.00974408 -0.02722664 -0.0036024784
0000c0 b2 65 8d 3c 16 8e a8 39 78 f0 74 3c 0d 32 ed bb
       0.017260406 0.0003214932 0.01494991 -0.0072386325
0000d0 42 5a f8 bb ae 22 0e 3c 5b e3 49 3c ca 19 3a 3c
       -0.007579119 0.0086752605 0.012322272 0.011358688
0000e0 d4 ba 09 3c cf a1 bd ba 54 2a cb ba 7e 65 ad 3b
       0.00840636 -0.0014467778 -0.0015500286 0.00529164
0000f0 37 ff 53 bc 7b bd 82 3b 5d 57 3a bc 71 e4 33 bc
       -0.012939266 0.003989873 -0.011373368 -0.010979758
000100 49 e7 2a bb 66 bb 01 bc 72 c8 2c 3b 35 1a 52 3b
       -0.0026077798 -0.007918214 0.0026364592 0.0032059078
000110 d0 52 d5 3a 20 e8 d2 3b 5f 2e dc 3b 58 cf 5c 3b
       0.001627529 0.006436363 0.006719395 0.0033692922
000120 8d 7f f2 bb b0 d7 a3 3b 60 57 fe b7 72 22 d2 bb
       -0.007400459 0.005000077 -3.0319847e-05 -0.0064127976
000130 6f fa 24 b9 4c e0 87 3c 05 f0 24 bc 98 02 5c 3c
       -0.00015733553 0.016586445 -0.010066991 0.013428353
000140 73 eb 21 3c e7 60 37 3c e0 96 d0 ba 8c bb 29 bc
       0.009882796 0.011192537 -0.0015914105 -0.010359656
000150 72 14 40 bc d5 3d ab bc ed 52 45 bc 29 7a 09 bc
       -0.011723625 -0.020903507 -0.012043697 -0.008390942
000160 7c 70 22 3c 3f 0e b9 3a 63 c6 da 3a e3 db f7 bb
       0.009914514 0.0014118626 0.0016691204 -0.0075640543
000170 67 48 8e 3c 89 51 84 3c 09 79 49 bc 9d 89 eb 3b
       0.017368509 0.01615216 -0.012296923 0.0071880356
000180 fb 7b 8b bb bf c0 b0 3b 4b 80 c5 bb 29 66 8f 3b
       -0.004256723 0.005394071 -0.0060272566 0.004376192
000190 fb 9d be bb c2 f1 03 3c 65 62 ed 3b 57 10 9d 3b
       -0.0058171726 0.008053245 0.0072443956 0.0047932076
0001a0 aa c9 2b bc 28 5f 5b 3c d5 4a ce ba 23 ea 02 ba
       -0.010485092 0.013389386 -0.0015738854 -0.00049939955
0001b0 83 4e 4f 3c 9a ed 8d 3a b6 66 a8 3b 47 8b 16 3b
       0.012652996 0.0010828257 0.005139197 0.00229712
0001c0 1b 92 b0 bc 13 0d 99 3b b7 10 ac 3b 33 84 24 3a
       -0.021554044 0.004670748 0.005251016 0.0006275803
0001d0 b3 d6 d5 bb 8e 41 38 bc f7 22 29 bc 1a 09 03 bb
       -0.0065258383 -0.011246098 -0.010323278 -0.0019994439
0001e0 7b bc a9 bb ef 91 98 bb 44 cc 09 bc f5 20 d6 bb
       -0.0051799393 -0.0046560685 -0.008410517 -0.0065346905
0001f0 bb 91 5b 3c a1 2f 36 bb 3f 2c 91 3b 0f 1e 90 3a
       0.013401444 -0.0027799385 0.0044303234 0.0010995286

exp_avg f4 [128, 8]
000000 6d 31 50 bb 4c de eb 39 40 7c 76 b8 a5 d2 8a bb
       -0.0031767741 0.00044988317 -5.8766687e-05 -0.0042365366
000010 a8 70 eb 39 9d 70 b2 3a b8 89 8b 3b a0 af 6a 38
       0.00044906628 0.0013613884 0.0042583607 5.595351e-05
000020 e0 61 88 39 ac d0 4d 39 14 dc 0f ba a6 99 a4 ba
       0.00026012864 0.0001962806 -0.0005487811 -0.0012557998
000030 c3 2d 4c 39 f8 de 7c 39 9e bf 8d 3b 59 4b cf 38
       0.00019472004 0.00024115655 0.004325821 9.884564e-05
000040 89 f8 51 3a c0 60 10 b9 a5 67 a1 b8 62 ad 1a 3a
       0.0008009752 -0.00013768952 -7.6963835e-05 0.000590047
000050 d2 74 10 b9 e2 70 55 b7 12 74 85 39 81 ed 57 b6
       -0.00013776429 -1.2722072e-05 0.00025454216 -3.2175742e-06
000060 4e 6b 85 bb b4 55 0b 39 50 32 31 39 bc 36 16 bb
       -0.0040716296 0.00013288 0.00016898778 -0.0022920808
000070 f0 e4 09 39 23 80 af ba 4e 53 4c 3b 09 73 11 39
       0.00013150624 -0.0013389628 0.0031177583 0.00013871132
000080 ed 70 ed 3a 20 72 f9 b9 c6 34 e8 ba 10 f6 ec b9
       0.001811532 -0.0004757801 -0.0017715923 -0.0004519676
000090 f8 cc 01 ba 7b da 2d ba 20 71 1b 3b 2b 73 92 b9
       -0.0004951502 -0.00066319824 0.002371855 -0.00027933097
0000a0 f4 1c 77 bb f1 88 f2 39 3f af 45 b9 a1 0b fb 3a
       -0.0037706466 0.00046259866 -0.00018852668 0.0019153246
0000b0 d2 bc f5 39 8b b2 b1 3a 0f 64 c8 bb a6 17 c4 39
       0.00046870724 0.0013557238 -0.0061154435 0.00037401653
0000c0 c8 73 da b9 34 76 b7 b9 a4 ad 68 3b 00 46 72 3a
       -0.00041666464 -0.00034992548 0.0035503889 0.0009241998
0000d0 50 54 bb b9 4b f0 73 bb be 09 3d 3c ee 94 13 b9
       -0.00035730237 -0.0037222083 0.011537967 -0.00014074493
0000e0 aa ee 47 b9 34 7e c7 b7 68 d3 d6 38 b0 0b 6d ba
       -0.00019067028 -2.3781417e-05 0.00010243693 -0.0009042574
0000f0 b4 75 c5 b7 e4 9f 7f 39 6a a5 e5 b9 2a c7 88 37
       -2.353904e-05 0.00024378259 -0.00043801527 1.6305206e-05
000100 a7 b0 2e 3b 13 e4 52 ba 68 29 e5 3a f4 e8 e1 3a
       0.0026655586 -0.000804485 0.0017483654 0.0017235563
000110 02 34 55 ba a1 39 5e bb 24 98 0b 3b db d7 ae b9
       -0.0008133055 -0.0033908861 0.00213004 -0.0003334869
000120 2d da 31 bb d7 2c 3d 3a be 4e e6 ba 28 3f 85 bb
       -0.00271381 0.00072164595 -0.0017571074 -0.0040663667
000130 16 5a 3b 3a 10 2a 9f 3a c2 6d 33 3b 17 67 28 b9
       0.0007146908 0.0012143273 0.0027378653 -0.00016060132
000140 04 1a af 39 82 09 08 39 df 80 5a 3a 9c bf c3 39
       0.00033397984 0.00012973513 0.00083352433 0.00037336058
000150 ee 8d 07 39 f0 34 f3 39 1d 03 49 3b 83 4d b4 37
       0.00012927476 0.00046388013 0.0030672022 2.1493766e-05
000160 56 33 38 bb 72 85 b6 b9 02 d1 6d 3a 18 5d b2 38
       -0.002810677 -0.0003481317 0.0009071977 8.5050415e-05
000170 54 91 b4 b9 fa ca 1a bb fc 15 15 bb e8 ba d0 38
       -0.00034440553 -0.0023619519 -0.00227487 9.953027e-05
000180 ba 7d 03 3b ee 06 e8 b9 92 99 7d 3b 5a a0 d7 ba
       0.0020063953 -0.0004425565 0.0038696271 -0.0016450987
000190 13 70 e7 b9 22 28 c1 bb 84 01 45 3c 17 af a5 37
       -0.00044143255 -0.005894677 0.012024287 1.9751065e-05
0001a0 8a 80 d8 ba 81 cc 12 3a ea e9 06 ba 53 1a 1a 3b
       -0.00165178 0.00055999315 -0.000514655 0.0023514226
0001b0 6e f5 12 3a 01 0b f6 3a 14 cf 51 bb e7 cc 08 38
       0.000560603 0.001877159 -0.0032014297 3.2615757e-05
0001c0 98 66 36 ba c1 a9 37 3a b0 0e 34 ba fb cd c2 39
       -0.00069580367 0.00070061913 -0.00068686437 0.0003715603
0001d0 af 8a 37 3a 4a 5d f9 3a 7a aa a0 3b fd 4e 09 38
       0.00070015615 0.0019024995 0.004903135 3.273691e-05
0001e0 c0 57 59 38 78 32 2a ba 73 ab df 3a dc 03 98 ba
       5.1818555e-05 -0.0006492506 0.0017064646 -0.001159783
0001f0 d8 4b 2a ba b6 47 ac bb ae a4 ad 3b b3 45 1f b7
       -0.0006496287 -0.005257572 0.0052991724 -9.493367e-06
000200 98 27 f4 ba 39 dd 0c 39 f0 26 0f 3b da 63 e1 39
       -0.0018627523 0.00013433852 0.0021843277 0.0004298974
000210 8e 7c 0d 39 9c 0a f3 ba 35 38 55 3b 4e 15 3f 38
       0.00013493208 -0.001854259 0.0032534723 4.555779e-05
000220 20 4b 8a 38 48 de 11 b8 5c 58 f0 39 51 60 b5 ba
       6.594346e-05 -3.477771e-05 0.000458422 -0.0013837909
000230 00 6c 0e b8 26 b1 03 3a f9 bc bc 3b fa 8d 24 37
       -3.395602e-05 0.00050236506 0.005759832 9.808218e-06
000240 52 06 2c ba 78 ee 14 39 b1 b8 21 3a d0 47 d6 37
       -0.0006562221 0.00014203216 0.0006169184 2.5544228e-05
000250 7f f9 12 39 95 7f 92 3a ff 83 04 3a 86 56 85 b8
       0.0001401659 0.0011176938 0.00050550693 -6.3580505e-05
000260 8a e4 89 3a 12 d2 be b9 78 17 f4 38 ee 6b b6 3a
       0.001052038 -0.0003639614 0.00011639198 0.0013917664
000270 fd e0 bd b9 d1 0a 03 bb 5e 29 35 3a 1a 7e 40 38
       -0.00036216518 -0.001999546 0.0006910766 4.589381e-05
000280 b4 cd 22 bb ea b9 4d 3a 50 ab 93 39 53 88 23 bb
       -0.0024841847 0.0007847833 0.00028165663 -0.0024953082
000290 1d 2f 4d 3a 3a 29 7e 3a ad d5 36 3c a6 a5 7f 38
       0.000782715 0.00096954743 0.011159343 6.095101e-05
0002a0 e2 f6 e3 ba 74 65 87 39 a4 cb 88 b8 6f da be ba
       -0.0017392302 0.00025824795 -6.5229164e-05 -0.0014560948
0002b0 ea 3e 87 39 aa 16 66 ba 78 11 f3 b9 16 9c a2 38
       0.0002579608 -0.0008777181 -0.00046361587 7.753835e-05
0002c0 f1 91 3c ba d6 51 17 39 f8 d6 9f b9 b0 a8 1c ba
       -0.0007193378 0.00014430968 -0.00030487007 -0.0005976064
0002d0 f0 9d 20 39 80 cb b0 36 e2 d0 42 bb 3f c4 c5 39
       0.00015317625 5.2688993e-06 -0.0029726555 0.00037720983
0002e0 80 de c3 37 e8 d5 14 b9 18 9d 84 38 f5 87 28 3a
       2.3349421e-05 -0.00014194066 6.3235115e-05 0.00064289506
0002f0 4a 5f 16 b9 48 e0 16 39 00 b8 dc 37 ef 07 3e b8
       -0.00014340613 0.00014388666 2.6311725e-05 -4.530692e-05
000300 60 f6 4f 39 3c 25 d9 38 52 5e dd b9 1c 8e 56 b9
       0.0001983284 0.00010354302 -0.0004222268 -0.0002046157
000310 28 af e4 38 74 31 1d ba 08 dd d3 b9 16 d9 17 37
       0.000109045126 -0.0005996444 -0.00040409737 9.050846e-06
000320 a7 3c f0 3a b3 26 d7 b9 28 56 fa b9 7d d3 b9 3a
       0.0018328623 -0.0004103683 -0.00047747907 0.0014177408
000330 d1 97 d6 b9 f4 48 40 3a 63 5c 89 3b 15 bf 1f 38
       -0.00040930373 0.00073350896 0.0041919216 3.8086513e-05
000340 2b 80 02 39 9f 10 23 b8 a8 d3 2a b7 dc 9f 4d 3a
       0.00012445512 -3.8877708e-05 -1.018207e-05 0.00078439503
000350 2a 8a 23 b8 04 7e f7 39 d0 af 1e 3a ce fd 2e b6
       -3.8990904e-05 0.000472054 0.000605342 -2.6075754e-06
000360 f0 9c da 3a f5 43 4a ba 94 ee 78 3b 42 e9 1e 3b
       0.0016678851 -0.0007715815 0.0037984 0.002424792
000370 1a 10 4a ba cd 21 57 bb d2 11 b1 3b ef 12 db 37
       -0.0007708088 -0.0032826543 0.0054037357 2.6115651e-05
000380 f4 5b 96 3a 50 5a a6 b8 54 89 89 39 58 42 d9 3a
       0.0011471496 -7.932319e-05 0.00026232994 0.0016575558
000390 bc 07 a6 b8 94 7d 49 39 8c 99 65 3a 44 b2 01 37
       -7.9169375e-05 0.00019215635 0.0008758537 7.730505e-06
0003a0 71 2d cd 3a 09 74 05 b9 dd b4 21 39 32 4b 1b ba
       0.0015653801 -0.00012727095 0.00015421533 -0.0005923986
0003b0 2a a7 01 b9 02 ed 60 3a 9c 0e 81 3a d1 2e 88 b8
       -0.00012364672 0.0008580239 0.0009846273 -6.4937056e-05
0003c0 4f 65 8c bb fe c9 e2 38 f8 9e 02 bb eb 2a f2 39
       -0.004284538 0.00010814144 -0.0019931179 0.00046189813
0003d0 75 02 e4 38 2b 41 1f 3a d5 72 20 bb c5 02 bf 39
       0.00010872345 0.00060750794 -0.0024482508 0.00036432422
0003e0 94 c6 d4 ba 46 56 81 39 34 d6 07 39 ba be b6 b9
       -0.0016233497 0.00024669076 0.000129544 -0.00034855847
0003f0 43 36 82 39 a2 3f 29 3b 40 8b 4f 38 36 02 4c 38
       0.0002483596 0.0025825282 4.9482333e-05 4.863945e-05

exp_avg_sq f4 [128, 8]
000000 c5 1b 38 3a d4 0b c9 37 1a 98 19 3a 20 16 1c 3a
       0.0007023181 2.3966575e-05 0.0005859152 0.00059542246
000010 0b 97 c8 37 d6 3c 0a 3a 8e 92 83 3a c7 f9 49 36
       2.3912193e-05 0.00052733475 0.0010038184 3.0096724e-06
000020 b9 05 d2 39 8f 09 65 37 98 7b cc 39 28 f5 cb 39
       0.00040058585 1.3651689e-05 0.00039001997 0.00038901833
000030 a5 d4 64 37 71 e8 8c 39 fd a3 ee 39 3c 36 6b 35
       1.3639369e-05 0.00026876063 0.00045517078 8.7623243e-07
000040 a0 de 81 38 c9 52 17 36 df 68 56 38 c1 5d 82 38
       6.1926665e-05 2.254894e-06 5.1119245e-05 6.216346e-05
000050 50 9d 14 36 5e 1f 75 38 50 75 ba 38 2c 83 a0 35
       2.2145286e-06 5.8441765e-05 8.891022e-05 1.1959105e-06
000060 85 ed 9f 39 f0 32 5b 37 55 a0 a3 39 cd 1e 8e 39
       0.0003050381 1.3065277e-05 0.0003120924 0.000271073
000070 ea 6b 5b 37 91 ff aa 39 9d 17 be 39 99 ad 04 35
       1.3078543e-05 0.0003261534 0.00036257217 4.942645e-07
000080 df e6 08 3b 0f 0f 8b 38 bf e6 b7 3a cb 09 d9 3a
       0.0020889563 6.6308414e-05 0.001403056 0.0016558705
000090 2d ca 8a 38 fa c5 a7 3a 9c 31 5a 3b 26 64 6a 36
       6.618011e-05 0.001280009 0.003329373 3.4927011e-06
0000a0 54 c9 6b 39 d0 87 1d 37 8d 44 71 39 31 5f 68 39
       0.00022486347 9.3895505e-06 0.00023009088 0.00022160706
0000b0 91 6d 1e 37 13 e3 4a 39 78 81 cc 39 79 60 a8 35
       9.443044e-06 0.00019348813 0.00039006374 1.2545053e-06
0000c0 f7 99 0c 3b 7d 04 8e 38 6a a7 c9 3a a2 df c0 3a
       0.0021454075 6.771924e-05 0.0015384976 0.0014715085
0000d0 63 35 8e 38 97 d9 a3 3a 06 c1 81 3b b1 5c 5c 36
       6.781032e-05 0.001250076 0.0039597778 3.2836508e-06
0000e0 fe 18 79 38 b3 61 0d 36 49 18 5d 38 99 b2 85 38
       5.9389502e-05 2.1067506e-06 5.2713123e-05 6.3752006e-05
0000f0 6b 0d 0b 36 c2 6b 9c 38 1a 3f 86 38 dc bf bc 35
       2.0720424e-06 7.458731e-05 6.4013715e-05 1.406293e-06
000100 89 d0 27 3a 48 94 a8 37 a9 d5 e3 39 37 b3 10 3a
       0.00064016186 2.009621e-05 0.00043456003 0.0005519869
000110 db ba a8 37 ff 6f ae 39 4e a8 a4 3a 53 e3 57 36
       2.0114172e-05 0.0003327131 0.0012562366 3.2169817e-06
000120 6e 42 25 3a 72 ba ce 37 70 6e 26 3a 84 75 20 3a
       0.0006304149 2.4643934e-05 0.0006348854 0.0006121027
000130 e9 43 cf 37 65 b4 1c 3a 30 3b 82 3a 95 c7 97 35
       2.4707946e-05 0.00059778086 0.0009935852 1.1308463e-06
000140 27 b4 7f 39 e4 22 f0 36 cc eb 2c 39 db 63 43 39
       0.00024385807 7.156619e-06 0.0001649104 0.00018633848
000150 5b 61 f0 36 f7 d7 06 39 ad 2d e9 39 1a c3 ce 35
       7.163891e-06 0.00012859689 0.00044475254 1.5404978e-06
000160 a2 3d 1b 3a 0e 70 cc 37 d0 d6 1b 3a 1b e1 3a 3a
       0.0005921965 2.4370875e-05 0.00059447903 0.000712888
000170 a7 c2 ca 37 80 34 09 3a f0 bf 57 3a e6 23 37 37
       2.4170919e-05 0.00052339584 0.00082302 1.0916008e-05
000180 df 76 ad 3a 92 b1 81 38 bb 97 e3 3a aa 9f b2 3a
       0.0013234279 6.1842744e-05 0.0017363945 0.0013627906
000190 cd 6b 82 38 28 c7 87 3a d6 53 b2 3a 36 cc fb 36
       6.2189625e-05 0.0010359036 0.0013605307 7.504156e-06
0001a0 4e da b9 39 10 f9 1a 37 fd 9c 56 39 c0 03 9a 39
       0.000354486 9.237105e-06 0.00020467113 0.00029375963
0001b0 c0 ee 19 37 bd f1 2f 39 6b 71 2a 3a e8 24 c5 35
       9.175099e-06 0.00016779355 0.0006501886 1.4688385e-06
0001c0 76 ac d4 39 c5 42 93 37 ec a1 e8 39 ab 94 9b 39
       0.00040564284 1.7554858e-05 0.0004437113 0.0002967467
0001d0 c3 1a 94 37 90 06 b8 39 97 e1 0f 3a db a1 8b 35
       1.7655437e-05 0.00035100104 0.00054886326 1.0403413e-06
0001e0 44 4c 86 39 00 5c 5f 37 7c 2b d9 39 32 2b 88 39
       0.00025615294 1.3313256e-05 0.00041421864 0.00025972124
0001f0 cb 03 60 37 43 d5 75 39 79 a9 b5 39 91 df ce 35
       1.3352324e-05 0.00023444467 0.00034649277 1.5413262e-06
000200 de 44 dd 39 d7 29 72 37 dd 73 e2 39 24 53 d4 39
       0.00042203715 1.4434066e-05 0.00043192404 0.00040497736
000210 ce 2f 73 37 b2 1e 8f 39 9f ad f5 39 72 a9 00 36
       1.4495059e-05 0.00027297955 0.000468594 1.9172116e-06
000220 b7 ad 0c 3a 26 e6 79 37 e0 4f a6 39 99 a4 b4 39
       0.00053664617 1.4895142e-05 0.000317215 0.0003445491
000230 11 6c 79 37 da c5 94 39 52 31 7d 3a e8 16 0f 36
       1.4866718e-05 0.0002837617 0.00096585334 2.1321994e-06
000240 f4 ec 76 38 ae b3 eb 35 5a 47 3e 38 97 28 3c 38
       5.887165e-05 1.7561158e-06 4.536598e-05 4.4860495e-05
000250 ae ad e7 35 43 0f 0f 38 64 31 c9 38 9f a6 ff 34
       1.7261389e-06 3.410807e-05 9.5936266e-05 4.7618684e-07
000260 59 15 4c 39 a7 bb d6 36 1e 7f 08 39 13 95 4f 39
       0.00019462909 6.3995426e-06 0.00013017326 0.00019796593
000270 63 3c d6 36 36 a7 13 39 cb 87 90 39 61 fb c9 35
       6.384727e-06 0.00014081303 0.00027566994 1.5048828e-06
000280 7a 13 7b 3a fd da 22 38 b7 5e 8c 3a f7 fd 81 3a
       0.00095777924 3.882776e-05 0.001070938 0.0009917606
000290 4c 62 23 38 ce 32 42 3a fc 45 7b 3a 2b ee 79 36
       3.8953774e-05 0.0007408083 0.00095853186 3.7242523e-06
0002a0 bf cf 9e 39 39 a9 12 37 55 c0 5a 39 d3 96 86 39
       0.0003029089 8.741678e-06 0.0002086175 0.00025670844
0002b0 15 d5 11 37 5f 94 10 39 9d 0f f1 39 24 05 e7 35
       8.6922855e-06 0.00013788183 0.00045978735 1.7212337e-06
0002c0 58 bd 94 39 4e 47 25 37 2a d4 85 39 2a 6d 90 39
       0.00028369832 9.851368e-06 0.0002552581 0.00027547154
0002d0 55 b9 25 37 18 bc 33 39 ff c5 0a 3a 20 88 34 35
       9.877917e-06 0.0001714084 0.0005293786 6.7253313e-07
0002e0 e0 ed 61 39 44 15 d5 36 43 b5 1d 39 90 e1 18 39
       0.00021546287 6.3503703e-06 0.00015040212 0.00014579878
0002f0 70 8f d5 36 f0 eb 54 39 f0 25 fc 39 88 0b ad 34
       6.364593e-06 0.00020305789 0.0004809345 3.223215e-07
000300 a7 59 e1 39 fa ea 4a 37 97 ff 8b 39 89 f4 a0 39
       0.0004298214 1.2094848e-05 0.00026702575 0.0003069977
000310 51 3b 4a 37 8d 80 84 39 4a 98 54 3a 84 a0 06 36
       1.2053949e-05 0.0002527278 0.0008109851 2.0060988e-06
000320 f9 4c 01 3b 7d 77 69 38 fb 74 91 3a b3 94 bb 3a
       0.0019729717 5.566281e-05 0.0011097485 0.0014311284
000330 d9 9f 67 38 03 c7 91 3a 5e 7d 68 3b 22 29 15 37
       5.522356e-05 0.0011121932 0.0035475115 8.890669e-06
000340 10 8d 74 38 de f5 cb 35 df 03 f4 37 8d c6 0b 38
       5.8305508e-05 1.5196235e-06 2.908887e-05 3.3325097e-05
000350 fc 35 cb 35 ed 88 ed 37 06 f0 d4 38 d5 24 2c 34
       1.514039e-06 2.8316363e-05 0.000101536556 1.6032148e-07
000360 89 02 ac 3a 80 c1 2c 38 64 71 65 3a 9a cc 69 3a
       0.0013123314 4.1188207e-05 0.0008752553 0.00089187326
000370 8d 23 2c 38 e9 dd 41 3a ca d6 09 3b 80 b8 92 36
       4.1041105e-05 0.0007395433 0.0021032565 4.3726177e-06
000380 17 b5 38 39 8b 42 de 36 f2 d3 66 39 37 41 1d 39
       0.00017615069 6.623862e-06 0.00022013465 0.00014996981
000390 d7 6f db 36 5c e5 08 39 95 f6 4d 39 3e 42 17 36
       6.5397285e-06 0.00013055414 0.00019642182 2.2539311e-06
0003a0 44 08 66 39 84 af 0b 37 4b 6e 87 39 33 9f 7e 39
       0.00021937588 8.325911e-06 0.0002583138 0.00024282634
0003b0 93 6f 0a 37 cb 14 16 39 b7 bd 82 39 dc ef bb 35
       8.251419e-06 0.00014312861 0.0002493688 1.4002394e-06
0003c0 da 88 e0 39 0a 28 b0 37 a2 52 e8 39 47 c5 e1 39
       0.00042826572 2.099948e-05 0.00044312055 0.00043062327
0003d0 fb e2 b0 37 f4 fc 0d 3a d7 70 38 3a 50 19 29 36
       2.1086531e-05 0.0005416416 0.00070358574 2.5197696e-06
0003e0 c0 d4 2e 39 a7 49 e5 36 ff a9 4d 39 8b 34 52 39
       0.00016673189 6.833306e-06 0.00019613652 0.00020046734
0003f0 28 86 e4 36 a4 07 1e 39 ee 56 3b 39 c6 2b 5a 35
       6.8105473e-06 0.000150709 0.00017866094 8.127503e-07
