MLATest/results/RollerBall/RollerBall/RollerBall-17488.pt (torch, 448335 bytes, 39 tensors)

network_body._body_endoder.seq_layers.0.weight f4 [128, 8]
-0.41923746 0.0034203562 0.18948598 0.034478497 0.35268605 0.21486773 0.14281823 -0.17743772
0.40712824 -0.2269358 0.38202488 -0.06597778 -0.48823872 0.046770755 0.4146842 0.12244268
-0.5384602 0.06109367 -0.21419771 0.32498777 0.21905501 0.44404045 0.88023216 -0.14530428
0.2663849 -0.5274489 -0.20691101 -0.3063303 0.15850373 -0.4936022 0.18396398 0.16622096
0.14420283 0.34379742 -0.17192529 -0.06605263 0.056965303 -0.5380868 -0.110133305 0.33453253
0.0053431513 -0.03252219 0.40084884 -0.5244138 -0.5291424 0.21768868 -0.28525046 -0.082892604
-0.39246744 0.25652584 0.20346624 -0.19438133 -0.18362433 -0.2855561 0.20993514 0.74466485
-0.34498152 -0.06709534 -0.5462227 0.43324488 -0.31971163 0.107959956 0.4451805 -0.66337645
0.34261644 -0.38266635 -0.030420896 -0.16336484 -0.32887933 0.056225136 -1.0631347 0.16307956
-0.42579713 -0.24216294 0.1348419 0.20131174 0.5072766 0.4934085 0.2847852 -0.6412569
0.24727103 0.103618145 0.04045712 0.11091187 -0.16128263 -0.17430077 0.18596482 -0.4279488
0.5819883 0.07636576 0.29163238 -0.35475507 -0.09267325 -0.47210094 0.719284 -0.052213587
-0.0503231 0.32043505 -0.41891837 -0.28877184 -0.32741898 -0.5144186 0.02046226 -0.0889988
-0.09512646 -0.4593124 0.38277885 0.13017744 -0.43963906 -0.57460606 0.7817145 -0.18410929
0.32253858 0.46063298 0.44192356 0.30184805 0.5301842 0.14164677 -0.15330736 -0.05744181
0.26111642 -0.08791934 0.63331276 0.19977768 0.54051864 0.55367273 0.20778038 -0.18704389
-0.2678702 0.27359095 -0.5192622 0.46313053 0.18519774 0.060912546 0.02197671 -0.13866536
0.124888696 -0.5298504 0.2159585 -0.079498686 0.20637403 -0.25310788 0.20479289 -0.53032976
0.25419876 0.5187848 -0.40129122 0.22474115 0.0015397506 -0.45367652 0.05522776 -0.16028422
0.039960206 -0.17078094 -0.4549387 0.08186911 -0.048941318 -0.12165952 -0.5717257 0.2969758
0.17287542 -0.12463215 -0.41203555 -0.48982537 0.20887376 -0.62455404 0.1320361 0.09323772
-0.12482319 -0.24406901 0.29029647 0.1448465 0.34354293 -0.034308493 -0.041873947 -0.37345707
-0.49126655 0.044467904 0.066083044 0.16520424 -0.078381196 -0.0018892325 -0.5029223 0.3709181
-0.23670079 -0.24212897 0.21886422 0.17600846 0.05197705 0.4449689 0.1726605 -0.265925
0.1761296 0.2646754 -0.38031 0.20505454 0.1296366 0.35180905 -0.54422545 -0.008393787
-0.011603186 -0.10648267 0.4205004 0.30220458 0.28637436 -0.20677337 0.04186854 -0.0012644196
-0.33648866 0.37766954 -0.3087595 0.47564146 0.5390282 -0.38544083 -0.12063411 -0.60632855
-0.26331708 0.1616111 -0.036748942 0.5647014 0.15154319 -0.5648504 -0.1294808 -0.006033787
-0.16284974 0.28895286 0.8381538 0.44996095 0.3836597 -0.34515962 -0.7369349 -0.33605334
0.08581882 -0.47814757 0.26286745 -0.10459189 -0.18249254 -0.6205069 -0.35209867 0.043038353
0.10154993 0.7224359 0.27257437 0.014621635 -0.016880255 -0.63632774 0.0073561026 0.15898518
-0.17854832 -0.39277396 0.13866816 -0.20912433 -0.17994665 -0.13215746 -0.03424923 -0.6096869
00000000: 4ba6 d6be 0e28 603b 9d08 423e 5339 0d3d
00000010: 4493 b43e 4906 5c3e f13e 123e 3cb2 35be
00000020: 1d73 d03e dc61 68be c498 c33e 5c1f 87bd
00000030: 6dfa f9be b192 3f3d 7d51 d43e 3ac3 fa3d
00000040: 87d8 09bf 5b3d 7a3d a556 5bbe cc64 a63e
00000050: f54f 603e 4559 e33e e556 613f a5ca 14be
00000060: 9a63 883e e406 07bf 7be0 53be 53d7 9cbe
00000070: cd4e 223e 6db9 fcbe 0e61 3c3e d435 2a3e
00000080: e8a9 133e 3706 b03e 2f0d 30be 9a46 87bd
00000090: 7354 693d 0ec0 09bf 928d e1bd d947 ab3e
000000a0: 9a15 af3b fd35 05bd 0f3c cd3e fc3f 06bf
000000b0: e075 07bf c8e9 5e3e 590c 92be 99c3 a9bd
000000c0: 7ef1 c8be 5b57 833e 7459 503e e60b 47be
000000d0: 0408 3cbe 6934 92be 3df9 563e 5ba2 3e3f
000000e0: 6ba1 b0be 4869 89bd 40d5 0bbf 46d2 dd3e
000000f0: 3eb1 a3be 1c1a dd3d b3ee e33e 0ad3 29bf
00000100: 6c6b af3e d8ec c3be 3e35 f9bc 1d49 27be
00000110: df62 a8be 544c 663d cc14 88bf 54fe 263e
00000120: 1502 dabe 90f9 77be ff13 0a3e aa24 4e3e
00000130: e1dc 013f 0aa0 fc3e 5ecf 913e 6a29 24bf
00000140: 9e34 7d3e c035 d43d 5db6 253d c325 e33d
00000150: 4627 25be e77b 32be 906d 3e3e 1b1c dbbe
00000160: 2ffd 143f a765 9c3d d750 953e 75a2 b5be
00000170: 79cb bdbd 37b7 f1be ff22 383f eadd 55bd
00000180: 981f 4ebd 1010 a43e 787c d6be e7d9 93be
00000190: 76a3 a7be f0b0 03bf 78a0 a73c 0145 b6bd
000001a0: a9d1 c2bd ff2a ebbe 97fb c33e 3c4d 053e
000001b0: 5f18 e1be 6219 13bf 711e 483f 2587 3cbe
000001c0: c723 a53e 16d8 eb3e ce43 e23e d48b 9a3e
000001d0: 27ba 073f da0b 113e 9bfc 1cbe 1a48 6bbd
000001e0: 0db1 853e 0e0f b4bd c920 223f 8592 4c3e
000001f0: 6e5f 0a3f 7fbd 0d3f 61c4 543e 6f88 3fbe
00000200: 4826 89be 1d14 8c3e 5eee 04bf 721f ed3e
00000210: 7aa4 3d3e 6f7f 793d 8008 b43c 4bfe 0dbe
00000220: a5c5 ff3d 47a4 07bf 3a24 5d3e 35d0 a2bd
00000230: b753 533e 5b97 81be 3ab5 513e b1c3 07bf
00000240: 5726 823e 15cf 043f 0b76 cdbe 8b22 663e
00000250: 75d1 c93a 4a48 e8be 8136 623d 8c21 24be
00000260: 50ad 233d 33e1 2ebe baed e8be feaa a73d
00000270: b176 48bd a028 f9bd 9e5c 12bf 360d 983e
00000280: 4106 313e 243f ffbd 53f6 d2be 64ca fabe
00000290: 01e3 553e c6e2 1fbf 7934 073e 6bf3 be3d
000002a0: 4da3 ffbd 3aed 79be bda1 943e a452 143e
000002b0: dce4 af3e 1087 0cbd 0484 2bbd c435 bfbe
000002c0: 4a87 fbbe fa23 363d 8c56 873d 4d2b 293e
000002d0: 5286 a0bd 20a0 f7ba 84bf 00bf fae8 bd3e
000002e0: b161 72be a8f0 77be f11d 603e 903b 343e
000002f0: e3e5 543d f7d2 e33e eacd 303e 5227 88be
00000300: 515b 343e 8983 873e feb7 c2be d1f9 513e
00000310: 75bf 043e 5120 b43e 5c52 0bbf 1886 09bc
00000320: 4a1b 3ebc 9613 dabd d44b d73e 8fba 9a3e
00000330: a99f 923e 66bc 53be 597e 2b3d e2ba a5ba
00000340: 3e48 acbe e75d c13e ba15 9ebe 4787 f33e
00000350: c1fd 093f 8058 c5be 040f f7bd 5938 1bbf
00000360: 7fd1 86be 617d 253e 0f86 16bd 4590 103f
00000370: 232e 1b3e 099a 10bf 9d96 04be 13b7 c5bb
00000380: 15c2 26be a1f1 933e 3f91 563f 4861 e63e
00000390: 0b6f c43e c3b8 b0be c4a7 3cbf 2f0f acbe
000003a0: c7c1 af3d c2cf f4be 9096 863e 4634 d6bd
000003b0: 53df 3abe 8ad9 1ebf 4746 b4be fc48 303d
000003c0: 69f9 cf3d 8ff1 383f de8e 8b3e 958f 6f3c
000003d0: 7648 8abc 60e6 22bf 760b f13b 03cd 223e
000003e0: 5fd5 36be ab19 c9be 07ff 0d3e b024 56be
000003f0: ef43 38be 4954 07be ec48 0cbd 7114 1cbf

network_body._body_endoder.seq_layers.0.bias f4 [128]
0.008723293 0.0012622534 0.05834513 -0.03661387 0.02201986 0.0022636438 -0.0012544182 0.033372555
0.037536312 0.0211817 -0.0056241737 0.023085684 -0.039602675 -0.047097832 -0.016566174 0.0029083923
0.0037100993 -0.03483454 0.013512017 0.009306654 0.008322665 -0.0063091544 -0.015210128 0.016514618
0.02192022 0.022079026 0.016408697 0.02580653 -0.013928576 -0.04431699 0.001182582 -0.000880962
0.0014332158 -0.02433696 -0.014404124 0.004287137 -0.023304153 0.005875053 -0.011101812 -0.028217116
0.01621103 0.032411516 -0.058359034 0.0056186058 0.03613896 -0.02946877 0.04275109 -0.060201004
-0.03253937 -0.024458906 -0.0017717251 0.003528544 0.0038129038 0.020172764 -0.0019525647 -0.031170808
0.008119446 -0.017971223 -0.0004943332 0.040753037 -0.016168993 0.02676284 0.0109994495 0.026311208
-0.0036107053 0.008032529 0.012392511 0.026587684 -0.0025288146 0.021768916 0.031675007 -0.0032648672
-0.012044419 -0.041279245 -0.012816011 -0.03807703 0.039860398 0.0034552582 -0.013505513 -0.015599888
-0.009670162 0.018503971 0.030837664 0.030783977 -0.026707718 0.050581057 0.001578459 -0.019076835
0.011856247 -0.018163454 -0.061190423 0.030451126 -0.0014721443 -0.008868198 0.059202377 -0.024750253
0.05797706 -0.0032499027 0.02797092 -0.038068246 -0.007063814 -0.024956599 -0.028611913 0.007716567
0.020794792 -0.0072559486 0.046183452 -0.02422896 0.07203187 0.0033495238 0.027892618 0.03567709
0.05032159 0.0055312454 -0.028691338 0.049231246 0.08953815 -0.0057812096 0.01961462 0.020879941
-0.029465236 0.010925915 -0.013631013 0.0017814991 0.012948538 0.039629627 0.010614786 -0.01697637
00000000: 25ec 0e3c 3272 a53a 4efb 6e3d 6df8 15bd
00000010: fe62 b43c a459 143b 4a6b a4ba a9b1 083d
00000020: adbf 193d 3f85 ad3c fd4a b8bb 301e bd3c
00000030: 6a36 22bd a8e9 40bd c9b5 87bc ba9a 3e3b
00000040: 2325 733b aaae 0ebd 8261 5d3c f07a 183c
00000050: c95b 083c 06bd cebb e733 79bc aa49 873c
00000060: 0992 b33c 13df b43c 886b 863c 3768 d33c
00000070: af34 64bc bb85 35bd de00 9b3a 5cf0 66ba
00000080: beda bb3a 4e5e c7bc 46ff 6bbc 1d7b 8c3b
00000090: 5ae8 bebc 8483 c03b 60e4 35bc 9527 e7bc
000000a0: fecc 843c f0c1 043d e209 6fbd 481c b83b
000000b0: 7206 143d 7d68 f1bc c41b 2f3d 5495 76bd
000000c0: 0148 05bd 0b5e c8bc 3b39 e8ba 253f 673b
000000d0: e9e1 793b 5a41 a53c 33ed ffba ec59 ffbc
000000e0: 6d07 053c 6338 93bc 2496 01ba a8ec 263d
000000f0: d674 84bc be3d db3c 0937 343c 9a8a d73c
00000100: 95a1 6cbb de9a 033c f509 4b3c 6ace d93c
00000110: 78ba 25bb ba54 b23c a7bd 013d 62f7 55bb
00000120: f455 45bc 6d14 29bd 3ffa 51bc a9f6 1bbd
00000130: a844 233d 9d71 623b 3a46 5dbc ac96 7fbc
00000140: 996f 1ebc a495 973c 459f fc3c ae2e fc3c
00000150: 25ca dabc 152e 4f3d 4ce4 ce3a 0647 9cbc
00000160: b440 423c 86cb 94bc cfa2 7abd a474 f93c
00000170: f7f4 c0ba eb4b 11bc 317e 723d 0bc1 cabc
00000180: 5b79 6d3d 52fc 54bb 4523 e53c 73ed 1bbd
00000190: 9177 e7bb c871 ccbc 8863 eabc 41db fc3b
000001a0: d759 aa3c 4fc3 edbb dc2a 3d3d d07b c6bc
000001b0: 7285 933d af83 5b3b 0f7f e43c 2422 123d
000001c0: 031e 4e3d 733f b53b 190a ebbc b4a6 493d
000001d0: c75f b73d 4d70 bdbb d7ae a03c 690c ab3c
000001e0: 1461 f1bc 9c02 333c 9d54 5fbc 3181 e93a
000001f0: 1b26 543c ad52 223d a4e9 2d3c 0712 8bbc

network_body._body_endoder.seq_layers.2.weight f4 [128, 128]
0.059639886 0.1455433 0.01864679 -0.10392539 0.04625375 0.04534073 -0.02515837 -0.14724472
-0.08877324 0.11962309 0.045838926 0.060146928 0.06058974 -0.17957011 -0.018351566 -0.0057664267
-0.055601496 0.05041207 -0.12223712 0.13179713 0.06178028 0.051839072 0.03125394 -0.16356976
-0.05996923 0.010614487 -0.002273596 0.08659465 -0.049449142 -0.1053218 0.0036816278 -0.008601221
0.10677258 0.08737413 -0.057982717 0.084385775 -0.12541606 -0.018766083 0.039032016 -0.057058815
-0.081536785 0.10919539 -0.036572184 0.078717135 -0.09800988 -0.087520435 -0.0069121593 0.011499117
-0.009486121 -0.15348144 -0.027626062 -0.08340326 -0.047895413 0.08654613 -0.11809376 0.08566983
0.05319548 -0.047578502 -0.11913255 -0.06210833 0.02083039 -0.028006297 0.022264464 0.1138174
-0.10294626 -0.08935416 -0.098152384 0.14484842 0.035753902 0.006904389 -0.019821344 0.11866286
-0.04870341 -0.0057390006 0.029048366 0.15560333 0.012450708 -0.07434415 -0.049991556 0.0012620966
0.09168808 -0.019193463 -0.053813666 -0.06915564 -0.098912776 0.051450774 -0.060445126 -0.103720814
-0.054240614 0.090372704 -0.08512811 -0.17538765 -0.13335297 -0.031098424 -0.104211666 0.042152807
0.06429681 -0.016227517 -0.04643468 0.06570135 -0.21807332 -0.04840218 0.03013522 0.050956495
-0.24816523 -0.054983526 -0.00565985 -0.03509802 0.0458432 -0.022849867 -0.1677517 0.0673734
0.013549592 0.03991325 -0.014963851 0.08634994 0.06179263 0.003232575 0.15877901 -0.02014723
-0.11153946 -0.014075777 -0.04288591 -0.29125994 0.12142064 -0.1400319 -0.029318811 -0.035885148
0.009005268 0.12378932 -0.115759104 -0.041825853 0.11323052 -0.014268913 0.027715389 0.0014680903
0.07216075 0.0752342 -0.11379621 -0.01719233 -0.06551117 0.07541969 -0.029325834 0.107855886
0.014186394 0.055832826 -0.11397867 0.013271548 0.034153126 0.06555197 -0.06651124 0.09357233
-0.020953914 -0.055987265 0.025629425 0.031797655 0.041845366 0.13479455 0.0889944 0.01789524
0.047220223 -0.07165463 -0.08423584 -0.07509405 -0.095555484 -0.019831367 0.17877756 0.027785005
-0.15453862 0.0020483378 -0.14872745 -0.1071962 -0.14729954 0.05516883 0.15475565 -0.04295206
-0.11008297 0.13295178 -0.044076663 -0.1136343 0.032673627 -0.07613993 0.116711475 0.002798605
-0.13912868 -0.057901435 0.09586557 -0.122258745 -0.01034644 -0.090309255 0.14553168 0.0765802
0.0033124126 -0.08977492 -0.019197565 0.02144225 -0.032650888 0.051388405 -0.14329988 -0.037845552
-0.013140892 0.1451754 -0.15538253 -0.21871747 -0.04834983 0.054641362 -0.023623923 0.0037860058
-0.25860098 -0.0043002404 0.018562842 0.004761528 -0.07581461 0.1212439 0.1124568 0.034785118
-0.0802912 0.15733136 0.027480863 -0.021311928 0.114227936 -0.054802448 0.02474961 -0.098705895
0.040813155 0.030645771 0.02726539 -0.062620476 0.007264863 0.067402355 -0.07960164 -0.10071852
0.084747456 -0.09755976 0.087943174 0.05919593 0.08947358 0.017755063 0.09850234 0.067241296
-0.060158104 -0.14502501 -0.13057998 -0.029434003 0.05031853 -0.02889799 0.07702811 0.16821958
0.01000613 0.2027778 0.032644194 -0.08266796 -0.17904137 0.0592122 0.0066960757 0.08654708
00000000: f448 743d 4e09 153e 27c1 983c d6d6 d4bd
00000010: 9274 3d3d 34b7 393d ed18 cebc 52c7 16be
00000020: bfce b5bd f3fc f43d 99c1 3b3d a05c 763d
00000030: f22c 783d 3ae1 37be 0656 96bc 4bf4 bcbb
00000040: 65be 63bd e37c 4e3d 7557 fabd d4f5 063e
00000050: 520d 7d3d 3555 543d 2204 003d d57e 27be
00000060: 4ca2 75bd 63e8 2d3c 9c00 15bb 8958 b13d
00000070: 2f8b 4abd f5b2 d7bd 7747 713b 23ec 0cbc
00000080: 95ab da3d 35f1 b23d 497f 6dbd 73d2 ac3d
00000090: 116d 00be 54bb 99bc 09e0 1f3d 81b6 69bd
000000a0: c2fc a6bd d5a1 df3d b7cc 15bd 7336 a13d
000000b0: 67b9 c8bd ea3d b3bd 657f e2bb cb66 3c3c
000000c0: ad6b 1bbc 3d2a 1dbe 0d50 e2bc 54cf aabd
000000d0: fb2d 44bd 193f b13d 24db f1bd aa73 af3d
000000e0: 81e3 593d ade1 42bd c4fb f3bd 4e65 7ebd
000000f0: 7ea4 aa3c 766d e5bc f763 b63c 1919 e93d
00000100: 7dd5 d2bd 50ff b6bd 1e04 c9bd 2553 143e
00000110: af72 123d 363e e23b 5f60 a2bc 8305 f33d
00000120: 3a7d 47bd 3a0e bcbb d7f6 ed3c 7b56 1f3e
00000130: 0efe 4b3c bf41 98bd f2c3 4cbd ef6c a53a
00000140: f6c6 bb3d 9c3b 9dbc b86b 5cbd 79a1 8dbd
00000150: c892 cabd 0cbe 523d 4f95 77bd 946b d4bd
00000160: 682b 5ebd 5315 b93d a657 aebd d298 33be
00000170: ae8d 08be 1fc2 febc ed6c d5bd 6ca8 2c3d
00000180: 0cae 833d 92ef 84bc 4b32 3ebd 6e8e 863d
00000190: 9d4e 5fbe 5d41 46bd 23de f63c c2b7 503d
000001a0: 071f 7ebe 6836 61bd 4376 b9bb f1c2 0fbd
000001b0: 14c6 3b3d a52f bbbc 1ac7 2bbe 11fb 893d
000001c0: 1cff 5d3c 137c 233d f12a 75bc 3dd8 b03d
000001d0: 451a 7d3d 9cd9 533b f796 223e ce0b a5bc
000001e0: cd6e e4bd 169e 66bc 23a9 2fbd 0620 95be
000001f0: 62ab f83d 8664 0fbe 012e f0bc 4efc 12bd
00000200: d58a 133c 4185 fd3d 1c13 edbd 9651 2bbd
00000210: 67e5 e73d 29c8 69bc 620b e33c f06c c03a
00000220: 04c9 933d 6314 9a3d fd0d e9bd eed6 8cbc
00000230: b82a 86bd a375 9a3d bb3c f0bc 8ce3 dc3d
00000240: 0d6e 683c f6b0 643d a66d e9bd e870 593c
00000250: 26e4 0b3d 1c40 863d 0c37 88bd daa2 bf3d
00000260: 8ba7 abbc e752 65bd cdf4 d13c 423e 023d
00000270: 0c66 2b3d 9507 0a3e b242 b63d 0a99 923c
00000280: fe69 413d aabf 92bd d783 acbd e9ca 99bd
00000290: 98b2 c3bd 6475 a2bc 7711 373e 619d e33c
000002a0: 5f3f 1ebe 683d 063b 024c 18be ae89 dbbd
000002b0: b1d5 16be b6f8 613d 4478 1e3e 80ee 2fbd
000002c0: 2e73 e1bd 8324 083e bb89 34bd 1ab9 e8bd
000002d0: c8d4 053d 40ef 9bbd 6d06 ef3d cd68 373b
000002e0: c077 0ebe 0e2a 6dbd 2b55 c43d cb62 fabd
000002f0: 1d84 29bc 0ff4 b8bd 4206 153e 14d6 9c3d
00000300: 1015 593b eadb b7bd 3644 9dbc a8a7 af3c
00000310: f0bc 05bd a67c 523d 34bd 12be f003 1bbd
00000320: e54c 57bc dca8 143e 991c 1fbe 79f7 5fbe
00000330: 790a 46bd 9fcf 5f3d f586 c1bc a31e 783b
00000340: 5967 84be 08e9 8cbb 1a11 983c 9806 9c3b
00000350: b144 9bbd b94e f83d c04f e63d d77a 0e3d
00000360: b66f a4bd 791b 213e 8c1f e13c 5a96 aebc
00000370: 56f0 e93d 8878 60bd b2bf ca3c 5126 cabd
00000380: b22b 273d d70c fb3c ab5b df3c 2a3f 80bd
00000390: 160e ee3b 3f0a 8a3d 2f06 a3bd 8345 cebd
000003a0: 1390 ad3d 69cd c7bd 8d1b b43d 6e77 723d
000003b0: ed3d b73d 1173 913c 98bb c93d ceb5 893d
000003c0: 5868 76bd 7081 14be c2b6 05be 941f f1bc
000003d0: ce1a 4e3d 7abb ecbc eac0 9d3d c141 2c3e
000003e0: c0f0 233c fca4 4f3e ebb5 053d d24d a9bd
000003f0: 9f56 37be 7e88 723d c16a db3b 983f b13d

network_body._body_endoder.seq_layers.2.bias f4 [128]
-0.0026237878 -0.002092966 0.010816867 0.024857553 0.0070786043 0.04196584 0.003237186 0.017395204
0.02040696 0.024822889 -0.0012910484 0.0065925643 0.030247206 0.005367442 0.040745817 -0.010452488
0.016632361 0.0112759685 0.026859546 0.012286017 0.016166091 0.07320115 0.009255714 0.022818651
-0.02091786 -0.002798748 0.0028363052 0.020832777 0.028525975 0.015534476 -0.00071506907 -0.00251976
0.01308502 0.03763239 -0.004417352 0.00068754714 -0.016590364 -0.02339859 -0.013677669 0.013939005
-0.0033179861 0.039332543 0.012194734 0.009542613 0.06517448 0.02591878 -0.0054400563 -0.0075043277
-0.012529241 0.017482007 -0.015403614 0.009772183 7.2910225e-05 -0.025767943 0.0096956175 0.014278513
0.00052215846 0.041521 0.032637008 0.00738953 0.044438213 0.0064096577 0.014339908 -0.035159018
0.0102169765 0.0020408286 -0.010059632 0.042304203 0.026629247 -0.008989776 -0.0108929295 -0.006281037
-0.0007104732 0.016448356 -0.012675312 0.042651042 -0.026433736 0.04886044 -0.022805022 -0.014014686
0.013566284 0.07654013 -0.023949182 0.017374279 0.033894423 -0.012832049 -0.016827805 -0.023709549
-0.011637033 0.0024020402 -0.0070539624 0.033807386 0.00046806963 0.024070814 -0.0142920045 0.038845528
-0.025544915 0.01692577 0.001379282 0.0025244865 0.02036749 0.0074323034 0.009549101 0.003558893
0.017155169 0.07502024 0.0036117302 -0.0008303651 0.023343433 0.049795803 0.004216984 0.010604749
-0.00072914734 0.0401896 -0.007260591 0.021392008 -0.004153625 -0.008506913 -0.011644703 0.021629665
0.008560699 0.014718978 0.050298825 0.025675006 0.01603972 0.0649829 0.03005445 0.0397651
00000000: dbf3 2bbb 252a 09bb 3b39 313c 11a2 cb3c
00000010: a3f3 e73b 5fe4 2b3d f826 543b 6380 8e3c
00000020: 7f2c a73c 5f59 cb3c 6538 a9ba 7006 d83b
00000030: fdc8 f73c 5ee1 af3b 16e5 263d ea40 2bbc
00000040: 9740 883c d7be 383c 8d08 dc3c 4a4b 493c
00000050: c06e 843c 7cea 953d 47a5 173c 2eee ba3c
00000060: ef5b abbc 336b 37bb 4ee1 393b 80a9 aa3c
00000070: 4eaf e93c 5184 7e3c 7973 3bba 8f22 25bb
00000080: 8d62 563c 6c24 1a3d 6fbf 90bb 823c 343a
00000090: 84e8 87bc 66ae bfbc 4d18 60bc 6d60 643c
000000a0: 9272 59bb 291b 213d 6ccc 473c 9f58 1c3c
000000b0: 337a 853d 9f53 d43c 8042 b2bb dde6 f5bb
000000c0: 7247 4dbc 6d36 8f3c 715f 7cbc 821b 203c
000000d0: 61e7 9838 4b17 d3bc 5eda 1e3c 6df0 693c
000000e0: 76e1 083a ed11 2a3d 62ae 053d df23 f23b
000000f0: d804 363d 1b08 d23b eff1 6a3c e702 10bd
00000100: 1b65 273c 6cbf 053b 28d1 24bc 2c47 2d3d
00000110: 9425 da3c da49 13bc 4278 32bc 28d1 cdbb
00000120: 0d3f 3aba b4be 863c 1dac 4fbc dcb2 2e3d
00000130: 908b d8bc e221 483d 99d1 babc db9d 65bc
00000140: 1f45 5e3c 12c1 9c3d 1331 c4bc 8154 8e3c
00000150: e1d4 0a3d 843d 52bc 77da 89bc 873a c2bc
00000160: 41a9 3ebc 8c6b 1d3b ed24 e7bb 9d79 0a3d
00000170: 3e67 f539 2830 c53c 0329 6abc 7d1c 1f3d
00000180: 9243 d1bc eaa7 8a3c 06c9 b43a db71 253b
00000190: b9d9 a63c ae8a f33b d573 1c3c 513c 693b
000001a0: ff88 8c3c 36a4 993d c7b2 6c3b dcac 59ba
000001b0: ba3a bf3c aff6 4b3d a02e 8a3b 8bbf 2d3c
000001c0: 4024 3fba da9d 243d 40ea edbb 4b3e af3c
000001d0: 221b 88bb 9460 0bbc 6dc9 3ebc b230 b13c
000001e0: 2d42 0c3c de27 713c 2406 4e3d 6454 d23c
000001f0: bb65 833c c115 853d c034 f63c bbe0 223d

action_model._continuous_distribution.log_sigma f4 [1, 2]
-0.039062303 -0.03881074
00000000: cbff 1fbd 03f8 1ebd

action_model._continuous_distribution.mu.weight f4 [2, 128]
0.004368399 0.021273982 0.022953963 0.051239625 -0.010293639 0.058289737 0.033847444 0.023439355
-0.06347752 0.06074491 0.023173885 -0.007121231 -0.05920392 -0.01845274 0.06708982 -0.016743988
-0.03920265 -0.041762393 -0.013674541 -0.030570595 0.047222853 -0.0027940848 0.02632927 -0.03318427
0.0041814516 0.0004634908 -0.0062489132 -0.037394885 -0.040750787 0.039414644 -0.03163427 -0.0011007258
-0.019193 -0.049373925 0.013357945 0.009485456 0.011951138 -0.002108647 0.009615477 -0.022723868
-0.0058264504 0.07150274 0.0032778434 0.040472604 0.06516449 -0.022031372 0.0029370955 0.0065139635
-0.00038488125 -0.027947431 0.0050659194 -0.03131373 0.008220063 0.0048763817 -0.013976157 -0.0076441653
0.03862582 0.01046919 0.08747207 -0.030437788 0.06754541 -0.031484168 -0.03516022 -0.011412211
0.02410815 -0.013648186 -0.01876967 0.09159255 0.07283439 -0.04303971 -0.0062636524 -0.029757468
-0.040389847 0.025644062 -0.016721744 0.06409129 0.006540409 0.03221123 0.01432047 -0.01746327
-0.0047691897 0.06416362 0.01104942 0.060993038 0.035228714 -0.023681194 0.007494169 0.006424213
-0.020108126 -0.025754439 -0.0071075913 0.06912308 -0.019448511 -0.004698406 -0.00929271 -0.06389321
-0.0069950134 -0.03231763 -0.022449976 6.969478e-05 0.026400913 -0.002097206 -0.048557594 -0.0030626575
-0.024991553 0.059973147 -0.004978528 0.055977847 -0.020958137 0.05103564 -0.015288765 -0.008867883
-0.0019654331 -0.024078144 -0.02978542 -0.015802968 0.0031506398 -0.0127358595 0.03609902 0.034615997
-0.025479024 0.01744133 -0.029359993 -0.04042264 -0.048166014 0.05486287 -0.041587926 -0.05253995
-0.0032662689 0.010119087 -0.0345556 -0.022643676 -0.018830802 -0.025949705 0.025977505 0.039629534
-0.015496576 -0.007819212 -0.0054241084 0.014993718 -0.0027378218 0.024498401 -0.0020709767 0.0023809148
0.016531618 -0.016652765 0.053245403 0.01670972 0.009424016 -0.06544255 0.032148585 0.034987852
0.009277232 -0.0108226705 0.044994634 -0.014259642 0.0016479231 0.032753214 0.056003127 0.030651346
0.009547655 0.0344532 -0.026867026 0.031148352 0.017882137 -0.0036149924 0.012584791 0.01547617
0.015281138 -0.014502889 0.0039431257 0.0026048992 -0.036701996 0.039835606 0.024950976 -0.018423885
0.025801407 -0.014856192 0.03030852 0.0153873535 0.022242099 0.002200919 0.042766616 0.0075325565
-0.0025732352 0.052050266 0.008349647 0.03879508 -0.05897802 0.0017518222 0.009493704 0.02976437
0.012682535 0.011127353 0.008040654 0.030038344 -0.02055821 0.024392454 0.0279665 -0.0031003114
0.03388934 0.020265035 0.024582813 -0.019714851 0.0027383943 0.0661745 0.021255016 0.023409223
-0.03280938 -0.042962585 -0.0075444523 -0.008806275 -0.017279187 0.020644965 0.012971744 0.018898936
0.0024089683 -0.02563418 -0.036110863 -0.05187881 0.014873288 0.063918985 0.020301959 -0.019413412
0.011884739 -0.042938977 0.03304232 0.030615091 -0.028670587 0.015316988 0.036897287 0.014805371
-0.0032008525 -0.056180418 0.018595343 -0.012387934 -0.054206792 -0.010635112 -0.03503135 -0.03311247
0.017521685 -0.015887134 0.0063890107 0.038715307 0.034877416 0.0007334503 0.024861595 0.02917674
-0.016904637 0.039987992 -0.050055068 0.021864682 0.05942136 -0.06454168 -0.015909089 -0.03813527
00000000: c924 8f3b c646 ae3c f309 bc3c a4e0 513d
00000010: a7a6 28bc 38c1 6e3d 9ea3 0a3d e403 c03c
00000020: 8100 82bd a8cf 783d 29d7 bd3c 3759 e9bb
00000030: cf7f 72bd 332a 97bc 6366 893d b02a 89bc
00000040: f592 20bd 0b0f 2bbd 2f0b 60bc 2f6f fabc
00000050: c06c 413d f71c 37bb 7bb0 d73c 3bec 07bd
00000060: 8f04 893b af00 f339 afc3 ccbb 612b 19bd
00000070: 4cea 26bd 4071 213d f092 01bd 3b46 90ba
00000080: a33a 9dbc 503c 4abd 48db 5a3c e368 1b3c
00000090: b5ce 433c 3a31 0abb 3c8a 1d3c 6827 babc
000000a0: cfeb bebb 0770 923d 16d1 563b 9ac6 253d
000000b0: f674 853d 237b b4bc 497c 403b 1673 d53b
000000c0: e3c9 c9b9 03f2 e4bc 0300 a63b d342 00bd
000000d0: 71ad 063c 0eca 9f3b 40fc 64bc e87b fabb
000000e0: 1c36 1e3d f786 2b3c 8e24 b33d ab58 f9bc
000000f0: 3f55 8a3d 8bf5 00bd 2a04 10bd 48fa 3abc
00000100: 747e c53c a49c 5fbc dac2 99bc e094 bb3d
00000110: 322a 953d 684a 30bd 533f cdbb efc5 f3bc
00000120: d36f 25bd 7f13 d23c 0afc 88bc 4b42 833d
00000130: ed50 d63b ecef 033d 68a0 6a3c 220f 8fbc
00000140: dd46 9cbb 3768 833d a008 353c d6d3 793d
00000150: fc4b 103d 10ff c1bc a591 f53b 3482 d23b
00000160: ccb9 a4bc f9fa d2bc cce6 e8bb 6790 8d3d
00000170: 7c52 9fbc 16f5 99bb 7340 18bc 71da 82bd
00000180: 6d36 e5bb 7e5f 04bd 03e9 b7bc 1a29 9238
00000190: ba46 d83c 4771 09bb 54e4 46bd deb6 48bb
000001a0: 16bb ccbc 67a6 753d eb22 a3bb 0749 653d
000001b0: 66b0 abbc bf0a 513d ba7d 7abc 994a 11bc
000001c0: 7fce 00bb 873f c5bc 8e00 f4bc 3a75 81bc
000001d0: f77a 4e3b 11aa 50bc 91dc 133d 81c9 0d3d
000001e0: 63b9 d0bc 1fe1 8e3c 5e84 f0bc 3692 25bd
000001f0: ba49 45bd e4b7 603d 1a58 2abd 2134 57bd
00000200: e60e 56bb 87ca 253c 2c8a 0dbd 3b7f b9bc
00000210: 0e43 9abc 7a94 d4bc c7ce d43c 9452 223d
00000220: 5ae5 7dbc 271c 00bc b8bc b1bb 36a8 753c
00000230: 076d 33bb dfb0 c83c 39b9 07bb 1f09 1c3b
00000240: 516d 873c 616b 88bc da17 5a3d d3e2 883c
00000250: 3067 1a3c be06 86bd 3cae 033d 6c4f 0f3d
00000260: 88ff 173c 9251 31bc 4b4c 383d 46a1 69bc
00000270: 20ff d73a 3c28 063d 8963 653d 8818 fb3c
00000280: c46d 1c3c cc1e 0d3d 3d18 dcbc d42a ff3c
00000290: 8f7d 923c 82e9 6cbb 7030 4e3c c38f 7d3c
000002a0: bd5d 7a3c 869d 6dbc 5635 813b f5b6 2a3b
000002b0: d554 16bd a92a 233d fd65 cc3c b0ed 96bc
000002c0: 795d d33c 6367 73bc 9349 f83c 3d1b 7c3c
000002d0: 1035 b63c 4b3d 103b 0c2c 2f3d aad3 f63b
000002e0: b9a3 28bb a932 553d f5cc 083c 97e7 1e3d
000002f0: f092 71bd 669d e53a 7b8b 1b3c 68d4 f33c
00000300: 68ca 4f3c 804f 363c f2bc 033c f912 f63c
00000310: b169 a8bc afd2 c73c 001a e53c 982e 4bbb
00000320: 8ccf 0a3d dc02 a63c e561 c93c 0a81 a1bc
00000330: a276 333b 7f86 873d 001f ae3c b3c4 bf3c
00000340: 2163 06bd 89f9 2fbd 7437 f7bb 3248 10bc
00000350: 158d 8dbc a11f a93c 7087 543c f1d1 9a3c
00000360: c8df 1d3b c6fe d1bc fce8 13bd e07e 54bd
00000370: 17af 733c f5e7 823d 4b50 a63c e008 9fbc
00000380: 35b8 423c c8e0 2fbd 6257 073d 80cc fa3c
00000390: 94de eabc 1bf4 7a3c 9c21 173d 3a92 723c
000003a0: 65c5 51bb 701d 66bd 4355 983c c3f6 4abc
000003b0: f107 5ebd e53e 2ebc 087d 0fbd f1a0 07bd
000003c0: a389 8f3c bc25 82bc e85a d13b f193 1e3d
000003d0: 9fdb 0e3d 0445 403a 8baa cb3c 0f04 ef3c
000003e0: 987b 8abc 73ca 233d 8b06 4dbd 901d b33c
000003f0: d063 733d 6e2e 84bd c753 82bc bb33 1cbd

action_model._continuous_distribution.mu.bias f4 [2]
-0.0002753669 -0.0085948575
00000000: 1f5f 90b9 72d1 0cbc

action_model._discrete_distribution.branches.0.weight f4 [1, 128]
-0.0001328079 0.006743712 0.007204427 0.009871578 0.0026963889 -0.0057172296 -0.0029339 -0.0033359937
0.0014791129 0.0048322985 0.01180417 -0.0033824944 0.00890072 0.0048412154 0.008289455 0.0061180433
0.0014996452 0.009299052 0.01720472 0.0051117777 0.009055107 -0.0012561977 -0.0015403501 -0.003480151
0.005867709 -0.010140731 0.011430247 0.00804197 -0.0039486126 -0.006767844 -0.0055121686 0.00633429
-0.006575139 0.012091418 0.0019918985 -0.00808157 -0.0038341514 0.0062039876 0.0058694384 0.003708873
-0.0028985408 0.0007432254 -0.00957683 -0.008605882 -0.00026385876 -0.0039647683 -0.011440544 0.0034776088
-0.005820622 0.0025274477 -0.0030252389 0.014822811 -0.0018240301 7.45862e-05 -0.016369363 0.014368623
0.014423638 0.010170626 -0.0045243553 0.0013200067 0.012017943 0.005219922 0.01225189 -0.0032943666
-0.001638062 0.0018993992 -0.0074869874 0.0011449977 -0.0077657015 0.0007331153 -0.011259209 -0.010693324
-0.0019314353 0.0005767708 -0.003115088 -0.0027115038 -0.0033523322 0.0058506234 0.0028536113 0.009759314
0.002520372 0.012506537 0.0010125601 0.01451416 0.008773707 0.0024596166 -0.0025136855 0.004114644
0.006540493 0.003696895 -0.0022737277 8.259023e-05 0.018533684 -0.0008536203 -0.0007866276 0.013770257
0.007990628 0.018835051 -0.004472961 -0.0124675175 -0.0040781195 -0.013674487 -0.009915842 -0.013083021
0.0025595457 0.0047647026 0.007052455 0.0009913839 -0.006367255 0.010985811 0.0003304198 0.004217816
-0.022954619 0.009681724 -0.027361272 -0.0027334269 -0.0059045707 -0.0037227843 -0.0005896994 -0.004586739
-0.012903775 0.01803942 -0.00655204 -0.0027412025 -0.007973983 -0.00884888 0.017299801 -0.016646964
00000000: 5942 0bb9 5bfa dc3b 1d13 ec3b 66bc 213c
00000010: e6b5 303b 9957 bbbb ad46 40bb b0a0 5abb
00000020: cbde c13a 4258 9e3b 4766 413c d7ac 5dbb
00000030: 53d4 113c 0fa3 9e3b 7fd0 073c de79 c83b
00000040: be8f c43a 0d5b 183c eaf0 8c3c b380 a73b
00000050: df5b 143c 00a7 a4ba 93e5 c9ba 3f13 64bb
00000060: e945 c03b 4f25 26bc ee45 3b3c 78c2 033c
00000070: 5d63 81bb cac4 ddbb 6c9f b4bb e08f cf3b
00000080: 4374 d7bb 151b 463c 838a 023b 9068 04bc
00000090: 6346 7bbb d24a cb3b 6b54 c03b 9010 733b
000000a0: 72f5 3dbb 03d5 423a 23e8 1cbc afff 0cbc
000000b0: 8656 8ab9 e3ea 81bb 1f71 3bbc 98e8 633b
000000c0: ebba bebb 89a3 253b 1643 46bb 60db 723c
000000d0: 4b14 efba 296b 9c38 0b19 86bc 5f6a 6b3c
000000e0: 1f51 6c3c b3a2 263c 0b41 94bb 1304 ad3a
000000f0: e8e6 443c e10b ab3b 27bc 483c 4de6 57bb
00000100: 3db4 d6ba 43f5 f83a 6755 f5bb bf13 963a
00000110: 6d77 febb 892e 403a 8c78 38bc 0d33 2fbc
00000120: 3728 fdba 6f32 173a 8126 4cbb 7cb3 31bb
00000130: cdb2 5bbb 96b6 bf3b a703 3b3b 88e5 1f3c
00000140: d32c 253b 38e8 4c3c e1b7 843a cdcc 6d3c
00000150: 98bf 0f3c 8531 213b a5bc 24bb 23d4 863b
00000160: a251 d63b 9b47 723b d202 15bb 4b34 ad38
00000170: f4d3 973c 7dc5 5fba af35 4eba a59c 613c
00000180: 1feb 023c f74b 9a3c eb91 92bb 8f44 4cbc
00000190: bfa1 85bb f50a 60bc 0e76 22bc 2b5a 56bc
000001a0: 0dbe 273b 3921 9c3b 4818 e73b 53f1 813a
000001b0: 68a4 d0bb d5fd 333c 323c ad39 9b35 8a3b
000001c0: 530b bcbc 18a0 1e3c bf24 e0bc 4b23 33bb
000001d0: 217b c1bb f5f9 73bb 0f96 1aba 5b4c 96bb
000001e0: 5b6a 53bc 68c7 933c 7fb2 d6bb bfa5 33bb
000001f0: 4fa5 02bc e5fa 10bc 50b8 8d3c 375f 88bc

exp_avg f4 [128, 8]
-0.0006979588 0.00031088572 -0.000905512 -0.00013268815 0.0003213 0.00032353488 -0.00051262317 7.895491e-05
-0.00012118701 -0.00023685244 0.0005895442 0.000439242 -0.0003407373 -0.0003422557 -0.00026490426 -0.0007851069
0.0030292047 0.000935745 -0.0042496086 0.0027058744 0.0009776284 -0.0033521806 0.004491332 0.0005069688
-0.0009828948 -9.081634e-05 -0.0004988853 -0.001356149 -4.2267093e-05 0.00024893088 -0.0010063485 0.00031693254
-0.0013528529 -0.00052476855 0.00052818377 -0.0021366775 -0.00047616556 0.00087361434 -0.0018740649 0.0002737386
8.4520645e-05 -0.00020982308 -0.00067901035 -0.00025907106 -0.00021193927 0.00030134304 -0.00045287627 -1.8750503e-05
0.0008538194 6.813779e-05 -0.00030390575 0.000822715 7.937701e-05 -0.000624291 0.00038295836 8.711705e-05
0.0005783195 0.0003234751 -0.0016356948 0.00048132375 0.00033654683 -0.0015596731 0.00089114223 0.0001748097
0.0011148761 -0.00015139132 -0.0010232653 0.00052331993 -0.00014997592 -0.00048114752 0.000905843 2.110283e-05
-0.0005930534 0.000110323206 -0.0010299335 -0.00023959499 0.00010676966 0.00022646488 -0.000554897 -1.7657449e-05
-0.0009735057 -0.00023363023 0.0006117298 -0.00050666725 -0.00026932635 -8.7582914e-05 -0.0010838236 -0.00036556946
-0.0013197934 -0.00028053008 0.00035113143 -0.0013453271 -0.00027245205 0.0020152368 -0.0016411177 -1.00229945e-05
-0.000618747 -1.7812827e-06 0.0002504407 -0.0009144582 3.7282047e-05 0.00053282164 -0.00065410003 0.00022519022
0.001084987 0.00020839783 -0.001437088 0.00056648935 0.0002488451 -0.0014223795 0.00090084656 0.00031669848
0.00073329714 -5.3445146e-05 5.541924e-05 0.0010048243 -0.00010059232 -0.0012339168 0.0005656493 -0.00036787
0.0012010215 -0.00024593086 -0.0006123597 0.000360742 -0.0002106289 -0.0003601901 0.00021803423 0.00022554962
0.00025370135 0.0003970082 -0.0011714674 0.0007448826 0.00046270987 -0.0009817377 0.0010702312 0.00052574556
0.001362205 -0.00018274716 0.00014135349 0.000559289 -0.00021120452 -2.71335e-07 0.0008558406 -0.00014923315
-0.0014278131 -0.00048834155 0.0011226144 -0.0021063366 -0.00043287553 -0.0005525575 -0.001797324 0.00033424908
0.0008997107 -0.00015989448 0.0013045059 0.00053811126 -0.0001713403 -0.002096916 0.00076178275 -8.033932e-05
-0.00090238045 -0.00025435782 -7.998326e-05 -0.0010096299 -0.00019017291 -0.0010933909 -0.0007051246 0.00040220673
0.002470946 -0.00022861932 -0.0009981144 0.0013229115 -0.00025117456 -0.0012171038 0.0014732691 -9.005705e-05
-0.00058451085 0.000275724 -0.0002408301 -0.00021547102 0.00027838274 0.00041398115 -0.0002796888 8.37999e-06
-0.00043413113 0.00014513341 -0.00013345784 -6.760234e-06 0.00014454586 -9.279743e-05 -0.00029588398 -9.233949e-06
0.00038234872 -0.00040820707 0.0040780883 0.00037865154 -0.00042169448 -0.0018742676 0.00060005416 -9.641036e-05
0.0023918913 -0.00038341724 -6.297589e-05 0.0019037224 -0.00045177224 -0.0018254572 0.0012648621 -0.00040729638
3.7249825e-05 0.00041978218 -0.0011982601 -0.00018964932 0.00047786237 -0.000917819 0.00054748065 0.0004649957
0.0017862653 0.0004850453 -0.000855549 0.0013965104 0.0004900748 -0.0022947174 0.0019205554 0.00013812931
0.0032402305 -0.00024003911 0.00027461018 0.001578432 -0.00025027755 -0.0018428409 0.001688336 1.332403e-05
0.00026091878 -0.00015176178 0.0013093356 -0.00082244957 -0.00014192534 0.0019198719 -0.00043679832 8.504402e-05
0.0014438196 -0.00057502394 -0.0006719335 0.00047615968 -0.00058870757 -0.00027305068 0.00022366142 -8.4766056e-05
0.0008304513 -3.5583984e-05 -0.00042767357 3.4015582e-05 -6.418815e-05 0.00010921978 0.00037783358 -0.00011116698
00000000: 39f7 36ba 60fe a239 e25f 6dba 3422 0bb9
00000010: 2874 a839 1ea0 a939 8f61 06ba 9894 a538
00000020: c825 feb8 985b 78b9 a48b 1a3a 104a e639
00000030: fca4 b2b9 c870 b3b9 d9e2 8ab9 a2cf 4dba
00000040: 9f85 463b c94c 753a 4d40 8bbb 0a55 313b
00000050: c423 803a 42b0 5bbb 062c 933b 1ae6 043a
00000060: 7ad4 80ba a774 beb8 a0c7 02ba cfc0 b1ba
00000070: f247 31b8 f082 8239 74e7 83ba f729 a639
00000080: 3652 b1ba 9f90 09ba d075 0a3a 8007 0cbb
00000090: dca5 f9b9 4403 653a 2fa3 f5ba 9384 8f39
000000a0: ad40 b138 f403 5cb9 9dff 31ba eed3 87b9
000000b0: 043c 5eb9 94fd 9d39 0670 edb9 664a 9db7
000000c0: dad2 5f3a 33e5 8e38 8a55 9fb9 78ab 573a
000000d0: 3577 a638 76a7 23ba cdc7 c839 9cb2 b638
000000e0: 5d9a 173a 1898 a939 cf64 d6ba 2e5a fc39
000000f0: 8d72 b039 f26d ccba 8b9b 693a 1f4d 3739
00000100: 0921 923a ccbe 1eb9 161f 86ba 682f 093a
00000110: db42 1db9 8742 fcb9 1876 6d3a fb05 b137
00000120: 2477 1bba 525d e738 d5fe 86ba ca3b 7bb9
00000130: 86e9 df38 3477 6d39 8276 11ba 151f 94b7
00000140: dd32 7fba a3fa 74b9 7e5c 203a ddd1 04ba
00000150: 5f34 8db9 b8ac b7b8 160f 8eba e7a9 bfb9
00000160: ebfc acba 1c14 93b9 1018 b839 b055 b0ba
00000170: e5d7 8eb9 1012 043b c61a d7ba 6f28 28b7
00000180: 6933 22ba 6814 efb5 954d 8339 40b8 6fba
00000190: 4b5f 1c38 0ead 0b3a e977 2bba 0a21 6c39
000001a0: 1f36 8e3a 5e85 5a39 ac5c bcba 7580 143a
000001b0: 6d77 8239 236f baba ca26 6c3a 8d0a a639
000001c0: bd3a 403a 4a2a 60b8 f571 6838 4fb4 833a
000001d0: 17f5 d2b8 61bb a1ba 1548 143a adde c0b9
000001e0: 986b 9d3a 48f0 80b9 c486 20ba f921 bd39
000001f0: 44dc 5cb9 e6d7 bcb9 1ea0 6439 8481 6c39
00000200: 3803 8539 8a25 d039 ec8b 99ba 3a44 433a
00000210: de97 f239 a7ad 80ba 0047 8c3a 30d2 093a
00000220: 048c b23a d19f 3fb9 4a38 1439 409d 123a
00000230: c876 5db9 00ac 91b4 7e5a 603a 787b 1cb9
00000240: 7525 bbba 0c04 00ba b024 933a 770a 0abb
00000250: 92f3 e2b9 82d9 10ba 3094 ebba 273e af39
00000260: 90da 6b3a 59a9 27b9 f4fb aa3a 0910 0d3a
00000270: d0a9 33b9 6a6c 09bb 60b2 473a d87b a8b8
00000280: ba8d 6cba 545b 85b9 b0bc a7b8 8f55 84ba
00000290: 2769 47b9 1c50 8fba 1cd8 38ba 46df d239
000002a0: 98ef 213b 88b9 6fb9 29d3 82ba 8b65 ad3a
000002b0: 14b0 83b9 3a87 9fba b51a c13a 03dd bcb8
000002c0: dc39 19ba 0d8f 9039 5687 7cb9 10f0 61b9
000002d0: e6f3 9139 9c0b d939 32a3 92b9 c897 0c37
000002e0: 189c e3b9 f42e 1839 d1f0 0bb9 f8d5 e2b6
000002f0: 3c91 1739 3e9c c2b8 e020 9bb9 82eb 1ab7
00000300: fa75 c839 a004 d6b9 7ca1 853b c085 c639
00000310: e016 ddb9 fca9 f5ba f44c 1d3a eb2f cab8
00000320: 47c1 1c3b 6405 c9b9 ec11 84b8 5386 f93a
00000330: d8db ecb9 2e44 efba bbc9 a53a 658a d5b9
00000340: b23c 1c38 3616 dc39 f00e 9dba 9adc 46b9
00000350: 9a89 fa39 ca99 70ba ce84 0f3a abca f339
00000360: 1e21 ea3a ae4d fe39 ec46 60ba 1d0b b73a
00000370: 5d78 003a f862 16bb 25bb fb3a ced6 1039
00000380: 0c5a 543b 02b3 7bb9 8ef9 8f39 64e3 ce3a
00000390: af37 83b9 7b8b f1ba 284b dd3a 468a 5f37
000003a0: edcb 8839 3e22 1fb9 039e ab3a a899 57ba
000003b0: cbd1 14b9 36a4 fb3a 1402 e5b9 a959 b238
000003c0: 8c3e bd3a 34bd 16ba b224 30ba 12a5 f939
000003d0: 7f53 1aba 3e28 8fb9 a886 6a39 6ec4 b1b8
000003e0: a5b2 593a 0340 15b8 6039 e0b9 f4ab 0e38
000003f0: c09c 86b8 ec0c e538 f717 c639 5122 e9b8

exp_avg_sq f4 [128, 8]
0.00017677227 7.3719007e-06 0.0001549632 0.00016917997 6.963819e-06 0.00025047784 8.384761e-05 1.1868279e-05
5.509857e-05 1.8251275e-06 3.9121165e-05 2.5727784e-05 1.7374746e-06 5.127913e-05 3.3109754e-05 2.4951175e-06
0.00057870464 2.1639744e-05 0.0005141767 0.0002723187 2.1040281e-05 0.00050584326 0.00027435995 1.5059412e-05
6.489302e-05 2.4666338e-06 5.470788e-05 3.889775e-05 2.339192e-06 8.373358e-05 2.9959847e-05 3.7410207e-06
0.00010340473 3.8009114e-06 0.00011025411 4.6802896e-05 3.6784563e-06 8.667497e-05 4.2484553e-05 3.1788688e-06
6.7649235e-05 2.9354546e-06 7.310402e-05 5.5175264e-05 2.7026083e-06 0.00011045258 4.1129522e-05 7.69159e-06
7.2390496e-05 3.474692e-06 8.653332e-05 6.017024e-05 3.43662e-06 7.2064606e-05 3.6826077e-05 1.0292061e-06
5.2760744e-05 1.9108484e-06 4.0843082e-05 2.8314023e-05 1.7895918e-06 4.4572003e-05 2.1994629e-05 3.367647e-06
7.232098e-05 3.5470807e-06 8.308414e-05 8.211868e-05 3.3140184e-06 0.0001619501 4.2379997e-05 6.669437e-06
0.00022822528 1.0435331e-05 0.00022753656 0.00022797643 9.714291e-06 0.00043706104 0.000118703014 2.0515796e-05
1.1984395e-05 3.8862407e-07 8.886861e-06 7.2642006e-06 3.6320267e-07 1.338944e-05 7.3715432e-06 7.3819507e-07
0.00011787363 3.9924307e-06 0.00010790289 4.887294e-05 3.895608e-06 0.00012089415 4.9894792e-05 2.6700166e-06
5.3085318e-05 2.0189268e-06 3.812495e-05 2.8506127e-05 1.8890415e-06 6.908762e-05 2.1497062e-05 3.1234201e-06
2.0932082e-05 7.756121e-07 2.0225012e-05 1.15831e-05 7.488538e-07 1.8840949e-05 1.3119719e-05 7.095933e-07
3.785587e-05 1.4242643e-06 2.9822866e-05 2.8476055e-05 1.3412974e-06 5.0722898e-05 1.9865316e-05 2.7082942e-06
6.5380984e-05 3.4130373e-06 8.751878e-05 7.479973e-05 3.1675756e-06 0.00011528845 4.330394e-05 7.2454613e-06
4.9340266e-05 1.9286833e-06 4.924017e-05 2.143312e-05 1.8864329e-06 3.4194964e-05 2.215566e-05 1.0411792e-06
5.2343392e-05 1.9027426e-06 4.208071e-05 3.0120007e-05 1.7686486e-06 7.3600386e-05 2.8859275e-05 4.1580297e-06
0.00015917911 6.1673304e-06 0.0001564678 7.9279045e-05 5.890337e-06 0.00015562921 7.35946e-05 6.4823503e-06
7.847585e-05 3.1703569e-06 8.763609e-05 4.5478013e-05 3.0716521e-06 7.056353e-05 3.0205683e-05 2.039777e-06
0.000119347154 4.610791e-06 0.00011147631 6.964495e-05 4.3929113e-06 0.00013521945 4.9513168e-05 5.482152e-06
8.286202e-05 3.7285813e-06 8.2536244e-05 6.653149e-05 3.378847e-06 0.00013156893 4.4982087e-05 8.861263e-06
4.7913327e-05 1.562082e-06 3.075883e-05 2.7737113e-05 1.5197198e-06 3.1355074e-05 1.8026147e-05 9.092536e-07
0.000118400145 5.1817683e-06 0.00012460926 8.53557e-05 4.9352693e-06 0.0002164021 5.430273e-05 6.6990465e-06
0.00012166578 4.7928957e-06 0.00012186817 8.143926e-05 4.599855e-06 0.00012020984 4.788081e-05 5.1889538e-06
0.00012693797 5.853978e-06 0.000144974 8.74395e-05 5.681318e-06 0.00013366944 6.688915e-05 5.1694733e-06
8.797108e-05 3.4375305e-06 8.970812e-05 4.7661313e-05 3.341911e-06 6.712947e-05 3.6248413e-05 2.6099651e-06
7.042833e-05 2.5308316e-06 6.0366845e-05 4.345471e-05 2.5413387e-06 6.008308e-05 3.7110298e-05 1.7718e-06
0.00013697435 6.171506e-06 0.00012257851 9.9076766e-05 5.85459e-06 0.00017534806 6.816041e-05 8.23279e-06
2.3018927e-05 9.183109e-07 2.0478086e-05 1.4454259e-05 8.549185e-07 3.6742695e-05 9.042958e-06 1.4435337e-06
3.173558e-05 1.5677546e-06 4.0068004e-05 1.882627e-05 1.5372148e-06 3.448909e-05 1.636842e-05 1.1892239e-06
5.7267443e-05 2.1697122e-06 4.251864e-05 5.6382753e-05 1.793864e-06 0.00010088444 2.9494462e-05 1.0146133e-05
00000000: f25b 3939 255c f736 9e7d 2239 e765 3139
00000010: c0aa e936 9152 8339 58d7 af38 df1d 4737
00000020: a419 6738 e7f6 f435 0816 2438 ffd1 d737
00000030: 2c33 e935 8c14 5738 54df 0a38 cb71 2736
00000040: 36b4 173a ff86 b537 d0c9 063a ffc5 8e39
00000050: a97f b037 919a 043a f8d7 8f39 afa7 7c37
00000060: 2d17 8838 7288 2536 2476 6538 2426 2338
00000070: 03fb 1c36 209a af38 4852 fb37 3f0e 7b36
00000080: feda d838 2913 7f36 3938 e738 3a4e 4438
00000090: 66db 7636 45c5 b538 7131 3238 8d54 5536
000000a0: e8de 8d38 bafe 4436 6c4f 9938 fd6b 6738
000000b0: 755e 3536 c7a2 e738 7d82 2c38 210b 0137
000000c0: 5ad0 9738 c12e 6936 3979 b538 4e5f 7c38
000000d0: afa0 6636 6421 9738 b375 1a38 4123 8a35
000000e0: 6b4b 5d38 203c 0036 ed4e 2b38 e783 ed37
000000f0: e831 f035 d3f2 3a38 1b81 b837 bcff 6136
00000100: 08ab 9738 620a 6e36 753d ae38 2137 ac38
00000110: 6766 5e36 26d1 2939 2dc1 3138 07ca df36
00000120: c24f 6f39 6813 2f37 e196 6e39 f50c 6f39
00000130: 90fa 2237 5725 e539 32f0 f838 5619 ac37
00000140: 9610 4937 16a4 d034 c718 1537 02bf f336
00000150: 32fe c234 35a3 6037 1359 f736 6128 4635
00000160: ec32 f738 b8f6 8536 ec49 e238 ebfc 4c38
00000170: 05b7 8236 8d88 fd38 2046 5138 892e 3336
00000180: eda7 5e38 e67c 0736 5ae8 1f38 7120 ef37
00000190: f98a fd35 22e3 9038 9754 b437 f39b 5136
000001a0: 4e97 af37 a833 5035 e2a8 a937 0955 4237
000001b0: d704 4935 a10c 9e37 c41c 5c37 e17a 3e35
000001c0: 6ec7 1e38 5929 bf35 1e2c fa37 dddf ee37
000001d0: a106 b435 4cbf 5438 71a4 a637 24c0 3536
000001e0: 261d 8938 890b 6536 4a8a b738 cddd 9c38
000001f0: 8992 5436 04c7 f138 40a1 3538 0a1e f336
00000200: b5f2 4e38 876e 0136 3b87 4e38 46cb b337
00000210: 5731 fd35 906c 0f38 ebda b937 a5be 8b35
00000220: 4a8b 5b38 bd61 ff35 d17f 3038 39aa fc37
00000230: 4e62 ed35 e859 9a38 d216 f237 3485 8b36
00000240: 51e9 2639 f7f0 ce36 8111 2439 9d42 a638
00000250: 9ca5 c536 6630 2339 cd56 9a38 f782 d936
00000260: 6793 a438 51c2 5436 44c9 b738 a5bf 3e38
00000270: 9522 4e36 82fb 9338 3662 fd37 1ae3 0836
00000280: 044a fa38 65b6 9a36 63c8 e938 590e 9238
00000290: d266 9336 b2c9 0d39 5cac 4f38 54f3 b736
000002a0: 35c6 ad38 8a38 7a36 4f17 ad38 d286 8b38
000002b0: 26c0 6236 c4f5 0939 26ab 3c38 d6aa 1437
000002c0: 8bf6 4838 bba8 d135 0b03 0138 ffac e837
000002d0: 2df9 cb35 4183 0338 db36 9737 6e13 7435
000002e0: 984d f838 0ddf ad36 8ba9 0239 fe00 b338
000002f0: a499 a536 ffe9 6239 1dc3 6338 5fc8 e036
00000300: d126 ff38 a9d2 a036 7a93 ff38 5fca aa38
00000310: 7458 9a36 2b19 fc38 a1d3 4838 c61c ae36
00000320: a71a 0539 4a6d c436 2904 1839 b95f b738
00000330: 26a2 be36 9e29 0c39 d746 8c38 7075 ad36
00000340: 1d7d b838 53b0 6636 ae21 bc38 f2e7 4738
00000350: 9845 6036 dcc7 8c38 7009 1838 dc26 2f36
00000360: ecb2 9338 5bd7 2936 6832 7d38 2443 3638
00000370: de8b 2a36 b701 7c38 e1a6 1b38 96ce ed35
00000380: c6a0 0f39 d514 cf36 6b88 0039 6fc7 cf38
00000390: 8c72 c436 a3dd 3739 57f1 8e38 901f 0a37
000003a0: c518 c137 d881 7635 5bc8 ab37 9280 7237
000003b0: 8d7d 6535 2b1c 1a38 35b7 1737 71bf c135
000003c0: d21b 0538 a36b d235 b10e 2838 1bed 9d37
000003d0: 4c52 ce35 61a8 1038 ea4e 8937 6c9d 9f35
000003e0: 7332 7038 5f9b 1136 0b56 3238 857c 6c38
000003f0: b3c4 f035 ec91 d338 e06a f737 4f39 2a37

exp_avg f4 [128]
0.00062177144 -0.00047370486 0.0018714898 -0.0001816327 -0.0010495371 -0.00041964615 0.0001362756 0.0006469502
-0.00030278263 0.00022064635 -0.00046726048 -0.0005610602 -3.5625126e-06 0.00041679566 -0.000106890315 -0.00049186184
0.0007940164 -0.00036549426 -0.0009766835 -0.00031978908 -0.0005087156 -0.0004572387 0.000551448 0.00029026682
-0.00081641437 -0.0007668345 0.00083956437 0.0009700906 -0.00048007816 -0.00030352353 -0.0011500479 -7.1168e-05
0.0006184985 -0.0008095612 0.00043939587 -0.0011839942 0.00017535189 -0.0005791544 -0.00028345303 0.0012203594
-0.00066723407 0.000480235 7.066652e-05 -0.00026963718 -0.00067754264 -7.6965385e-05 -0.00061870186 5.9638347e-05
0.0006046635 -0.00013395923 0.00029469412 -0.00051767426 0.00086516805 0.00026862836 -0.00041325786 0.00036018493
4.4890494e-05 0.0006994095 -0.000361388 0.001774197 3.9893348e-05 0.0001250789 -0.00021236605 -0.00078936195
0.0008162084 0.00019574564 -0.0005011706 -0.0012294418 -0.000107497755 -0.00057290285 -0.0018782686 -0.00048220812
6.321829e-05 -1.356499e-05 0.00022200585 0.00013347746 -0.0020979168 0.0014622349 0.00013250067 0.00028503628
0.00030743924 -0.0007168011 -0.0008641674 4.3171487e-05 4.3299893e-05 -0.0013797262 -0.0002907267 -0.00034201104
3.349808e-05 4.7411268e-05 9.362981e-05 -0.0002781948 -0.000243266 -0.00035347912 -0.00023071642 0.0004968281
-0.0010731344 -2.236341e-06 -0.00044361834 0.00051628734 0.00084765285 0.00088597805 0.0014151904 -7.0818234e-05
-0.000482291 0.00016546441 -0.000559343 0.00044403135 -0.001324385 0.00027959465 -0.0010743075 -0.0012334978
0.0016308047 0.00022681663 -0.00015532953 -4.4005952e-05 -0.00060361216 -0.00036350114 -0.00058199343 -0.0003886603
0.0004493324 -0.0010401979 -0.00029743311 -0.0012790262 -0.00041362055 -0.0011444669 -0.0005500335 -0.00062536076
00000000: 60fe 223a 975b f8b9 c74c f53a a874 3eb9
00000010: 9f90 89ba f403 dcb9 34e5 0e39 1898 293a
00000020: ccbe 9eb9 4e5d 6739 a4fa f4b9 1d14 13ba
00000030: 8013 6fb6 5e85 da39 4d2a e0b8 4af0 00ba
00000040: 8a25 503a cf9f bfb9 0f04 80ba 5da9 a7b9
00000050: 535b 05ba 8ab9 efb9 0d8f 103a f42e 9839
00000060: a404 56ba 6405 49ba 3616 5c3a ae4d 7e3a
00000070: 00b3 fbb9 3d22 9fb9 34bd 96ba 0740 95b8
00000080: bb22 223a bc38 54ba b75e e639 4130 9bba
00000090: aade 3739 65d2 17ba 6c9c 94b9 77f4 9f3a
000000a0: 52e9 2eba 0dc8 fb39 cd32 9438 175e 8db9
000000b0: 1e9d 31ba 7a68 a1b8 6130 22ba 3024 7a38
000000c0: 4882 1e3a 6877 0cb9 2d81 9a39 88b4 07ba
000000d0: 72cc 623a b0d6 8c39 88aa d8b9 34d7 bc39
000000e0: cd48 3c38 9458 373a ad78 bdb9 2c8c e83a
000000f0: 2853 2738 9d27 0339 94ae 5eb9 2fed 4eba
00000100: d2f6 553a 1241 4d39 fd60 03ba 3925 a1ba
00000110: 6b70 e1b8 dc2e 16ba 3c30 f6ba e1d0 fcb9
00000120: 1094 8438 3095 63b7 3eca 6839 15f6 0b39
00000130: 347d 09bb 76a8 bf3a e1ef 0a39 ec70 9539
00000140: cc2f a139 b5e7 3bba 4b89 62ba 0813 3538
00000150: e89c 3538 eed7 b4ba ad6c 98b9 f24f b3b9
00000160: 4a80 0c38 76db 4638 1f5b c438 adda 91b9
00000170: 3815 7fb9 2a53 b9b9 78ec 71b9 923d 023a
00000180: 6aa8 8cba 0c14 16b6 7295 e8b9 7557 073a
00000190: 0535 5e3a fb40 683a e97d b93a 4084 94b8
000001a0: 01dc fcb9 8480 2d39 e0a0 12ba e1cc e839
000001b0: fd96 adba 8f96 9239 c7cf 8cba 51ad a1ba
000001c0: bac0 d53a a0d5 6d39 f4df 22b9 0893 38b8
000001d0: ba3b 1eba 4c94 beb9 eb90 18ba 1ac5 cbb9
000001e0: 6094 eb39 4057 88ba ccf0 9bb9 ffa4 a7ba
000001f0: 36db d8b9 f001 96ba 2030 10ba 40ef 23ba

exp_avg_sq f4 [128]
2.9487604e-05 7.3005094e-06 8.655897e-05 9.866533e-06 1.52036455e-05 1.174182e-05 1.3898768e-05 7.6433935e-06
1.4188322e-05 4.174133e-05 1.5544962e-06 1.5969723e-05 8.075707e-06 3.1024485e-06 5.697057e-06 1.3652148e-05
7.714735e-06 7.6109704e-06 2.4669322e-05 1.26814275e-05 1.8443163e-05 1.4914325e-05 6.2483277e-06 2.0727066e-05
1.9171583e-05 2.3415914e-05 1.3750123e-05 1.0123327e-05 2.4686024e-05 3.6732429e-06 6.2710183e-06 8.678849e-06
8.314074e-06 1.7262297e-05 1.836168e-06 1.3050685e-05 1.1049135e-05 3.117413e-05 1.0326791e-05 4.1406412e-05
1.5679778e-05 1.3757768e-05 1.5229e-06 7.977848e-06 6.7886103e-06 7.663268e-06 3.3221033e-05 2.6704151e-06
9.392446e-06 4.4009794e-06 2.267873e-06 2.6799156e-05 4.8634624e-06 1.6012214e-05 1.2144258e-05 1.072793e-05
9.7639495e-06 2.3498192e-06 1.3733899e-05 2.4182506e-05 4.86888e-06 1.7510763e-05 2.4972049e-05 8.599774e-06
1.5597836e-05 1.0827734e-05 3.475241e-05 1.8064187e-05 7.069659e-06 3.1075346e-05 4.4635563e-05 8.199769e-06
3.2004386e-06 4.4632284e-06 7.515829e-06 9.994225e-06 2.984534e-05 1.880536e-05 2.6755854e-06 5.837979e-06
2.9063478e-06 1.9924164e-05 1.0516932e-05 1.5595508e-05 3.9490274e-06 5.2802327e-05 2.928008e-06 1.7932583e-06
6.8622535e-06 8.297006e-06 2.5257475e-06 4.043621e-06 1.0759879e-05 2.2939057e-06 2.1627231e-05 7.190988e-06
5.2169293e-05 6.5205154e-06 2.5430052e-05 1.2402924e-05 4.0413834e-06 3.8621088e-06 2.7931119e-05 2.1260132e-05
7.866092e-06 1.3678515e-05 1.6792752e-05 1.611986e-05 3.564474e-05 4.5963316e-06 1.7808045e-05 3.9064227e-05
4.2559128e-05 1.1766817e-05 4.715652e-06 4.9910054e-06 3.1668536e-05 9.391971e-06 4.1437693e-06 2.4526229e-05
2.8290146e-05 1.3872605e-05 5.03952e-06 1.5666032e-05 1.6234215e-05 2.0379373e-05 6.9032694e-06 7.2318808e-06
00000000: 265c f737 e6f6 f436 fe86 b538 7088 2537
00000010: 2913 7f37 bcfe 4437 c12e 6937 203c 0037
00000020: 610a 6e37 6913 2f38 15a4 d035 b8f6 8537
00000030: e67c 0737 a933 5036 5929 bf36 870b 6537
00000040: 896e 0137 bd61 ff36 f7f0 ce37 51c2 5437
00000050: 64b6 9a37 8a38 7a37 baa8 d136 09df ad37
00000060: a9d2 a037 4b6d c437 54b0 6637 5cd7 2937
00000070: d514 cf37 d581 7636 a36b d236 5f9b 1137
00000080: ad7c 0b37 80ce 9037 4172 f635 44f4 5a37
00000090: ac5f 3937 f8c0 0238 3b41 2d37 ccab 2d38
000000a0: 1188 8337 2ad1 6637 7266 cc35 99d8 0537
000000b0: b8c9 e336 7c91 0037 d056 0b38 6235 3336
000000c0: 4094 1d37 20ac 9336 c331 1836 c0ce e037
000000d0: d330 a336 f851 8637 31bf 4b37 1cfc 3337
000000e0: d8cf 2337 96b1 1d36 a66a 6637 89db ca37
000000f0: 5c5f a336 14e4 9237 117b d137 c047 1037
00000100: 19d8 8237 c3a8 3537 1ec3 1138 8c88 9737
00000110: e937 ed36 e656 0238 1237 3b38 bd91 0937
00000120: 1ec7 5636 d7c2 9536 7b30 fc36 dfac 2737
00000130: 615c fa37 34c0 9d37 358e 3336 dce3 c336
00000140: ad0a 4336 d122 a737 e171 3037 19d3 8237
00000150: e381 8436 1178 5d38 cb7e 4436 e3af f035
00000160: 4f42 e636 5f33 0b37 0380 2936 71ae 8736
00000170: 5485 3437 00f1 1936 206c b537 1e4a f136
00000180: 5ad0 5a38 cdca da36 9f52 d537 2716 5037
00000190: 389b 8736 4397 8136 9f4d ea37 c957 b237
000001a0: 9cf8 0337 c67c 6537 29de 8c37 2339 8737
000001b0: 4081 1538 303a 9a36 7c62 9537 e5d8 2338
000001c0: 8481 3238 186a 4537 243b 9e36 6978 a736
000001d0: d5d3 0438 3592 1d37 b50a 8b36 adbd cd37
000001e0: a050 ed37 63be 6837 2619 a936 8c6a 8337
000001f0: b62e 8837 5ff4 aa37 a2a2 e736 62a9 f236
