MLATest/results/RollerBall/RollerBall/RollerBall-185252.onnx (onnx, 75044 bytes, 8 tensors)

action_model._continuous_distribution.log_sigma f4 [1, 2]
-0.08355293 -0.08647202
00000000: cc1d abbd 3e18 b1bd

action_model._continuous_distribution.mu.bias f4 [2]
0.030891601 -0.002251489
00000000: 6210 fd3c b88d 13bb

action_model._continuous_distribution.mu.weight f4 [2, 128]
-0.031077417 -0.0115064 0.08387016 0.13026807 -0.00796473 -0.006777349 0.051283084 0.015845917
-0.0017458539 -0.033411812 0.009367806 -0.03318649 0.0022701342 -0.04291626 -0.026857425 -0.09433005
-0.04162008 -0.0002591599 0.05483992 -0.024739737 0.0044390624 -0.055024236 -0.013893122 -0.045637473
0.06494978 0.01537039 0.010645696 0.065705456 -0.017122952 0.078731015 0.02970531 0.115629524
-0.03749339 -0.016552404 -0.032795414 -0.055599067 0.0030532668 0.08002019 -0.04862621 -0.075908914
-0.020945441 -0.04222335 -0.0132062435 0.0145777995 0.010918162 -0.029398644 0.023830203 0.004651131
0.017753767 -0.091830745 -0.053974513 0.016015818 0.0183116 -0.033098098 -0.036514618 -0.022144608
-0.060996205 0.06580447 -0.07961291 -0.03185158 -0.061801616 -0.037526373 0.111952364 0.07277779
0.03463296 0.00610524 0.036471635 -0.022547107 -0.018011903 0.006106597 0.13820045 -0.02169452
0.016215641 0.00025579616 0.11121845 -0.0046483087 -0.03569138 -0.054049786 -0.038237646 -0.0166295
-0.036737 -0.04746216 -0.08821755 -0.012279671 0.0026592708 -0.0060425773 0.10659816 -0.022159886
0.05864558 -0.017622825 -0.015336659 -0.0059626303 0.043336917 0.04026731 0.13911821 0.010376036
-0.022957195 -0.08436746 -0.0048552863 -0.007833283 -0.01721464 0.0012397382 -0.008107004 -0.0241457
-0.017255401 -0.022197835 0.08342847 -0.031636994 0.022066422 -0.08875301 -0.073631875 -0.02111698
0.019699998 0.005069834 -0.03842745 0.08747495 -0.00070509396 -0.058248464 0.0046488107 -0.011254236
-0.110839255 -0.025752062 -0.042006824 -0.046253834 0.016330909 0.015259516 -0.0414603 0.02904452
0.11505249 0.048987765 0.03425986 0.021218019 0.03841485 0.05225662 -0.056017153 0.015981795
0.03719592 -0.019085005 0.03599019 -0.0024122498 0.027216101 -0.046945695 -0.016733892 -0.04421865
0.018491125 -0.0009747646 0.07809216 0.022955915 0.031777505 -0.10985855 0.015273372 -0.06784654
0.017442245 -0.01762638 0.04519589 -0.023905225 0.054873087 -0.048818357 0.08371601 0.04819261
0.103017494 0.05724792 0.040490627 0.015619888 0.026333744 -0.038741272 0.005643462 -0.004588642
-0.005480495 0.026206166 -0.02887473 0.009742693 0.005722668 0.0023499487 0.07844371 -0.07615825
0.008817467 -0.11368629 -0.104139 -0.120321564 -0.033104382 0.027151942 0.012671785 0.043772336
-0.009369241 0.04837523 0.040400565 -0.035458744 -0.029329792 -0.006294812 -0.01802716 -0.015413606
0.08429903 0.04742878 0.08551191 0.03734444 -0.02162807 0.01728554 0.06085236 -0.04334026
-0.06445188 -0.107576765 0.042147722 -0.056967337 -0.11183628 -0.057249825 -0.048177887 0.056910682
-0.07224684 -0.017696124 -0.024558958 -0.046293613 -0.05948288 0.029462889 0.02042993 -0.08842271
0.007066851 0.021522656 0.0636054 -0.09025009 0.08848014 -0.0068336846 0.014929093 -0.059435878
0.024798054 -0.0038968273 -0.02058611 0.011835777 -0.11703846 0.076741934 0.051090438 0.043792833
0.1008182 0.052810825 0.064494915 0.028574556 -0.013334014 -0.018939216 0.006509047 -0.0736295
0.039368425 -0.021384448 0.062149625 0.06558481 -0.026112111 -0.018096933 0.08764219 0.0031795327
-0.00029542268 0.061430354 -0.006753645 -0.00944391 0.004065722 -0.046218183 0.10891548 0.025260309
00000000: 1196 febc 5785 3cbc 1ec4 ab3d fe64 053e
00000010: 807e 02bc 8614 debb 360e 523d 4ccf 813c
00000020: 23d5 e4ba d3da 08bd 6d7b 193c 8fee 07bd
00000030: 88c6 143b f6c8 2fbd 1a04 dcbc 1d30 c1bd
00000040: d179 2abd dadf 87b9 d39f 603d fdaa cabc
00000050: 8e75 913b 1861 61bd fa9f 63bc 5cee 3abd
00000060: 6404 853d 17d4 7b3c 496b 2e3c 9590 863d
00000070: 6f45 8cbc ba3d a13d 8d58 f33c 2ccf ec3d
00000080: ab92 19bd e898 87bc 7c54 06bd d9bb 63bd
00000090: 5119 483b a0e1 a33d 472c 47bd 2276 9bbd
000000a0: c695 abbc 64f2 2cbd 005f 58bc b9d7 6e3c
000000b0: 17e2 323c 6dd5 f0bc 8f37 c33c 8468 983b
000000c0: 5970 913c c211 bcbd 6114 5dbd 9b33 833c
000000d0: 3502 963c df91 07bd 5a90 15bd 9c68 b5bc
000000e0: 28d7 79bd 7ec4 863d 180c a3bd cd76 02bd
000000f0: b123 7dbd 41b5 19bd 4847 e53d 860c 953d
00000100: 4adb 0d3d 770e c83b 4863 153d b6b4 b8bc
00000110: b38d 93bc d919 c83b 6b84 0d3e b5b8 b1bc
00000120: aad6 843c 611c 8639 80c6 e33d d750 98bb
00000130: 2031 12bd 4f63 5dbd 149f 1cbd 973a 88bc
00000140: 8979 16bd af67 42bd 67ab b4bd ac30 49bc
00000150: 2947 2e3b d000 c6bb 2350 da3d a688 b5bc
00000160: 5936 703d be5d 90bc 9c46 7bbc 2b62 c3bb
00000170: 0d82 313d 56ef 243d 0175 0e3e 4000 2a3c
00000180: ba10 bcbc d9c8 acbd 1819 9fbb 2c57 00bc
00000190: b705 8dbc b67e a23a 3dd3 04bc 34cd c5bc
000001a0: 335b 8dbc 3cd8 b5bc 8cdc aa3d cb95 01bd
000001b0: a4c4 b43c 23c4 b5bd 4fcc 96bd 84fd acbc
000001c0: e461 a13c da20 a63b 1a66 1dbd 1126 b33d
000001d0: 0ed6 38ba f195 6ebd 0d55 983b b063 38bc
000001e0: b1ff e2bd fdf5 d2bc 590f 2cbd a974 3dbd
000001f0: 66c8 853c 0d03 7a3c 47d2 29bd c6ee ed3c
00000200: a4a0 eb3d 65a7 483d 1154 0c3d 69d1 ad3c
00000210: e458 1d3d 0a0b 563d 3e72 65bd 41ec 823c
00000220: c05a 183d 2858 9cbc 736a 133d d616 1ebb
00000230: 4df4 de3c 214a 40bd 8415 89bc 9d1e 35bd
00000240: b37a 973c 5887 7fba c8ee 9f3d 0b0e bc3c
00000250: 2129 023d 85fd e0bd 2a3d 7a3c 20f3 8abd
00000260: 0ae3 8e3c 3365 90bc 531f 393d e4d4 c3bc
00000270: 9ac2 603d c2f5 47bd 4d73 ab3d 9d65 453d
00000280: d6fa d23d cc7c 6a3d 80d9 253d 8fea 7f3c
00000290: ddb9 d73c 2baf 1ebd caec b83b 525c 96bb
000002a0: b995 b3bb 50ae d63c b38a ecbc d19f 1f3c
000002b0: 3885 bb3b 9901 1a3b 19a7 a03d dbf8 9bbd
000002c0: 2377 103c 5cd4 e8bd d446 d5bd 276b f6bd
000002d0: 7698 07bd c06d de3c 529d 4f3c 9f4a 333d
000002e0: 7281 19bc 1b25 463d 107b 253d 303d 11bd
000002f0: 0845 f0bc b644 cebb b2ad 93bc 5989 7cbc
00000300: f8a4 ac3d ae44 423d de20 af3d 7cf6 183d
00000310: 5a2d b1bc 689a 8d3c 5340 793d 8e85 31bd
00000320: 59ff 83bd 3551 dcbd 17a3 2c3d 9556 69bd
00000330: 6b0a e5bd cb7e 6abd 2d56 45bd 2d1b 693d
00000340: 27f6 93bd 76f7 90bc de2f c9bc 5f9e 3dbd
00000350: 52a4 73bd 285c f13c ab5c a73c f716 b5bd
00000360: 0b91 e73b 4850 b03c 8c43 823d 0ad5 b8bd
00000370: 1335 b53d 1aed dfbb 2899 743c 0973 73bd
00000380: 4a25 cb3c ea61 7fbb 34a4 a8bc d9ea 413c
00000390: dcb1 efbd e02a 9d3d 3544 513d 1d60 333d
000003a0: c679 ce3d 2a50 583d e915 843d 3015 ea3c
000003b0: e976 5abc 6a26 9bbc d849 d53b 10cb 96bd
000003c0: c940 213d 702e afbc 9b90 7e3d 5451 863d
000003d0: 11e9 d5bc 0540 94bc c07d b33d b55f 503b
000003e0: f6e2 9ab9 659e 7b3d ae4d ddbb a1ba 1abc
000003f0: c039 853b 474f 3dbd 140f df3d b5ee ce3c

action_model._discrete_distribution.branches.0.weight f4 [1, 128]
-0.0016631627 0.008024136 0.0038566538 -0.004841858 -0.0035370782 0.0029591003 -0.011009759 0.014269288
0.0023311318 -0.0027804591 0.005654643 -0.0133701665 -0.022052692 -0.0027241183 -0.012144821 -0.009523741
-0.0024973596 0.000836176 -0.0038868599 0.014525947 -0.002129349 0.022606863 0.009993267 -0.0020815583
0.011887046 -0.016286163 0.0031015156 0.008356845 0.015055679 0.015582725 0.007361217 0.008532564
0.002307109 -0.0066750506 0.006422221 0.004977712 0.0017099014 -8.2941915e-05 -0.005537235 0.005279808
-0.0024762056 0.00062888075 0.0032443646 -0.010973805 -0.00050029927 0.00974408 -0.02722664 -0.0036024784
0.017260406 0.0003214932 0.01494991 -0.0072386325 -0.007579119 0.0086752605 0.012322272 0.011358688
0.00840636 -0.0014467778 -0.0015500286 0.00529164 -0.012939266 0.003989873 -0.011373368 -0.010979758
-0.0026077798 -0.007918214 0.0026364592 0.0032059078 0.001627529 0.006436363 0.006719395 0.0033692922
-0.007400459 0.005000077 -3.0319847e-05 -0.0064127976 -0.00015733553 0.016586445 -0.010066991 0.013428353
0.009882796 0.011192537 -0.0015914105 -0.010359656 -0.011723625 -0.020903507 -0.012043697 -0.008390942
0.009914514 0.0014118626 0.0016691204 -0.0075640543 0.017368509 0.01615216 -0.012296923 0.0071880356
-0.004256723 0.005394071 -0.0060272566 0.004376192 -0.0058171726 0.008053245 0.0072443956 0.0047932076
-0.010485092 0.013389386 -0.0015738854 -0.00049939955 0.012652996 0.0010828257 0.005139197 0.00229712
-0.021554044 0.004670748 0.005251016 0.0006275803 -0.0065258383 -0.011246098 -0.010323278 -0.0019994439
-0.0051799393 -0.0046560685 -0.008410517 -0.0065346905 0.013401444 -0.0027799385 0.0044303234 0.0010995286
00000000: 7bfe d9ba aa77 033c eabf 7c3b 73a8 9ebb
00000010: 53ce 67bb 77ed 413b 4762 34bc bbc9 693c
00000020: e7c5 183b 5d38 36bb 954a b93b 8b0e 5bbc
00000030: d9a7 b4bc 1f87 32bb 12fb 46bc 7709 1cbc
00000040: beaa 23bb d232 5b3a b0ba 7ebb 3dfe 6d3c
00000050: 8c8c 0bbb 0732 b93c cdba 233c c16a 08bb
00000060: e2c1 423c 8f6a 85bc cc42 4b3b 26eb 083c
00000070: 18ac 763c b04e 7f3c 5d36 f13b 2bcc 0b3c
00000080: de32 173b 62ba dabb 7f71 d23b 131c a33b
00000090: c51e e03a 1af1 adb8 b271 b5bb 3d02 ad3b
000000a0: d647 22bb 79db 243a 689f 543b 79cb 33bc
000000b0: 8426 03ba a2a5 1f3c 670a dfbc 8f17 6cbb
000000c0: b265 8d3c 168e a839 78f0 743c 0d32 edbb
000000d0: 425a f8bb ae22 0e3c 5be3 493c ca19 3a3c
000000e0: d4ba 093c cfa1 bdba 542a cbba 7e65 ad3b
000000f0: 37ff 53bc 7bbd 823b 5d57 3abc 71e4 33bc
00000100: 49e7 2abb 66bb 01bc 72c8 2c3b 351a 523b
00000110: d052 d53a 20e8 d23b 5f2e dc3b 58cf 5c3b
00000120: 8d7f f2bb b0d7 a33b 6057 feb7 7222 d2bb
00000130: 6ffa 24b9 4ce0 873c 05f0 24bc 9802 5c3c
00000140: 73eb 213c e760 373c e096 d0ba 8cbb 29bc
00000150: 7214 40bc d53d abbc ed52 45bc 297a 09bc
00000160: 7c70 223c 3f0e b93a 63c6 da3a e3db f7bb
00000170: 6748 8e3c 8951 843c 0979 49bc 9d89 eb3b
00000180: fb7b 8bbb bfc0 b03b 4b80 c5bb 2966 8f3b
00000190: fb9d bebb c2f1 033c 6562 ed3b 5710 9d3b
000001a0: aac9 2bbc 285f 5b3c d54a ceba 23ea 02ba
000001b0: 834e 4f3c 9aed 8d3a b666 a83b 478b 163b
000001c0: 1b92 b0bc 130d 993b b710 ac3b 3384 243a
000001d0: b3d6 d5bb 8e41 38bc f722 29bc 1a09 03bb
000001e0: 7bbc a9bb ef91 98bb 44cc 09bc f520 d6bb
000001f0: bb91 5b3c a12f 36bb 3f2c 913b 0f1e 903a

network_body._body_endoder.seq_layers.0.bias f4 [128]
0.007384676 -0.04161849 -0.083474435 -0.031065485 0.042477183 0.054435607 0.015119022 -0.075152405
-0.062487207 -0.064037666 -0.008604784 0.022441901 0.053435113 -0.051710695 0.0056893774 -0.0030771177
-0.055302426 0.030848097 -0.14162034 -0.17351358 -0.016514625 -0.053683266 0.019784255 -0.112909034
-0.092077315 0.029567843 -0.0964236 0.03238685 -0.024080103 -0.051467035 0.0020920364 -0.028128676
-0.0077793677 -0.06596447 -0.13666625 -0.04349082 -0.08943567 0.008609829 -0.021363739 -0.08757565
-0.03540671 -0.12290851 -0.03603864 -0.04110035 0.015896242 -0.06502946 0.052497767 -0.09456848
-0.088589825 0.066359274 0.048458815 -0.024803732 0.05105419 -0.11359771 0.062592626 0.003284777
-0.059460565 0.035716597 -0.011214209 0.050424237 0.01753446 -0.091541424 -0.02462856 0.008326656
0.049554706 0.033679135 0.12471179 -0.11852129 -0.04581916 0.13718064 0.01566801 -0.0014288089
-0.027626704 0.014713529 -0.12042616 -0.119488105 0.018867625 0.06250538 -0.052942697 -0.1076248
-0.09264718 0.052754045 -0.07137303 -0.10819109 -0.0036139986 -0.07207557 0.027157022 0.09465984
-0.11614746 -0.031195914 0.034264352 0.06657257 -0.098774955 0.01610774 0.10245482 0.0076100486
0.064263046 0.021330701 0.019887848 0.049922343 -0.05981795 -0.04540699 0.07384452 0.050232135
0.015166619 -0.048958026 0.028494649 -0.09814962 -0.002896556 0.0940637 -0.08794575 -0.016980015
-0.036874227 -0.037098367 -0.05174123 -0.08999153 -0.007393043 -0.13867411 -0.0028075145 0.0031406246
-0.13674332 -0.043248463 -0.042428296 0.035957392 -0.012692639 0.06790332 -0.04009119 -0.084590375
00000000: 27fb f13b 2678 2abd a5f4 aabd 0b7d febc
00000010: 8efc 2d3d dff7 5e3d c6b5 773c 81e9 99bd
00000020: 96f2 7fbd 2e26 83bd 14fb 0cbc 14d8 b73c
00000030: c7de 5a3d 98ce 53bd f56d ba3b 78a9 49bb
00000040: cc84 62bd 26b5 fc3c ec04 11be 8bad 31be
00000050: ae49 87bc fce2 5bbd 9712 a23c da3c e7bd
00000060: 0893 bcbd 4338 f23c bd79 c5bd 13a8 043d
00000070: a343 c5bc 19cf 52bd 8c1a 093b 1c6e e6bc
00000080: 11ea febb 6118 87bd 3df2 0bbe 6e23 32bd
00000090: 0c2a b7bd 3d10 0d3c 0203 afbc dd5a b3bd
000000a0: a006 11bd 75b7 fbbd 419d 13bd d758 28bd
000000b0: d638 823c 2a2e 85bd e607 573d 1fad c1bd
000000c0: 956e b5bd 5fe7 873d c07c 463d 3231 cbbc
000000d0: 331e 513d eba5 e8bd 9030 803d 6a45 573b
000000e0: ec8c 73bd 914b 123d cdbb 37bc a589 4e3d
000000f0: 6ea4 8f3c 127a bbbd d5c1 c9bc 876c 083c
00000100: e0f9 4a3d 22f3 093d e568 ff3d 4abb f2bd
00000110: dfac 3bbd 1579 0c3e 335a 803c df46 bbba
00000120: 6651 e2bc 0311 713c fea1 f6bd 2eb6 f4bd
00000130: 4790 9a3c d202 803d 71da 58bd 646a dcbd
00000140: cebd bdbd a014 583d 062c 92bd 4a93 ddbd
00000150: d6d8 6cbb 5b9c 93bd 6778 de3c 05dd c13d
00000160: b8de edbd 938e ffbc c758 0c3d 3357 883d
00000170: 864a cabd 61f4 833c d5d3 d13d b75d f93b
00000180: 589c 833d b9bd ae3c d7eb a23c 5f7b 4c3d
00000190: ab03 75bd aefc 39bd cc3b 973d 36c0 4d3d
000001a0: 697d 783c 3688 48bd 9c6d e93c ab02 c9bd
000001b0: 25d4 3dbb 78a4 c03d e71c b4bd ac19 8bbc
000001c0: 6e09 17bd 75f4 17bd 9dee 53bd 7b4d b8bd
000001d0: 5741 f2bb 9600 0ebe 47fe 37bb f0d2 4d3b
000001e0: 7106 0cbe 4d25 31bd 4bc9 2dbd 0f48 133d
000001f0: c9f4 4fbc e510 8b3d a936 24bd b83d adbd

network_body._body_endoder.seq_layers.0.weight f4 [128, 8]
0.026734715 0.11229322 -0.23398182 0.2478104 0.19191776 0.28118476 -0.7128725 -0.5586216
0.03640259 -0.2120786 0.043870386 0.43514854 -0.4435874 0.40325224 -0.15819713 -0.7003699
-0.1626861 -0.023607284 -0.25272045 -0.2231968 -0.31550848 -0.52235 0.12600929 0.037315592
0.079658404 0.26402393 -0.007608385 0.13602854 0.26090264 0.2457115 0.010722949 0.00019259816
-0.17885743 -0.27921137 0.12546024 0.6757193 -0.0536363 -0.5287775 -0.3212086 1.4326323
0.46852526 -0.18614337 -0.023006892 0.16917638 0.32682365 0.31630102 -0.30795082 0.08069466
-0.35205355 -0.55913186 0.03607541 0.5138033 0.8498577 -0.09772955 -0.25615373 0.5326626
0.344156 -0.6238439 -0.5778744 0.1734736 -0.5723522 -0.25972039 -0.20576242 -0.5922194
-0.68042505 -0.56900364 0.25733545 -0.45137632 0.53418994 0.530018 -0.16796193 -0.0074244803
-0.2108057 0.21690232 0.12893388 -0.051916815 0.531118 0.39594507 -0.13570961 0.35202143
-0.78201604 0.033795305 -0.21342187 -0.21322688 -0.022942131 0.38587913 0.23224244 0.040687006
0.16095345 0.29647982 0.08740147 -0.24277397 0.034333073 -0.21414739 0.23234612 -0.06313962
-0.2588189 -0.19129662 -0.3480488 0.69685817 0.53068507 -0.08097594 0.34933928 0.17773542
0.2107867 -0.5833971 0.13738188 -0.07839039 -0.21442965 0.23396821 -0.4987242 -0.06525871
-0.27322897 -0.17188819 -0.30213588 0.12626651 0.14879017 0.36334187 0.4259214 0.31252488
0.07937387 -0.20537187 -0.3162123 0.40347916 0.14820419 -0.20775321 -0.12912704 0.18856506
0.011624278 -0.22143605 0.31725386 0.55804753 -0.70786476 -0.058475718 0.10318454 -0.1517235
-0.03862447 -0.28980622 0.512051 0.51949143 0.029037675 -0.22552453 -0.21648282 -0.5532071
-0.32631916 -0.35962784 0.75126415 -0.31678876 0.15147667 0.05279459 0.1636937 0.0904607
-0.31619936 -0.39789674 0.35061514 -1.0042057 0.16214152 0.037134167 0.5315057 -0.34762418
-0.050024085 0.6118036 -0.065757535 0.52779365 0.30932543 0.32965603 0.289279 0.047685735
-0.33768412 0.21506147 -0.41497466 -0.5139375 0.09422537 0.38908106 0.15198247 -0.14232102
0.29557005 -0.21305208 0.20850673 0.08728199 0.0034181075 0.18294808 -0.22721805 0.13837247
0.07718072 -1.026159 -0.30352515 0.14885905 -0.2744906 0.19620465 -0.5154185 0.20851691
-0.009116115 -0.22369865 0.063016325 -0.53310853 -0.31436804 -0.1633244 -0.16576412 -0.25210038
-0.22791144 -0.28573504 0.24166274 0.37143624 -0.09019629 -0.344356 -0.1977638 -0.41641364
-0.4874573 -0.06738885 -0.18832909 -0.22636446 -0.50813705 -0.5571854 -0.33473873 -0.3801432
-0.70519656 0.13183862 -0.23424323 0.33412465 -0.14645384 -0.33050427 0.08435985 0.023289211
-0.3400957 -0.5046709 -0.34914204 -0.11767518 -0.20492989 0.035999123 0.25496492 0.20046921
-0.0587375 -0.27591696 0.46764517 0.07598192 0.060643412 -0.2552216 0.2517 -0.29744828
0.56854814 0.08342216 0.2471318 -0.1274143 -0.6420154 0.59534043 0.4711855 -0.03400625
0.09510631 -0.09281672 0.81712586 -0.1463109 -0.20821083 0.30260205 0.30589044 -0.08362341
00000000: c302 db3c fdf9 e53d ee98 6fbe 02c2 7d3e
00000010: 1786 443e 73f7 8f3e d07e 36bf d301 0fbf
00000020: e21a 153d 222b 59be 6fb1 333d cacb de3e
00000030: e31d e3be 1477 ce3e 6efe 21be 714b 33bf
00000040: 2f97 26be 1064 c1bc 9364 81be b48d 64be
00000050: 548a a1be bbb8 05bf 9408 013e 3cd8 183d
00000060: f223 a33d 252e 873e c24f f9bb 114b 0b3e
00000070: 0895 853e cc9b 7b3e 4faf 2f3c 2df4 4939
00000080: 6726 37be cbf4 8ebe a678 003e f1fb 2c3f
00000090: bdb1 5bbd f65d 07bf 7475 a4be 7f60 b73f
000000a0: 8be2 ef3e 5e9c 3ebe f378 bcbc 933c 2d3e
000000b0: 6e55 a73e 35f2 a13e bbab 9dbe 3e43 a53d
000000c0: 5d40 b4be 4423 0fbf cfc3 133d 9d88 033f
000000d0: 4690 593f 6e26 c8bd 9526 83be 935c 083f
000000e0: 3735 b03e 3cb4 1fbf 94ef 13bf 10a3 313e
000000f0: ac85 12bf 12fa 84be 62b3 52be b19b 17bf
00000100: 5630 2ebf 39aa 11bf 79c1 833e cc1a e7be
00000110: acc0 083f 42af 073f 36fe 2bbe 0e49 f3bb
00000120: 73dd 57be a41b 5e3e 3e07 043e baa6 54bd
00000130: 59f7 073f 50b9 ca3e 76f7 0abe 273c b43e
00000140: 3432 48bf f26c 0a3d 438b 5abe 2658 5abe
00000150: 23f1 bbbc f391 c53e f6d0 6d3e 6ba7 263d
00000160: fbd0 243e 34cc 973e 8bff b23d bd99 78be
00000170: d6a0 0c3d 7449 5bbe 24ec 6d3e 584f 81bd
00000180: e983 84be 43e3 43be 7433 b2be 4c65 323f
00000190: fada 073f b7d6 a5bd 99dc b23e 4600 363e
000001a0: 78d8 573e 8359 15bf d6ad 0c3e 248b a0bd
000001b0: 7293 5bbe 5d95 6f3e c758 ffbe 5ca6 85bd
000001c0: abe4 8bbe 7503 30be 8eb1 9abe 024c 013e
000001d0: 735c 183e f207 ba3e 5f12 da3e 4303 a03e
000001e0: c48e a23d 014d 52be 94e6 a1be d294 ce3e
000001f0: d7c2 173e 42bd 54be e139 04be 3317 413e
00000200: c173 3e3c 22c0 62be 196f a23e 34dc 0e3f
00000210: a036 35bf 3c84 6fbd 6b52 d33d 685d 1bbe
00000220: b134 1ebd 7b61 94be c615 033f 64fd 043f
00000230: 6be0 ed3c e7ef 66be acad 5dbe fb9e 0dbf
00000240: 4e13 a7be 2421 b8be d952 403f 2332 a2be
00000250: b31c 1b3e 243f 583d 529f 273e 7643 b93d
00000260: e2e4 a1be 1fb9 cbbe d483 b33e d089 80bf
00000270: 6d08 263e ff19 183d c210 083f ccfb b1be
00000280: 0ee6 4cbd 299f 1c3f e3ab 86bd 7c1d 073f
00000290: e75f 9e3e adc8 a83e 611c 943e 1e52 433d
000002a0: efe4 acbe 1339 5c3e 8f77 d4be 6891 03bf
000002b0: 3bf9 c03d a235 c73e 4ba1 1b3e 9abc 11be
000002c0: f554 973e 532a 5abe ca82 553e e6c0 b23d
000002d0: 5402 603b be56 3b3e d9ab 68be 83b1 0d3e
000002e0: ed10 9e3d 2e59 83bf a667 9bbe 826e 183e
000002f0: 088a 8cbe dfe9 483e 78f2 03bf 7585 553e
00000300: c25b 15bc 4211 65be b40e 813d cd79 08bf
00000310: d9f4 a0be 833e 27be 12be 29be 4d13 81be
00000320: 9e61 69be dd4b 92be 7076 773e e42c be3e
00000330: d5b8 b8bd 6e4f b0be 9882 4abe 2b34 d5be
00000340: 0194 f9be 2a03 8abd 57d9 40be 16cc 67be
00000350: 4515 02bf b4a3 0ebf e062 abbe 21a2 c2be
00000360: c387 34bf b400 073e 75dd 6fbe 6312 ab3e
00000370: fff7 15be db37 a9be dbc4 ac3d 04c9 be3c
00000380: 0621 aebe 1d32 01bf bfc2 b2be afff f0bd
00000390: 24d9 51be d173 133d c38a 823e cd47 4d3e
000003a0: bc96 70bd fd44 8dbe 306f ef3e 699c 9b3d
000003b0: 3a65 783d 68ac 82be d3de 803e 244b 98be
000003c0: 5f8c 113f 3dd9 aa3d 1e10 7d3e e578 02be
000003d0: 1f5b 24bf 3b68 183f 3a3f f13e 234a 0bbd
000003e0: 19c7 c23d b116 bebd 292f 513f 86d2 15be
000003f0: 3835 55be a8ee 9a3e ac9d 9c3e c042 abbd

network_body._body_endoder.seq_layers.2.bias f4 [128]
0.072458915 -0.0013077288 0.09620052 0.11229107 -0.064213075 0.015031697 0.040675115 0.0011491034
-0.051393144 0.057334255 -0.07249654 -0.083991535 0.035638805 0.0017631158 0.017370112 -0.037228737
-0.037045863 -0.057489432 0.08017647 -0.039600994 -0.07714398 0.086071156 -0.10474621 0.0059555382
-0.018125735 -0.000683118 0.027534753 0.0057635494 -0.004365845 0.07660472 0.07207305 0.103650175
0.0459395 0.0021358167 -0.033906113 0.013448786 -0.008764272 0.0841153 0.005005317 0.00502373
-0.01955661 -0.06092625 -0.006939921 -0.051508144 -0.08070849 -0.08380219 0.084930904 -0.00083482463
-0.08666384 0.05777807 0.0930936 0.083980806 0.025288846 -0.0092158 0.0290375 0.003843983
0.0087185595 0.08254639 -0.013433174 -0.022836586 0.032099262 -0.067099676 0.115431115 0.022447322
0.08199933 0.027155325 0.05680116 -0.02122128 -0.03268947 0.011228272 0.158542 0.051941458
-0.063463785 0.0263778 0.14778848 0.02923505 0.10080881 0.05512356 0.058954805 -0.08927555
0.06559099 -0.027852472 0.103957504 0.0139592495 0.016319778 -0.04005521 0.12037542 0.030515013
0.010837294 -0.03213172 -0.011137956 0.041461818 0.031727012 0.022559868 0.10891139 -0.013177261
-0.07937366 -0.035356253 -0.058090102 -0.0756085 0.08328459 0.023018949 0.026796527 -0.046018552
0.017705286 -0.047250777 0.0813166 -0.065992 -0.015224031 -0.003677334 -0.014163299 0.049626753
-0.00926145 -0.12687144 0.031848643 0.075568825 0.015746819 0.013030093 0.06666282 -0.011266992
0.024979122 0.008146205 -0.035942286 -0.036517985 -0.12319447 0.05570632 0.11045929 -0.08962595
00000000: 5765 943d 1968 abba c704 c53d dcf8 e53d
00000010: 2582 83bd 8247 763c f39a 263d 839d 963a
00000020: 9e81 52bd 53d7 6a3d 1179 94bd c103 acbd
00000030: fff9 113d 5918 e73a c44b 8e3c 297d 18bd
00000040: 67bd 17bd 0a7a 6bbd 9033 a43d a734 22bd
00000050: aafd 9dbd 1346 b03d 2e85 d6bd ad26 c33b
00000060: 6c7c 94bc 4613 33ba 9090 e13c 28dc bc3b
00000070: 5d0f 8fbb efe2 9c3d 099b 933d 8b46 d43d
00000080: 0f2b 3c3d 0ff9 0b3b 23e1 0abd 4c58 5c3c
00000090: 0598 0fbc a444 ac3d a403 a43b 1a9e a43b
000000a0: 2f35 a0bc ce8d 79bd 4768 e3bb 34fa 52bd
000000b0: 7e4a a5bd 7ca0 abbd 41f0 ad3d 22d8 5aba
000000c0: d07c b1bd b3a8 6c3d dba7 be3d 21fe ab3d
000000d0: 8e2a cf3c defd 16bc 0de0 ed3c 55eb 7b3b
000000e0: 4ad8 0e3c 150e a93d d116 5cbc cb13 bbbc
000000f0: 847a 033d 8e6b 89bd 2667 ec3d 72e3 b73c
00000100: 44ef a73d d874 de3c 55a8 683d 40d8 adbc
00000110: 65e5 05bd c9f6 373c d658 223e 91c0 543d
00000120: 4df9 81bd 4216 d83c dd55 173e 587e ef3c
00000130: d974 ce3d 3ec9 613d 987a 713d 19d6 b6bd
00000140: 9254 863d de2a e4bc ace7 d43d 56b5 643c
00000150: 0eb1 853c ef10 24bd 6387 f63d 9ffa f93c
00000160: e88e 313c 8d9c 03bd f97b 36bc ded3 293d
00000170: 2ff4 013d 79cf b83c ef0c df3d 70e5 57bc
00000180: a88e a2bd b8d1 10bd e3ef 6dbd a1d8 9abd
00000190: 1c91 aa3d 3c92 bc3c 6484 db3c f37d 3cbd
000001a0: ad0a 913c 088a 41bd 5189 a63d d026 87bd
000001b0: 376e 79bc 6dff 70bb 2f0d 68bc 6c45 4b3d
000001c0: 56bd 17bc 96ea 01be b973 023d d4c3 9a3d
000001d0: 79ff 803c 2c7c 553c 8486 883d 3199 38bc
000001e0: 04a1 cc3c a977 053c 3838 13bd e293 15bd
000001f0: 624d fcbd 4f2c 643d 7b38 e23d cf8d b7bd

network_body._body_endoder.seq_layers.2.weight f4 [128, 128]
-0.1933585 -0.0727523 0.09621449 0.04994546 0.31821737 0.05222397 0.12538129 -0.053109415
-0.024539387 0.020039726 0.12682916 -0.014703676 0.0096938405 -0.37427258 -0.11256387 0.012509639
0.04039461 -0.0015634216 0.018816423 0.12429104 0.019038914 -0.09189826 -0.0152260475 -0.23273027
-0.07848465 0.0784206 -0.10764012 0.12534396 0.06652429 -0.036367547 -0.0023508684 0.0928689
-0.07633723 -0.034096383 -0.10150947 -0.14941916 -0.061943904 0.01260244 0.029638221 -0.029792164
0.04385908 0.041399878 0.11123986 -0.11069377 -0.038619485 -0.06078731 -0.015544516 0.040657848
-0.1865832 0.0017609692 -0.08352121 0.068350025 -0.293489 -0.0074047064 0.052439332 -0.1257038
-0.081453495 0.11707972 0.17900188 -0.10474868 0.3313794 -0.08919201 0.051935088 0.02629624
-0.07564043 0.14007097 0.0011589029 0.15649028 -0.13071263 0.033162337 0.06713845 0.044841625
0.0432285 0.07013505 -0.036288243 -0.01954771 0.05753185 -0.115139686 -0.14327493 -0.17739862
-0.22505425 -0.06115752 0.02762447 -0.11944878 -0.043763068 -0.022327207 -0.08400359 0.2912259
-0.08275854 -0.04506771 0.03840799 -0.24802956 -0.1792823 -0.026355226 0.1758543 0.24281447
-0.13343495 0.0661819 -0.06935855 -0.11102685 -0.054363426 -0.1222676 0.13092658 0.008331689
0.114418626 0.09622597 0.13143179 -0.022467583 0.01897818 -0.0066280067 -0.23018204 -0.06831215
-0.015821382 -0.079371125 0.010241912 -0.047582913 0.109587066 -0.026357315 -0.017826501 0.23449497
-0.17185679 -0.111241244 0.17276233 0.042316895 0.09439317 -0.056096658 0.057450917 0.009588795
-0.07425608 0.1955783 0.02948109 0.009132794 0.1138063 0.14145234 -0.012847029 0.123844385
0.06483326 -0.06258565 -0.16846457 -0.0072869477 -0.059102394 0.013277254 0.023725525 0.11576339
-0.040532913 0.05689408 -0.0052885353 -0.14870633 0.052473683 -0.12981334 -0.1430454 -0.114043556
0.17589773 0.06950392 0.07929071 -0.10816957 -0.015148756 0.004172121 0.061702948 0.14912683
-0.008894152 0.041361336 -0.11403734 0.07898151 -0.10530737 0.13558495 0.038881626 -0.0013884346
0.16197279 0.016881747 -0.007886629 0.12536626 -0.062208585 -0.013737556 0.18911597 -0.18025906
0.1296156 0.015207563 0.048320435 0.02861092 -0.0109593365 -0.08442242 -0.04399558 0.055639926
0.043459922 0.14375784 0.08453909 0.052495085 0.12922625 0.06701887 0.17469127 -0.057634763
-0.11767641 0.24915725 -0.05400724 -0.025100341 -0.12691599 0.08863279 -0.05513498 0.007930263
0.13102683 -0.009193425 -0.0067790058 0.1421855 -0.014237192 -0.039008927 -0.123794764 -0.006292546
-0.009945978 -0.040422726 0.115171015 -0.08514746 0.08880112 -0.1267629 -0.19731176 0.071548946
0.08626194 -0.08425224 -0.024462864 0.028686829 -0.0861387 0.25015262 0.14237422 0.2336574
-0.10551461 0.013767948 -0.13963833 -0.08076832 0.02666406 -0.001583644 -0.021602776 -0.016632121
0.11909867 0.047118954 0.07193575 -0.12661147 0.14566836 -0.052129757 -0.0011604709 -0.09913436
-0.114949934 0.020765668 -0.06545952 -0.11389645 0.052540585 -0.057932086 -0.01178368 0.1811767
-0.093522035 0.18469523 0.05892856 -0.0032643483 -0.02673526 0.024665503 -0.013743985 0.133371
00000000: c5ff 45be 28ff 94bd 1a0c c53d 9c93 4c3d
00000010: 63ed a23e cde8 553d f463 003e 4289 59bd
00000020: d306 c9bc 5a2a a43c 81df 013e b0e7 70bc
00000030: ead2 1e3c a8a0 bfbe e387 e6bd 3bf5 4c3c
00000040: d274 253d b9eb ccba e624 9a3c 4d8c fe3d
00000050: 7ff7 9b3c 2835 bcbd ac76 79bc d850 6ebe
00000060: 8fbc a0bd fb9a a03d 6c72 dcbd 2b5a 003e
00000070: e33d 883d 23f6 14bd 0711 1abb 0d32 be3d
00000080: b256 9cbd a6a8 0bbd 32e4 cfbd 5601 19be
00000090: e4b8 7dbd 777a 4e3c dbcb f23c b20e f4bc
000000a0: 94a5 333d eb92 293d b9d1 e33d 6ab3 e2bd
000000b0: 772f 1ebd 1dfc 78bd 6dae 7ebc d888 263d
000000c0: ab0f 3fbe 52d0 e63a 2b0d abbd 19fb 8b3d
000000d0: 3144 96be 2ea3 f2bb a0ca 563d 7fb8 00be
000000e0: 17d1 a6bd 7ec7 ef3d 454c 373e 7a86 d6bd
000000f0: 90aa a93e 4daa b6bd e3b9 543d 366b d73c
00000100: 5fe9 9abd c46e 0f3e 54e6 973a fd3e 203e
00000110: 88d9 05be 3bd5 073d e27f 893d daab 373d
00000120: 5e10 313d f7a2 8f3d fba2 14bd 8522 a0bc
00000130: 84a6 6b3d 5bce ebbd aab6 12be fca7 35be
00000140: 9f74 66be 4f80 7abd b64c e23c 90a1 f4bd
00000150: e740 33bd 8ce7 b6bc 130a acbd 901b 953e
00000160: 4f7d a9bd eb98 38bd b251 1d3d 76fb 7dbe
00000170: c795 37be eae6 d7bc 2613 343e 5ba4 783e
00000180: 2ca3 08be 608a 873d db0b 8ebd 0c62 e3bd
00000190: 2fac 5ebd 6f67 fabd 9e11 063e a381 083c
000001a0: 5054 ea3d 1f12 c53d 0e96 063e f00d b8bc
000001b0: 2178 9b3c c02f d9bb d7b4 6bbe 3ee7 8bbd
000001c0: d89b 81bc 548d a2bd b1cd 273c 4de6 42bd
000001d0: 2f6f e03d 4ceb d7bc e208 92bc 731f 703e
000001e0: 3afb 2fbe 73d2 e3bd 9ce8 303e 7b54 2d3d
000001f0: 3551 c13d 9cc5 65bd a751 6b3d 521a 1d3c
00000200: 9213 98bd ae45 483e 5482 f13c b7a1 153c
00000210: 4713 e93d e2d8 103e 587c 52bc 20a2 fd3d
00000220: 4dc7 843d e82c 80bd fa81 2cbe 59c7 eebb
00000230: 5a15 72bd d788 593c 085c c23c 5b15 ed3d
00000240: d705 26bd c409 693d 734b adbb 7946 18be
00000250: a5ee 563d caed 04be 7e7a 12be ab8f e9bd
00000260: 891e 343e 1258 8e3d 2b63 a23d 0288 ddbd
00000270: 7d32 78bc 4ab6 883b 3bbc 7c3d b4b4 183e
00000280: c7b8 11bc 816a 293d 698c e9bd 0fc1 a13d
00000290: 64ab d7bd c8d6 0a3e 5742 1f3d 22fc b5ba
000002a0: 32dc 253e 974b 8a3c eb36 01bc 0360 003e
000002b0: 6ece 7ebd 7c13 61bc 9ea7 413e d595 38be
000002c0: f4b9 043e 2429 793c a6eb 453d 7361 ea3c
000002d0: ca8e 33bc a9e5 acbd b634 34bd b1e6 633d
000002e0: 0803 323d 4135 133e d522 ad3d 1605 573d
000002f0: e353 043e 3041 893d 45e2 323e 6e12 6cbd
00000300: 5400 f1bd 1423 7f3e b236 5dbd 3b9f cdbc
00000310: 44f6 01be 1c85 b53d 37d5 61bd efed 013c
00000320: e62b 063e 05a0 16bc 6c22 debb 1399 113e
00000330: 1d43 69bc d3c7 1fbd 1c88 fdbd b431 cebb
00000340: 75f4 22bc 4d92 25bd c8de eb3d cb61 aebd
00000350: 5ddd b53d 22ce 01be 180c 4abe 4188 923d
00000360: 1aaa b03d 708c acbd 5866 c8bc a400 eb3c
00000370: 7d69 b0bd 0114 803e 8cca 113e e343 6f3e
00000380: 0b18 d8bd f692 613c 5afd 0ebe dc69 a5bd
00000390: 966e da3c 4692 cfba 4ef8 b0bc 1640 88bc
000003a0: 01ea f33d ceff 403d 0d53 933d 70a6 01be
000003b0: 162a 153e 0386 55bd f11a 98ba f506 cbbd
000003c0: df6a ebbd c31c aa3c a40f 86bd 8b42 e9bd
000003d0: cc34 573d 324a 6dbd 5610 41bc 6386 393e
000003e0: 7b88 bfbd bf20 3d3e 135f 713d adee 55bb
000003f0: e703 dbbc 4f0f ca3c 742e 61bc 6892 083e
