MLATest/results/RollerBall/RollerBall/RollerBall-0.pt (torch, 152735 bytes, 13 tensors)

network_body._body_endoder.seq_layers.0.weight f4 [128, 8]
000000 e6 19 d1 be c1 c3 ad bb 08 e2 26 3e 2f 88 07 3d
       -0.4084007 -0.0053028767 0.16297162 0.03308886
000010 6f 9e b3 3e 30 10 69 3e 23 ad f2 3d b2 36 0c be
       0.35081813 0.22760081 0.118494295 -0.1369274
000020 be 59 ce 3e b7 ac 69 be b3 f8 bf 3e 13 f7 8b bd
       0.40302843 -0.22819792 0.3749443 -0.06834235
000030 5e ff f9 be 57 79 4e 3d c4 b7 d1 3e ea a2 0b 3e
       -0.48827642 0.050408687 0.40960515 0.13636366
000040 b5 23 0a bf 92 23 34 3b fb 28 57 be c0 65 99 3e
       -0.53960735 0.0027487022 -0.21011727 0.29960442
000050 43 30 2e 3e 7a 07 d3 3e 69 73 57 3f 10 8d bc bd
       0.17010598 0.41216642 0.84160477 -0.09206593
000060 01 88 92 3e ce 4e fb be a1 30 54 be 2c 18 94 be
       0.28619388 -0.4908356 -0.20721675 -0.28924692
000070 10 64 4a 3e 61 fa fc be c3 e2 3e 3e 48 e0 3c 3e
       0.19764733 -0.49409774 0.1864119 0.18444932
000080 a8 d0 c4 3d 17 c0 a4 3e b9 15 0e be cc 21 73 bd
       0.096101105 0.32177803 -0.13875474 -0.059358403
000090 2c a8 06 3d c0 ea 0d bf 9d 2e dc bd b4 a2 ae 3e
       0.032875225 -0.55436325 -0.10751078 0.34108508
0000a0 52 63 42 ba 6a 7b 0e bd 48 51 c3 3e b3 0d 07 bf
       -0.00074153126 -0.034785666 0.3814795 -0.5275528
0000b0 8c 92 07 bf c4 2d 67 3e 2b b5 9e be 54 f1 8b bd
       -0.5295799 0.22576052 -0.30997595 -0.06833139
0000c0 96 36 d1 be d6 fb 83 3e 25 a4 44 3e ae 16 58 be
       -0.40861958 0.25778073 0.19203241 -0.21102402
0000d0 f6 7c 38 be ab 39 80 be 7a fa 33 3e f1 42 48 3f
       -0.18016419 -0.25043997 0.17576018 0.78227144
0000e0 28 1b c4 be e6 c1 cd bd d2 16 09 bf 22 45 d1 3e
       -0.3830197 -0.10046749 -0.53550446 0.40873057
0000f0 e8 60 b3 be 89 8a d1 3d 0e 88 d5 3e 1f 39 25 bf
       -0.3503487 0.102315016 0.41705364 -0.64540285
000100 0d 0c 9e 3e c0 24 d7 be ef 34 81 bc c3 42 1d be
       0.3086857 -0.42020226 -0.015772311 -0.15357499
000110 d3 4b be be c0 21 39 3d 28 07 87 bf c9 5e 11 3e
       -0.37167224 0.045198202 -1.0549059 0.14196314
000120 99 bd dc be 15 d5 86 be 8d 24 03 3e d2 d8 43 3e
       -0.43113402 -0.26334444 0.12806912 0.19125679
000130 b3 01 fe 3e c5 96 f8 3e c3 17 7e 3e be 3b 17 bf
       0.4961067 0.48552528 0.24813752 -0.59075534
000140 3a 88 73 3e 5e ba df 3d 3a 57 cb 3c aa a8 fb 3d
       0.23782435 0.109242186 0.024821866 0.122880295
000150 81 47 1c be 1f 1a 54 be 3a 81 59 3e 00 7d d1 be
       -0.15261652 -0.2071309 0.21240702 -0.4091568
000160 d4 f5 0f 3f 0c 3c 5a 3d ed c2 91 3e 22 7a ad be
       0.5623448 0.05327992 0.2846903 -0.33882242
000170 44 41 f5 bd fa 9e f6 be c9 a2 3d 3f 0b 22 ce bd
       -0.11975339 -0.48168164 0.74076515 -0.10065087
000180 0f eb a5 bd c8 56 b8 3e 22 c9 dc be 46 54 8f be
       -0.081014745 0.3600371 -0.43122202 -0.27993983
000190 3c 96 92 be ef 5f 03 bf dc 84 8b 3b 21 b3 a5 bd
       -0.28630245 -0.5131826 0.0042577814 -0.08090807
0001a0 77 22 9e bd eb 0d d3 be 87 ef df 3e 36 9a 12 3e
       -0.077214174 -0.41221556 0.43737432 0.1431664
0001b0 dc a6 c9 be 5c 54 12 bf 92 e6 53 3f bf f1 57 be
       -0.39385116 -0.5715997 0.827737 -0.21088313
0001c0 a3 ce a6 3e 6d 53 f4 3e e7 d5 da 3e 7a 3c a7 3e
       0.32579526 0.477199 0.4274132 0.32663327
0001d0 b3 90 0f 3f 2c bf f4 3d c9 10 2c be f0 3f 02 bc
       0.5608017 0.11950526 -0.16803278 -0.007949814
0001e0 87 dc 83 3e c3 03 ba bd 6d a4 1e 3f 29 b3 57 3e
       0.25754187 -0.09082749 0.61969644 0.21064438
0001f0 6c f5 0b 3f 00 dd 0f 3f a8 d3 4a 3e 2a 34 17 be
       0.5467136 0.56196594 0.19807303 -0.14765993
000200 35 1a 8b be a5 2d 8a 3e 55 4a 04 bf 6e 0c de 3e
       -0.27168432 0.2698795 -0.5167592 0.43368858
000210 62 07 3a 3e 74 98 2f 3d 86 4a 8c bc 95 2f 05 be
       0.18166879 0.04287 -0.01712538 -0.13006432
000220 ce 06 24 3e e1 72 fd be 07 d9 35 3e 96 e6 bd bd
       0.16018221 -0.49501708 0.1775857 -0.092724964
000230 48 35 80 3e e4 fd 8b be 17 96 50 3e 9a 45 05 bf
       0.2504065 -0.2734214 0.20369755 -0.5205933
000240 bd 9d 82 3e a9 59 01 3f 64 cd af be d6 81 87 3e
       0.2551097 0.50527436 -0.34336388 0.26466244
000250 d9 e2 95 bc a5 ed df be f8 bb a3 3d 4c d4 5a be
       -0.018296646 -0.43735996 0.079948366 -0.21370047
000260 b3 68 aa 3c a3 68 38 be bb 4e ea be 4d df ab 3d
       0.020801878 -0.18008666 -0.45763192 0.083922006
000270 20 b4 84 bd 87 03 da bd c6 9d 13 bf 9b e8 8c 3e
       -0.064796686 -0.10645204 -0.5766262 0.27521214
000280 2e 45 1c 3e 42 25 08 be aa 4a c8 be b3 2b fe be
       0.15260765 -0.13295463 -0.39119464 -0.49642715
000290 24 7e 4d 3e 92 56 1c bf 50 e0 e3 3d f3 98 c6 3d
       0.2006765 -0.61069596 0.111267686 0.096971415
0002a0 b1 cd f6 bd 45 77 73 be f1 b2 87 3e 62 3f 28 3e
       -0.12050951 -0.23775966 0.2650371 0.16430429
0002b0 d8 3d b7 3e 51 62 07 bd 6c 27 e0 bc 39 b0 ae be
       0.3578937 -0.033052746 -0.027362548 -0.34118822
0002c0 f1 cc fd be cb 70 74 3d 6e f7 a8 3d 86 c3 06 3e
       -0.4957042 0.05967788 0.082503185 0.13160524
0002d0 16 91 88 bd b6 bd 52 3d 16 32 06 bf 43 55 b8 3e
       -0.06668298 0.051450454 -0.52420175 0.3600255
0002e0 2e 55 67 be f9 6c 84 be 7c e8 79 3e 77 3b 19 3e
       -0.22591087 -0.2586439 0.24405092 0.1496409
0002f0 ea 54 2b 3d 33 f0 dd 3e 34 13 08 3e 54 40 67 be
       0.041829027 0.4334732 0.13288575 -0.22583133
000300 6f 00 26 3e ee 94 78 3e 42 3e b1 be b1 b6 5b 3e
       0.16211103 0.24275562 -0.3461781 0.2145641
000310 a7 b8 d7 3d 6a b8 a8 3e b6 ef 04 bf 2c 2c 51 bc
       0.105332665 0.32953197 -0.5192827 -0.012766879
000320 09 c5 17 ba a3 a5 03 be ca 3a c8 3e 99 66 a0 3e
       -0.00057895534 -0.12856154 0.39107352 0.31328276
000330 e7 f6 89 3e da 0c 6a be 4e 4e 0e 3d 8f 6b a1 3c
       0.26946184 -0.22856465 0.034742646 0.019704608
000340 60 82 af be 47 f7 b8 3e 83 f9 93 be b6 db de 3e
       -0.34279156 0.36126158 -0.289013 0.43527
000350 01 66 06 3f d8 03 c6 be c3 e7 1f be 69 e8 16 bf
       0.52499396 -0.38674808 -0.15615754 -0.5894838
000360 24 98 84 be 6a 10 0b 3e c8 f4 f0 bc 33 69 09 3f
       -0.25897324 0.1358048 -0.029413596 0.53676146
000370 70 c4 02 3e 8d 5d 14 bf 7b e3 26 be 1a ac a7 bc
       0.12770247 -0.5795525 -0.16297714 -0.020467807
000380 f6 a2 21 be 4b 13 9b 3e a6 ce 56 3f 20 f3 e2 3e
       -0.15784821 0.30288157 0.8390907 0.44326115
000390 db fb cc 3e 4a 7c a1 be 5b 94 42 bf c5 10 ac be
       0.400359 -0.31540138 -0.7600762 -0.33606544
0003a0 c1 ed b3 3d 28 1f de be ae a6 85 3e b7 24 fd bd
       0.08785582 -0.43383145 0.2610373 -0.123605184
0003b0 ed 71 0d be 41 65 24 bf 04 30 b5 be 95 3d 64 3d
       -0.1381299 -0.64217 -0.35388196 0.05572279
0003c0 70 74 c4 3d 07 a4 38 3f d0 46 81 3e d0 0e 23 3c
       0.09592521 0.72125286 0.25249338 0.009952262
0003d0 22 24 9a bc 4a 43 32 bf b7 1e 12 3d de bd 0b 3e
       -0.018816058 -0.69633925 0.035673823 0.13646647
0003e0 51 49 34 be 1d a6 c8 be a3 ca fc 3d e4 60 61 be
       -0.17606093 -0.39189234 0.123433374 -0.22009617
0003f0 a7 0d 32 be 0b 23 19 be 7a 80 ae bc 7a 6d 18 bf
       -0.1738802 -0.14954774 -0.021301497 -0.5954205

network_body._body_endoder.seq_layers.0.bias f4 [128]
000000 00 00 00 00 00 00 00 00 00 00 00 00 00 00 00 00
       0.0 0.0 0.0 0.0
000010 00 00 00 00 00 00 00 00 00 00 00 00 00 00 00 00
       0.0 0.0 0.0 0.0
000020 00 00 00 00 00 00 00 00 00 00 00 00 00 00 00 00
       0.0 0.0 0.0 0.0
000030 00 00 00 00 00 00 00 00 00 00 00 00 00 00 00 00
       0.0 0.0 0.0 0.0
000040 00 00 00 00 00 00 00 00 00 00 00 00 00 00 00 00
       0.0 0.0 0.0 0.0
000050 00 00 00 00 00 00 00 00 00 00 00 00 00 00 00 00
       0.0 0.0 0.0 0.0
000060 00 00 00 00 00 00 00 00 00 00 00 00 00 00 00 00
       0.0 0.0 0.0 0.0
000070 00 00 00 00 00 00 00 00 00 00 00 00 00 00 00 00
       0.0 0.0 0.0 0.0
000080 00 00 00 00 00 00 00 00 00 00 00 00 00 00 00 00
       0.0 0.0 0.0 0.0
000090 00 00 00 00 00 00 00 00 00 00 00 00 00 00 00 00
       0.0 0.0 0.0 0.0
0000a0 00 00 00 00 00 00 00 00 00 00 00 00 00 00 00 00
       0.0 0.0 0.0 0.0
0000b0 00 00 00 00 00 00 00 00 00 00 00 00 00 00 00 00
       0.0 0.0 0.0 0.0
0000c0 00 00 00 00 00 00 00 00 00 00 00 00 00 00 00 00
       0.0 0.0 0.0 0.0
0000d0 00 00 00 00 00 00 00 00 00 00 00 00 00 00 00 00
       0.0 0.0 0.0 0.0
0000e0 00 00 00 00 00 00 00 00 00 00 00 00 00 00 00 00
       0.0 0.0 0.0 0.0
0000f0 00 00 00 00 00 00 00 00 00 00 00 00 00 00 00 00
       0.0 0.0 0.0 0.0
000100 00 00 00 00 00 00 00 00 00 00 00 00 00 00 00 00
       0.0 0.0 0.0 0.0
000110 00 00 00 00 00 00 00 00 00 00 00 00 00 00 00 00
       0.0 0.0 0.0 0.0
000120 00 00 00 00 00 00 00 00 00 00 00 00 00 00 00 00
       0.0 0.0 0.0 0.0
000130 00 00 00 00 00 00 00 00 00 00 00 00 00 00 00 00
       0.0 0.0 0.0 0.0
000140 00 00 00 00 00 00 00 00 00 00 00 00 00 00 00 00
       0.0 0.0 0.0 0.0
000150 00 00 00 00 00 00 00 00 00 00 00 00 00 00 00 00
       0.0 0.0 0.0 0.0
000160 00 00 00 00 00 00 00 00 00 00 00 00 00 00 00 00
       0.0 0.0 0.0 0.0
000170 00 00 00 00 00 00 00 00 00 00 00 00 00 00 00 00
       0.0 0.0 0.0 0.0
000180 00 00 00 00 00 00 00 00 00 00 00 00 00 00 00 00
       0.0 0.0 0.0 0.0
000190 00 00 00 00 00 00 00 00 00 00 00 00 00 00 00 00
       0.0 0.0 0.0 0.0
0001a0 00 00 00 00 00 00 00 00 00 00 00 00 00 00 00 00
       0.0 0.0 0.0 0.0
0001b0 00 00 00 00 00 00 00 00 00 00 00 00 00 00 00 00
       0.0 0.0 0.0 0.0
0001c0 00 00 00 00 00 00 00 00 00 00 00 00 00 00 00 00
       0.0 0.0 0.0 0.0
0001d0 00 00 00 00 00 00 00 00 00 00 00 00 00 00 00 00
       0.0 0.0 0.0 0.0
0001e0 00 00 00 00 00 00 00 00 00 00 00 00 00 00 00 00
       0.0 0.0 0.0 0.0
0001f0 00 00 00 00 00 00 00 00 00 00 00 00 00 00 00 00
       0.0 0.0 0.0 0.0

network_body._body_endoder.seq_layers.2.weight f4 [128, 128]
000000 4f 46 49 3d 74 27 14 3e fe ea f3 3c 05 82 a7 bd
       0.049139317 0.14468175 0.029775139 -0.08179096
000010 96 0b 9a 3d 78 fc 23 3d 1b bd a8 bc 32 3a ea bd
       0.07521741 0.040035695 -0.020597985 -0.11436881
000020 7f eb c3 bd 06 c2 e6 3d fc 12 59 3d 4d 99 92 3d
       -0.09566402 0.11267476 0.05299662 0.07158146
000030 d1 e7 a8 3d 02 73 4a be a7 0f 31 bd df b0 bc bc
       0.082473405 -0.19770434 -0.043227818 -0.023033557
000040 55 78 fd bc db e7 61 3d d9 8d 72 bd e4 40 13 3e
       -0.030941168 0.055152755 -0.059217308 0.14380223
000050 83 e0 a3 3d bd 6f 1a 3c 94 c0 bd 3c b8 97 37 be
       0.080018066 0.009426055 0.023163117 -0.1792897
000060 36 4d 5e bd 7f 22 04 bd 80 63 3e 3c 4a 8d b7 3d
       -0.054272853 -0.03225946 0.011620402 0.089624956
000070 3f 36 9f bd b2 9c b5 bd 4f bb 10 3c 07 c8 86 bb
       -0.077740185 -0.08867778 0.00883372 -0.0041132006
000080 87 7c d6 3d 3b 61 a4 3d bd 0a 2b bd 24 22 8a 3d
       0.104729705 0.08026358 -0.041758288 0.06744793
000090 dd 61 f7 bd 8e 8d 23 bd d6 81 6c 3d 63 95 b0 bc
       -0.12079213 -0.03992992 0.05774101 -0.021555608
0000a0 72 2a 62 bd cd c7 ea 3d 58 0f 33 bd 78 3f be 3d
       -0.05521626 0.1146389 -0.043715805 0.092894495
0000b0 ff 07 c0 bd cc a1 d7 bd dd ed 85 bc 3a 23 6e 3c
       -0.09376525 -0.10528907 -0.016348774 0.014534766
0000c0 1a b5 a7 3b c3 5a f0 bd 8e 0d 6b bc 0c 4d c8 bd
       0.0051180245 -0.117360614 -0.014346493 -0.097803205
0000d0 dc 36 2d bd 3d c8 b7 3d 0d 31 0e be ad 08 bc 3d
       -0.042288646 0.08973739 -0.13885899 0.09181342
0000e0 65 cd 7c 3d 4d 8d e9 bc d7 75 fe bd f4 4f 61 bd
       0.061719317 -0.02850976 -0.1242482 -0.05500789
0000f0 05 67 1f 3d e7 78 08 bd b9 34 13 3d da 2f f9 3d
       0.038916606 -0.033318426 0.035938952 0.1216733
000100 33 6a d3 bd f2 28 cf bd 15 a8 d0 bd f1 73 03 3e
       -0.1032299 -0.101152316 -0.10188309 0.12837197
000110 9d a6 36 3d d3 52 ec 3b 52 29 88 bc c1 35 f8 3d
       0.04459249 0.007212022 -0.016621266 0.12119628
000120 e9 61 52 bd 45 ee 1c bc 54 0e 08 3d 83 21 19 3e
       -0.051362906 -0.009578292 0.03321679 0.1495419
000130 2e 0b 7d 3b f4 b6 48 bd e1 1a d3 bb a4 9b 94 3c
       0.00386114 -0.049002603 -0.006442413 0.018140621
000140 60 b9 e7 3d dd 40 1b bd e0 23 da bc 48 c1 2c bd
       0.11314654 -0.037903655 -0.026628435 -0.042176515
000150 87 39 c4 bd 16 c0 f6 3c 58 e4 a1 bd 95 19 ce bd
       -0.09581285 0.03012089 -0.07904881 -0.10063473
000160 30 38 5c bd 8d ae c8 3d b2 94 c3 bd e9 ec 19 be
       -0.053764522 0.09798918 -0.09549846 -0.1503178
000170 bc 9c 0d be d5 d2 aa bc b3 f3 a0 bd 4a cc 99 3d
       -0.1382932 -0.020852486 -0.07858982 0.07509668
000180 84 56 70 3d fe 5d 5a bc 16 df 21 bd c5 77 96 3d
       0.058676258 -0.013328074 -0.039519392 0.07347063
000190 c1 a8 6c be 3d 7a 3a bd 40 42 5b 3d c9 63 4b 3d
       -0.2311125 -0.04552673 0.053529978 0.04965571
0001a0 3a 54 67 be cf 1a 76 bd 44 a0 22 bc ee 06 0b bd
       -0.22590724 -0.06008416 -0.009925906 -0.033942156
0001b0 03 90 4d 3d d5 a7 87 bc 15 7d 1f be be 32 99 3d
       0.05018617 -0.01655952 -0.15575059 0.074803814
0001c0 c0 77 02 3c 2d 9b 1a 3d 84 e1 2d bc 0e 24 d5 3d
       0.007963121 0.037745643 -0.010612849 0.104072675
0001d0 7e 7f 6e 3d 9f 74 32 bc 38 07 2a 3e 25 75 97 bc
       0.058227055 -0.010892062 0.16604316 -0.018488476
0001e0 b2 dd e6 bd 89 0f 0d 3b 5c 29 11 bd 49 56 78 be
       -0.11272754 0.0021524152 -0.035439834 -0.24251665
0001f0 18 a8 10 3e bd 70 23 be d2 df 90 bc e2 b8 43 bd
       0.14126623 -0.15960975 -0.01768485 -0.04778374
000200 30 d1 2e 3d 60 ce d7 3d c7 01 92 bd d2 24 6a bd
       0.042679965 0.1053741 -0.07129245 -0.05716402
000210 96 0b d5 3d 5e 31 c2 bc a5 49 66 3d db e4 1f 3d
       0.104026005 -0.02370518 0.056222577 0.039036613
000220 7f 0f 64 39 6c 22 f1 3d a5 f3 f5 bd 9e d1 20 bd
       0.00021749547 0.117741436 -0.12009362 -0.039262407
000230 5b 5d 7b bd 0a 98 b5 3d 6b ff 19 bd b2 5d ef 3d
       -0.061368328 0.0886689 -0.0375971 0.11687793
000240 14 5c 5c 3d 59 9d 2f 3d fc b1 ed bd a0 26 b8 3b
       0.05379875 0.042874668 -0.116062135 0.005619839
000250 ac 88 86 3c fc 73 c0 3d 9a f1 3e bd 12 03 05 3e
       0.016422592 0.09397122 -0.046617128 0.12989452
000260 aa 8a a6 bc ed 6c 30 bd ec 27 72 3d 02 1a 99 3d
       -0.020329792 -0.04307263 0.059120104 0.07475664
000270 c7 dc 6f 3d fe 1f 09 3e d8 c8 b5 3d e4 77 08 3d
       0.05856016 0.1339111 0.088761985 0.03331746
000280 ee f7 79 3d 92 22 a7 bd 14 45 7b bd 3a 57 95 bd
       0.06102746 -0.08160891 -0.061345175 -0.07292028
000290 77 34 b1 bd 75 7b 89 bd d1 36 5a 3e 24 d8 80 3d
       -0.08652585 -0.06713001 0.21309973 0.062912256
0002a0 76 6e 14 be 2d 67 b2 3c f9 10 19 be 5f 44 9b bd
       -0.14495263 0.021777714 -0.14947881 -0.075814
0002b0 06 9c 20 be e0 68 8d 3c 3d 6f c2 3d 4f 53 9c bd
       -0.15684518 0.017261922 0.09493873 -0.07633077
0002c0 6c 83 e0 bd 83 ac e0 3d 04 f0 a7 bc 2c 5d 19 be
       -0.10962567 0.10970404 -0.02050019 -0.14976948
0002d0 7b 14 8c 3d 7b 2d 14 bd f7 a2 b8 3d fa 6e 02 3d
       0.06839844 -0.036176186 0.09015458 0.031844117
0002e0 61 ad d0 bd 33 20 f0 bc 19 af dc 3d 89 4d a0 bd
       -0.101893194 -0.029312229 0.10775585 -0.07827289
0002f0 83 51 ac bc 0b 52 4d bd fa 1b c1 3d 88 c0 9a 3d
       -0.021034962 -0.05012707 0.09429164 0.07556254
000300 a3 e3 33 3d 29 38 9f bd fb 4a 81 bc 9f 63 ea bb
       0.043918263 -0.077743836 -0.015782824 -0.007152989
000310 fe e7 38 bd eb 0a a1 3d 42 75 14 be 0e c1 07 bd
       -0.04514312 0.078634106 -0.14497855 -0.033143096
000320 98 4d 9f 3c 2d 9a 07 3e 86 33 20 be 6d 4a 88 be
       0.01944618 0.13242407 -0.15644655 -0.26619282
000330 cb 98 99 bd 18 b4 c3 3d 9c 0a fa bc 4b 91 0b 3d
       -0.07499846 0.095558345 -0.030522637 0.03407411
000340 10 ae 83 be 8b 6f 50 3c 37 15 b8 3b a3 2b 16 3d
       -0.25718737 0.012721906 0.0056177634 0.03666271
000350 8e c0 7c bd ff 21 87 3d 69 91 e0 3d 09 cb 3d 3d
       -0.061707072 0.06598281 0.10965235 0.046336208
000360 c4 f2 4a bd 08 26 2e 3e b5 37 fa ba 44 eb a5 bb
       -0.049547926 0.17006695 -0.0019090088 -0.0050634462
000370 41 7d 28 3d 44 24 7e bd 69 1d e9 3c 7f 5a 8b bd
       0.041135076 -0.062046304 0.028456407 -0.0680437
000380 3b 1c 43 bc 50 35 3d 3d e2 44 2d bc 78 67 4d bd
       -0.011908586 0.04619342 -0.010575505 -0.050147504
000390 6f a1 29 3d 6f 62 d2 3d 6d bc 47 bd 7b c6 b7 bd
       0.04141372 0.10272681 -0.04876368 -0.08973404
0003a0 ac 6e c5 3d 49 6e a1 bd 3e 50 07 3c 95 54 a9 3d
       0.096402496 -0.07882363 0.008258877 0.08268086
0003b0 d5 cc 1a 3d 0c 51 47 3d 4a 29 a0 3d 9e 1c 4e 3b
       0.037793 0.048661277 0.07820375 0.0031450163
0003c0 9c 0c d0 bc e2 5e 0a be dc 6f ef bd 7c 8b ba bc
       -0.025396638 -0.13512757 -0.11691257 -0.02277159
0003d0 45 08 3b bd f7 ec 21 bd 51 42 5a 3d 25 84 44 3e
       -0.045662183 -0.039532628 0.0532859 0.19191034
0003e0 69 26 a9 3c a6 22 37 3e 5f c8 5d 3d 80 90 bd bd
       0.020648198 0.17884311 0.054146167 -0.09256077
0003f0 72 75 36 be cc 69 d2 3c 15 4b cc 3b c7 b8 ad 3d
       -0.1781824 0.025685214 0.0062345364 0.08482509

network_body._body_endoder.seq_layers.2.bias f4 [128]
000000 00 00 00 00 00 00 00 00 00 00 00 00 00 00 00 00
       0.0 0.0 0.0 0.0
000010 00 00 00 00 00 00 00 00 00 00 00 00 00 00 00 00
       0.0 0.0 0.0 0.0
000020 00 00 00 00 00 00 00 00 00 00 00 00 00 00 00 00
       0.0 0.0 0.0 0.0
000030 00 00 00 00 00 00 00 00 00 00 00 00 00 00 00 00
       0.0 0.0 0.0 0.0
000040 00 00 00 00 00 00 00 00 00 00 00 00 00 00 00 00
       0.0 0.0 0.0 0.0
000050 00 00 00 00 00 00 00 00 00 00 00 00 00 00 00 00
       0.0 0.0 0.0 0.0
000060 00 00 00 00 00 00 00 00 00 00 00 00 00 00 00 00
       0.0 0.0 0.0 0.0
000070 00 00 00 00 00 00 00 00 00 00 00 00 00 00 00 00
       0.0 0.0 0.0 0.0
000080 00 00 00 00 00 00 00 00 00 00 00 00 00 00 00 00
       0.0 0.0 0.0 0.0
000090 00 00 00 00 00 00 00 00 00 00 00 00 00 00 00 00
       0.0 0.0 0.0 0.0
0000a0 00 00 00 00 00 00 00 00 00 00 00 00 00 00 00 00
       0.0 0.0 0.0 0.0
0000b0 00 00 00 00 00 00 00 00 00 00 00 00 00 00 00 00
       0.0 0.0 0.0 0.0
0000c0 00 00 00 00 00 00 00 00 00 00 00 00 00 00 00 00
       0.0 0.0 0.0 0.0
0000d0 00 00 00 00 00 00 00 00 00 00 00 00 00 00 00 00
       0.0 0.0 0.0 0.0
0000e0 00 00 00 00 00 00 00 00 00 00 00 00 00 00 00 00
       0.0 0.0 0.0 0.0
0000f0 00 00 00 00 00 00 00 00 00 00 00 00 00 00 00 00
       0.0 0.0 0.0 0.0
000100 00 00 00 00 00 00 00 00 00 00 00 00 00 00 00 00
       0.0 0.0 0.0 0.0
000110 00 00 00 00 00 00 00 00 00 00 00 00 00 00 00 00
       0.0 0.0 0.0 0.0
000120 00 00 00 00 00 00 00 00 00 00 00 00 00 00 00 00
       0.0 0.0 0.0 0.0
000130 00 00 00 00 00 00 00 00 00 00 00 00 00 00 00 00
       0.0 0.0 0.0 0.0
000140 00 00 00 00 00 00 00 00 00 00 00 00 00 00 00 00
       0.0 0.0 0.0 0.0
000150 00 00 00 00 00 00 00 00 00 00 00 00 00 00 00 00
       0.0 0.0 0.0 0.0
000160 00 00 00 00 00 00 00 00 00 00 00 00 00 00 00 00
       0.0 0.0 0.0 0.0
000170 00 00 00 00 00 00 00 00 00 00 00 00 00 00 00 00
       0.0 0.0 0.0 0.0
000180 00 00 00 00 00 00 00 00 00 00 00 00 00 00 00 00
       0.0 0.0 0.0 0.0
000190 00 00 00 00 00 00 00 00 00 00 00 00 00 00 00 00
       0.0 0.0 0.0 0.0
0001a0 00 00 00 00 00 00 00 00 00 00 00 00 00 00 00 00
       0.0 0.0 0.0 0.0
0001b0 00 00 00 00 00 00 00 00 00 00 00 00 00 00 00 00
       0.0 0.0 0.0 0.0
0001c0 00 00 00 00 00 00 00 00 00 00 00 00 00 00 00 00
       0.0 0.0 0.0 0.0
0001d0 00 00 00 00 00 00 00 00 00 00 00 00 00 00 00 00
       0.0 0.0 0.0 0.0
0001e0 00 00 00 00 00 00 00 00 00 00 00 00 00 00 00 00
       0.0 0.0 0.0 0.0
0001f0 00 00 00 00 00 00 00 00 00 00 00 00 00 00 00 00
       0.0 0.0 0.0 0.0

action_model._continuous_distribution.log_sigma f4 [1, 2]
000000 00 00 00 00 00 00 00 00
       0.0 0.0

action_model._continuous_distribution.mu.weight f4 [2, 128]
000000 2d 29 dc 3a 73 cf d8 3c 31 2b ac 3c a2 b3 8d 3c
       0.0016796939 0.026466107 0.021016689 0.01729757
000010 d6 e8 1c bc 1f c2 00 3d e5 09 d4 3c d2 df 2e 3c
       -0.009576997 0.03143513 0.025883624 0.01067348
000020 77 8f 00 bd 1d 09 62 3b e3 ed 23 3c 6b 8c 82 bb
       -0.03138682 0.0034490295 0.010005447 -0.0039840243
000030 ab b5 95 bc 5f 62 f5 3a a7 5c b1 3c d7 5c 88 3b
       -0.018275103 0.0018721333 0.021650625 0.004161458
000040 4c 9e 10 bc 30 1a 21 bd 1a e5 d5 ba 92 07 02 bc
       -0.008826803 -0.039331615 -0.0016318888 -0.007936375
000050 08 f6 84 3c 4f 4a a5 3a d8 27 00 3d 87 e6 b0 bb
       0.016230598 0.0012610647 0.031287998 -0.0053985748
000060 c3 d5 ac 3b 0b 32 a9 bb 08 52 8a 3c 0d 96 28 bb
       0.005274506 -0.0051634363 0.016884819 -0.0025724203
000070 ca b1 8f 3b 28 ec 8f 3c f4 d4 32 bc ab cf 35 3c
       0.004385208 0.017568663 -0.01091503 0.011096875
000080 58 af 55 bc 3f c8 9a bc 44 01 83 3b 47 ef 0f 3c
       -0.0130422935 -0.018894313 0.0039979536 0.0087850755
000090 f0 a3 bf 3c 58 a4 cd bb d5 7d 3d bc aa 56 0f bc
       0.023393601 -0.006275695 -0.011565645 -0.00874869
0000a0 32 e1 63 bc 2b df bd 3c 51 84 8d 3b d8 be a9 3c
       -0.013908671 0.023177704 0.004318752 0.020720884
0000b0 7f 77 31 3b 1f ea fe bb 77 81 80 bc 42 d6 36 bc
       0.0027079282 -0.0077793743 -0.015686734 -0.0111594815
0000c0 70 45 7a 3c aa 06 f4 bc 3b a4 7b 3b 19 c3 a7 bc
       0.015275344 -0.029788334 0.003839745 -0.020478772
0000d0 d3 72 f8 3b a9 1f 36 3c db a3 86 bc 34 9c 9a ba
       0.0075820475 0.011115947 -0.016435554 -0.001179582
0000e0 78 81 da 3c 0f 84 67 3b fd 0c f1 3c 81 80 bb bc
       0.026673064 0.0035326516 0.029425139 -0.022888424
0000f0 36 fa c0 3c 76 d0 bb bc b7 ad 00 bc 22 b3 ed bc
       0.02355681 -0.02292655 -0.007853917 -0.029016081
000100 c9 a7 33 3c 43 df 4f bb 1d 44 f8 3b 22 a0 ec 3c
       0.010965296 -0.0031718768 0.007576479 0.028884951
000110 c7 67 c2 3c 21 ff 39 bd 0d c5 c2 ba 2a c0 a8 bc
       0.023731126 -0.045409326 -0.0014859751 -0.020599443
000120 8f f2 f8 bc 10 f9 42 3c 82 cc 18 bc de 95 a7 ba
       -0.030389098 0.011900201 -0.009326102 -0.0012785753
000130 44 cb b0 3b 48 84 d8 3b 9e 26 b1 3c 6e ec 0a bc
       0.005395325 0.006607566 0.02162486 -0.008479221
000140 50 de 5a 3c ec ce 93 3a 1d c4 fe bb a2 96 da 3c
       0.0133586675 0.0011276877 -0.0077748434 0.026683155
000150 dc 25 a5 3b 87 e6 a6 bc f6 45 40 3c 12 9c a9 3a
       0.0050399136 -0.020373596 0.01173543 0.0012940189
000160 0b 4b 74 bc 34 d0 9e bc e3 a5 ac bb a1 49 a4 3c
       -0.01491047 -0.019386388 -0.0052687987 0.02005464
000170 6d bb 90 bc f0 9a 53 39 c9 49 2e bc 3b 06 9c bc
       -0.017667497 0.00020180247 -0.010637709 -0.01904594
000180 bd c7 b1 bc 72 b4 84 bc ba 79 8d bb d8 86 e6 3c
       -0.021701688 -0.016199324 -0.0043174895 0.02814047
000190 7e 9d c8 3c 68 68 bc bb af 6a 20 bd f0 5e a4 38
       0.02448916 -0.005749751 -0.03916424 7.837813e-05
0001a0 a7 bd 86 bc 3f f9 a7 3b a2 cb f4 3b 75 38 47 3c
       -0.016447855 0.005126148 0.007470564 0.0121594565
0001b0 b7 79 06 bb ad 0f 8a 3b c2 7a 1d bd df 1f fe bb
       -0.0020519325 0.0042132945 -0.03844715 -0.007755264
0001c0 e2 21 91 3c d3 2c 87 3b 7f dc 56 bc 8a 28 79 3c
       0.017716352 0.0041252165 -0.013114094 0.015207419
0001d0 3f 76 82 3c c4 d5 80 bc b5 8d 80 3c 48 49 d4 3b
       0.015925525 -0.015726931 0.015692571 0.0064784624
0001e0 85 db 4f bc 33 ab 8c 3c 22 1d 20 bb d3 71 8b bc
       -0.012686615 0.017171478 -0.0024431427 -0.017022049
0001f0 82 32 a7 bc a4 63 9f 3c a0 39 c9 bc 75 0f a8 bc
       -0.020409826 0.019456692 -0.02456361 -0.020515183
000200 c6 81 38 3c 6d 60 d1 bb 0b af cf bc 98 74 6f bc
       0.011261409 -0.0063896687 -0.025352022 -0.0146152
000210 30 6f 77 bb 92 27 ea bb 9b d7 62 3c 6e 92 c0 3b
       -0.0037755482 -0.0071458304 0.01384535 0.005876831
000220 18 b2 57 bc 72 26 3f 3c 4f 1c e0 bb 54 6c 1b ba
       -0.013165019 0.011666881 -0.006839312 -0.0005928923
000230 32 f9 cf bc e2 51 91 3b db 05 70 3c cb a6 01 bd
       -0.02538738 0.00443481 0.014649834 -0.031653207
000240 3f c1 f0 3b c7 2f 7b bc f7 28 5e 3c 8b 36 bf 3c
       0.0073472555 -0.015331215 0.0135595715 0.023341438
000250 a2 80 62 bb 77 6c 39 bc 4f a2 b2 3b d2 ff 64 3c
       -0.0034561534 -0.011317364 0.0054514776 0.013977008
000260 78 f9 f5 3a 67 be 4e 39 a3 82 ec 3c 11 69 3d bb
       0.0018766364 0.00019716621 0.028870886 -0.0028901736
000270 23 b4 20 3c e9 4a 0e 3c ab 61 32 3d fd e7 c9 3c
       0.009808573 0.008684852 0.043550175 0.024646753
000280 59 65 05 bc 28 be fa 3b a7 58 9e bc ed 8d b5 3b
       -0.008141839 0.007652063 -0.019329382 0.0055406005
000290 66 eb 87 3c 51 f7 c2 bb c5 d2 c0 3c d0 86 3d bb
       0.016591739 -0.0059498926 0.023538003 -0.0028919466
0002a0 38 87 0e 3c 82 a9 5e 3b 02 c1 61 bb ef 63 09 bd
       0.008699231 0.0033975546 -0.0034447317 -0.03354257
0002b0 57 cf b6 3a 67 b8 7d b8 c3 43 84 3c e7 b8 49 3b
       0.001394729 -6.049164e-05 0.016145593 0.0030780376
0002c0 a7 db 0d 39 53 1f 1f bb 1d ab ef 3c 05 d4 21 3c
       0.00013528635 -0.0024280145 0.029256398 0.00987721
0002d0 0e ff 29 bc 1c 1f 4c 3c c0 d5 03 3c 37 64 2c bc
       -0.010375751 0.012458589 0.008046567 -0.01052194
0002e0 7f 57 bd bc f0 3a dc 3b ac 46 a4 3b 6d 48 d3 3b
       -0.02311301 0.006720893 0.0050133076 0.006447843
0002f0 0b 49 e8 bc 15 a9 a2 ba 35 d0 9d 3c cd e8 ef 3c
       -0.028355142 -0.001241001 0.01926432 0.029285813
000300 7b 82 8c bc 7a 79 c2 bc 50 e1 94 bc 6f 6e 8c 3c
       -0.017152062 -0.023739565 -0.018173844 0.017142503
000310 cb 0d 30 bb 97 61 1e 3c e9 cc 0e 3d 06 0a 26 3c
       -0.002686369 0.009666822 0.034863386 0.010134226
000320 fc 54 15 3c 8a 4c fa bb aa 32 f3 bb 05 3e c2 3b
       0.0091145 -0.0076385187 -0.007421811 0.0059278035
000330 a3 c7 b4 3c 87 61 db 3c cb 99 dd 3c d7 70 86 3b
       0.02206785 0.026779903 0.027050873 0.004102807
000340 e5 49 79 bb d8 1b 84 bb 91 b5 80 bc bd b8 c7 bb
       -0.003803843 -0.0040316395 -0.015711578 -0.0060950206
000350 94 d5 38 39 da 30 1b 3c aa b6 59 ba 33 a0 b9 3c
       0.00017627171 0.009472096 -0.0008305112 0.022659397
000360 51 17 9c 3c 02 96 93 bb 6c ee 91 bc bf 09 33 bd
       0.019054087 -0.0045039663 -0.017813884 -0.043710466
000370 7c 59 84 bb 67 1f 25 3d 05 96 c4 3c 5b 04 39 3c
       -0.0040389877 0.04031315 0.023997316 0.011292542
000380 ea 38 dc 3b f0 a8 e1 bc 43 a5 5a 3b 23 2c 01 3c
       0.006720652 -0.027546376 0.0033362664 0.007884058
000390 10 64 2b bc 53 0e a2 3b b3 37 1c 3c 02 2e b8 ba
       -0.0104608685 0.0049455552 0.009534764 -0.0014051797
0003a0 7f 3e 73 bc 60 38 00 3b fd 54 56 3b 6d 0c 00 3d
       -0.014846443 0.0019564852 0.0032704466 0.03126185
0003b0 9b d5 c4 bc 65 30 23 b7 b3 ff 50 bc 1d 75 3b bc
       -0.024027636 -9.726825e-06 -0.012756276 -0.011441496
0003c0 f0 39 22 3c 56 80 8a bb 84 b0 06 bc 47 dd 32 3c
       0.009901509 -0.0042267246 -0.008220796 0.010917014
0003d0 27 83 06 3d 02 0d af 3b 42 52 22 3d ae db 84 3a
       0.03283992 0.005342127 0.03962923 0.001013627
0003e0 5a 2c cc bb 66 3f 15 3d e5 c4 c0 3a 08 c7 2d 3c
       -0.006230873 0.036437415 0.0014707117 0.010606535
0003f0 c2 38 7d 3c 9f 08 86 bc bc d8 b2 3b 23 9c 89 bb
       0.015455427 -0.016361533 0.0054579657 -0.004199521

action_model._continuous_distribution.mu.bias f4 [2]
000000 00 00 00 00 00 00 00 00
       0.0 0.0

action_model._discrete_distribution.branches.0.weight f4 [1, 128]
000000 59 42 0b b9 5b fa dc 3b 1d 13 ec 3b 66 bc 21 3c
       -0.0001328079 0.006743712 0.007204427 0.009871578
000010 e6 b5 30 3b 99 57 bb bb ad 46 40 bb b0 a0 5a bb
       0.0026963889 -0.0057172296 -0.0029339 -0.0033359937
000020 cb de c1 3a 42 58 9e 3b 47 66 41 3c d7 ac 5d bb
       0.0014791129 0.0048322985 0.01180417 -0.0033824944
000030 53 d4 11 3c 0f a3 9e 3b 7f d0 07 3c de 79 c8 3b
       0.00890072 0.0048412154 0.008289455 0.0061180433
000040 be 8f c4 3a 0d 5b 18 3c ea f0 8c 3c b3 80 a7 3b
       0.0014996452 0.009299052 0.01720472 0.0051117777
000050 df 5b 14 3c 00 a7 a4 ba 93 e5 c9 ba 3f 13 64 bb
       0.009055107 -0.0012561977 -0.0015403501 -0.003480151
000060 e9 45 c0 3b 4f 25 26 bc ee 45 3b 3c 78 c2 03 3c
       0.005867709 -0.010140731 0.011430247 0.00804197
000070 5d 63 81 bb ca c4 dd bb 6c 9f b4 bb e0 8f cf 3b
       -0.0039486126 -0.006767844 -0.0055121686 0.00633429
000080 43 74 d7 bb 15 1b 46 3c 83 8a 02 3b 90 68 04 bc
       -0.006575139 0.012091418 0.0019918985 -0.00808157
000090 63 46 7b bb d2 4a cb 3b 6b 54 c0 3b 90 10 73 3b
       -0.0038341514 0.0062039876 0.0058694384 0.003708873
0000a0 72 f5 3d bb 03 d5 42 3a 23 e8 1c bc af ff 0c bc
       -0.0028985408 0.0007432254 -0.00957683 -0.008605882
0000b0 86 56 8a b9 e3 ea 81 bb 1f 71 3b bc 98 e8 63 3b
       -0.00026385876 -0.0039647683 -0.011440544 0.0034776088
0000c0 eb ba be bb 89 a3 25 3b 16 43 46 bb 60 db 72 3c
       -0.005820622 0.0025274477 -0.0030252389 0.014822811
0000d0 4b 14 ef ba 29 6b 9c 38 0b 19 86 bc 5f 6a 6b 3c
       -0.0018240301 7.45862e-05 -0.016369363 0.014368623
0000e0 1f 51 6c 3c b3 a2 26 3c 0b 41 94 bb 13 04 ad 3a
       0.014423638 0.010170626 -0.0045243553 0.0013200067
0000f0 e8 e6 44 3c e1 0b ab 3b 27 bc 48 3c 4d e6 57 bb
       0.012017943 0.005219922 0.01225189 -0.0032943666
000100 3d b4 d6 ba 43 f5 f8 3a 67 55 f5 bb bf 13 96 3a
       -0.001638062 0.0018993992 -0.0074869874 0.0011449977
000110 6d 77 fe bb 89 2e 40 3a 8c 78 38 bc 0d 33 2f bc
       -0.0077657015 0.0007331153 -0.011259209 -0.010693324
000120 37 28 fd ba 6f 32 17 3a 81 26 4c bb 7c b3 31 bb
       -0.0019314353 0.0005767708 -0.003115088 -0.0027115038
000130 cd b2 5b bb 96 b6 bf 3b a7 03 3b 3b 88 e5 1f 3c
       -0.0033523322 0.0058506234 0.0028536113 0.009759314
000140 d3 2c 25 3b 38 e8 4c 3c e1 b7 84 3a cd cc 6d 3c
       0.002520372 0.012506537 0.0010125601 0.01451416
000150 98 bf 0f 3c 85 31 21 3b a5 bc 24 bb 23 d4 86 3b
       0.008773707 0.0024596166 -0.0025136855 0.004114644
000160 a2 51 d6 3b 9b 47 72 3b d2 02 15 bb 4b 34 ad 38
       0.006540493 0.003696895 -0.0022737277 8.259023e-05
000170 f4 d3 97 3c 7d c5 5f ba af 35 4e ba a5 9c 61 3c
       0.018533684 -0.0008536203 -0.0007866276 0.013770257
000180 1f eb 02 3c f7 4b 9a 3c eb 91 92 bb 8f 44 4c bc
       0.007990628 0.018835051 -0.004472961 -0.0124675175
000190 bf a1 85 bb f5 0a 60 bc 0e 76 22 bc 2b 5a 56 bc
       -0.0040781195 -0.013674487 -0.009915842 -0.013083021
0001a0 0d be 27 3b 39 21 9c 3b 48 18 e7 3b 53 f1 81 3a
       0.0025595457 0.0047647026 0.007052455 0.0009913839
0001b0 68 a4 d0 bb d5 fd 33 3c 32 3c ad 39 9b 35 8a 3b
       -0.006367255 0.010985811 0.0003304198 0.004217816
0001c0 53 0b bc bc 18 a0 1e 3c bf 24 e0 bc 4b 23 33 bb
       -0.022954619 0.009681724 -0.027361272 -0.0027334269
0001d0 21 7b c1 bb f5 f9 73 bb 0f 96 1a ba 5b 4c 96 bb
       -0.0059045707 -0.0037227843 -0.0005896994 -0.004586739
0001e0 5b 6a 53 bc 68 c7 93 3c 7f b2 d6 bb bf a5 33 bb
       -0.012903775 0.01803942 -0.00655204 -0.0027412025
0001f0 4f a5 02 bc e5 fa 10 bc 50 b8 8d 3c 37 5f 88 bc
       -0.007973983 -0.00884888 0.017299801 -0.016646964

network_body._body_endoder.seq_layers.0.weight f4 [128, 8]
000000 a6 79 37 3e 82 89 21 3f f2 72 2f 3e c6 31 48 be
       0.17917499 0.63100445 0.17133692 -0.19550237
000010 c4 cb aa 3e a3 31 2c bd dc 0b 7d be 76 4d 75 be
       0.33358586 -0.042039525 -0.24711555 -0.2395533
000020 65 c4 e8 3e 72 6b 8e 3e f6 71 0b bf 3a ec 89 be
       0.45462337 0.2781635 -0.54470766 -0.2693804
000030 8f c2 10 3f 98 96 9a bc 87 9f 44 be 8d 1c 85 bd
       0.5654687 -0.018870637 -0.1920148 -0.06499586
000040 d1 ab c8 be 26 41 0b 3e d5 8f fb bc 4e f5 13 be
       -0.39193586 0.13599071 -0.030708233 -0.14449045
000050 3b c5 7f be 34 80 e6 3e c4 e0 a4 be 49 a0 ee 3e
       -0.24977581 0.45019686 -0.32202733 0.46606663
000060 99 39 2e be e7 c6 3c be ee 4b 29 3f b1 17 c2 be
       -0.1701416 -0.1843525 0.66131485 -0.379087
000070 e5 3c 2c be e3 f9 00 be 06 98 b7 be c1 bf d5 3e
       -0.16820104 -0.12595324 -0.35858172 0.4174786
000080 f6 5b 8e be f4 d7 14 be 9e c2 07 3f 8e fc bb 3e
       -0.27804536 -0.14535505 0.5303134 0.3671612
000090 35 7d 86 3e 03 48 d5 bd 4a 44 a3 3e 7f ca 80 be
       0.262674 -0.10414126 0.31888038 -0.25154492
0000a0 fe ef 05 3f fd 21 29 3f 9d 13 34 3e 45 bc a3 3e
       0.52319324 0.66067487 0.17585607 0.31979576
0000b0 91 df f5 3c 27 0e 10 3f ce f5 9c 3c 1f 33 af be
       0.030013831 0.56271595 0.019160178 -0.3421869
0000c0 3d 49 e4 3d f9 d9 e7 be 93 db bf 3e 37 55 88 3d
       0.111467816 -0.45283487 0.3747221 0.066568784
0000d0 c9 1a 2b bc 9d cd e5 3d 3d ba c5 3d c2 d9 66 3e
       -0.010443398 0.11220858 0.09654663 0.22544006
0000e0 02 5b 03 3f 2d e5 88 be b0 6d 13 3e 7e 6b 62 be
       0.5131074 -0.26737347 0.14397311 -0.22111318
0000f0 9c 75 92 be 1e 97 ae 3d b1 79 43 3c c0 52 7a bb
       -0.28605354 0.08524917 0.011930869 -0.0038196295
000100 c8 57 0b 3f 50 42 6c be 81 a2 90 be 78 13 d2 bd
       0.5443082 -0.23072171 -0.2824898 -0.102576196
000110 1b c4 9c be eb bf df bc 3d 6a 82 be 5a fc f1 bd
       -0.30618367 -0.027313193 -0.25471678 -0.1181571
000120 00 79 f5 3e bc 1b 56 3e a4 81 54 3d d7 13 e6 be
       0.47943878 0.20909017 0.051881447 -0.44937012
000130 3b 4c 17 bd 0e 00 2e 3d 98 31 82 bd d3 50 ac 3e
       -0.036937933 0.04248052 -0.063571155 0.33655414
000140 d0 05 f2 3e 16 89 f5 be ac 29 32 be 3d 20 38 3d
       0.4727006 -0.4795615 -0.17398709 0.04495262
000150 e3 c4 39 3f a0 cf 2e 3f aa 4c 19 3f 99 1a 67 3e
       0.7256605 0.6828556 0.59882605 0.2256874
000160 52 74 fb be 24 61 74 be ad ea 4a 3f 20 44 ce be
       -0.49112183 -0.23865181 0.79264337 -0.4028635
000170 af 3b 44 3d 5c 79 b0 be 97 86 c3 bc 10 2c bf bd
       0.04790848 -0.3446759 -0.023867888 -0.09334576
000180 9c ec 74 3e 3d 04 03 be df ac 14 bf 63 fb 31 3f
       0.23918384 -0.12794586 -0.5807628 0.6952421
000190 d8 42 65 3e c5 6c a2 3e 0e 2d 6f 3e dd d4 86 3d
       0.2238878 0.3172361 0.23357031 0.06583569
0001a0 f4 27 a4 3e 31 4f 50 bf ec 94 99 3e d2 45 a5 be
       0.32061732 -0.81370836 0.2999643 -0.3227983
0001b0 64 5e 3b bf 34 9f ab bd 62 d4 08 3e 83 a4 47 3e
       -0.73190904 -0.08379975 0.13362268 0.1949635
0001c0 ee 18 42 3e d7 d0 b3 bd e9 bc 51 3d f7 5e d3 3d
       0.18954822 -0.087800674 0.05120555 0.103208475
0001d0 ef 2b 1a be 7c aa 91 3b 54 1d a6 3e e8 31 c5 3d
       -0.15055822 0.004445372 0.3244425 0.096286595
0001e0 6d 74 8f 3e a7 b0 6b 3e 89 99 06 be 5b 6a d6 3c
       0.28018513 0.23016606 -0.13144507 0.026173761
0001f0 65 58 72 bd 20 b1 2a 3f af a7 85 bd 05 24 66 3e
       -0.05916633 0.6667652 -0.06526124 0.22474678
000200 54 9e 57 be df e5 34 3d 43 f1 28 be 92 cf b8 bd
       -0.21056491 0.044164535 -0.16498284 -0.09023966
000210 38 82 f6 be bb a7 79 be d2 54 90 bc 6a 28 0d bd
       -0.48146224 -0.2438039 -0.01761857 -0.03446237
000220 2e 72 a7 3e 85 93 08 3d 85 e1 58 be 95 99 e2 3e
       0.327043 0.03334381 -0.21179779 0.442578
000230 d0 9f 35 be 5b 84 ce 3e 34 e2 9f be 8b dc a5 be
       -0.17736745 0.40335354 -0.31227267 -0.32394823
000240 72 56 20 be 6d b9 0a be f4 1d 29 3f e2 8e d3 be
       -0.15657976 -0.13547297 0.6606133 -0.41319948
000250 41 42 92 3e e7 a4 94 be 11 a7 25 3e 65 cf af be
       0.28566173 -0.2903206 0.16177012 -0.34337917
000260 b3 72 df be 3d 21 c8 3e 69 d1 06 be d5 5e d8 3d
       -0.43642196 0.3908786 -0.13165821 0.10564963
000270 5f dd ec 3c 4e 3a 8e 3d e4 8f 5b 3d 5c 70 5d 3e
       0.028914152 0.069447145 0.05360402 0.21624893
000280 22 e6 45 3f 69 d7 0a bf d0 03 97 3d d7 f3 8e 3e
       0.7730428 -0.5423494 0.07373774 0.2792041
000290 2e ec 8c 3e bc d4 f6 3d 82 6e dd 3e ec 13 f8 3e
       0.2752394 0.120522946 0.43248373 0.484527
0002a0 3c 2a 62 bf 52 de 1a bf 20 31 23 bd 75 ba 7c 3d
       -0.88345695 -0.60495484 -0.03984177 0.061701257
0002b0 83 ec 26 3f 31 4b e5 3e 6e db 33 3f aa b9 91 be
       0.6520464 0.4478393 0.702567 -0.28461963
0002c0 54 d8 a6 3e a7 b6 8a be 7c 6b 0f be 8d b3 0c be
       0.3258692 -0.27092478 -0.14005846 -0.13740368
0002d0 a4 94 00 bf 29 a9 86 be 46 32 26 bc b8 f4 ff be
       -0.5022681 -0.26300934 -0.010143822 -0.49991393
0002e0 8d a3 60 3d 5d b9 17 3d f3 65 39 be b8 f7 91 be
       0.054843474 0.03704201 -0.18105297 -0.28509307
0002f0 18 dc bb be 8b fe ab 3d 1c 54 3f bf fe 97 d1 3d
       -0.36691356 0.083981596 -0.74737716 0.10234068
000300 38 43 a4 bd 70 39 39 be 3e d8 46 3d a3 cb d3 3d
       -0.080206335 -0.18088317 0.04854607 0.10341575
000310 b1 f3 0d bf 40 fc 20 3e 66 37 d3 be 05 66 20 3f
       -0.5544997 0.15721226 -0.41253203 0.6265567
000320 44 67 12 3e 57 d8 07 be 83 8b c3 3e d2 b0 10 3f
       0.14297205 -0.13266121 0.38192376 0.56519806
000330 92 be 47 3f 8e e0 82 3d 53 66 88 bd eb 84 80 3e
       0.7802516 0.06390487 -0.06660142 0.25101408
000340 98 f5 10 3e 20 76 28 3e 21 bc 0e be da 4b ee 3e
       0.14156187 0.16451311 -0.13938953 0.46542245
000350 83 d8 26 bf 17 4b 21 be 64 4e e2 3e be 14 0b 3e
       -0.6517412 -0.15751301 0.44200432 0.13582131
000360 3d d4 38 3f d3 44 91 3e d4 cf db 3e 51 b7 8d 3e
       0.7219885 0.2837282 0.42931998 0.27678922
000370 31 47 e1 be 76 97 e8 be 70 18 9c be 47 44 67 be
       -0.43999627 -0.45428056 -0.30487394 -0.2258464
000380 01 76 12 be b3 94 88 be fa 49 23 3e 9e bb a4 be
       -0.14302827 -0.26675949 0.15946189 -0.3217439
000390 d7 55 b0 3e d0 32 79 bf 03 eb ae bc 28 52 ac be
       0.3444049 -0.9734316 -0.021352297 -0.3365643
0003a0 0e 43 a7 3e aa cb d2 3d e0 c8 21 3f 04 0c 9e 3d
       0.32668346 0.10292752 0.63197136 0.077171355
0003b0 d6 bc df be a5 af 14 be 10 bc bc 3e 33 66 19 3f
       -0.43698758 -0.14520128 0.3686223 0.5992157
0003c0 b7 ee bd be 72 25 7a be 24 b1 42 3e f1 f1 19 be
       -0.37096187 -0.24428347 0.19012886 -0.150337
0003d0 1d 8f 7d be ac ad a8 3e 2b 32 fe 3e 5e d7 a2 3e
       -0.24761625 0.32945 0.4964765 0.31804937
0003e0 a0 b1 31 be 76 4a de be 0a 35 60 bf 1d ec b3 be
       -0.17352915 -0.43416184 -0.8758093 -0.35141078
0003f0 50 d6 03 3d f9 fd 89 3c 2a b0 0b 3e 55 48 03 be
       0.032186806 0.016844736 0.1364142 -0.12820561

network_body._body_endoder.seq_layers.0.bias f4 [128]
000000 00 00 00 00 00 00 00 00 00 00 00 00 00 00 00 00
       0.0 0.0 0.0 0.0
000010 00 00 00 00 00 00 00 00 00 00 00 00 00 00 00 00
       0.0 0.0 0.0 0.0
000020 00 00 00 00 00 00 00 00 00 00 00 00 00 00 00 00
       0.0 0.0 0.0 0.0
000030 00 00 00 00 00 00 00 00 00 00 00 00 00 00 00 00
       0.0 0.0 0.0 0.0
000040 00 00 00 00 00 00 00 00 00 00 00 00 00 00 00 00
       0.0 0.0 0.0 0.0
000050 00 00 00 00 00 00 00 00 00 00 00 00 00 00 00 00
       0.0 0.0 0.0 0.0
000060 00 00 00 00 00 00 00 00 00 00 00 00 00 00 00 00
       0.0 0.0 0.0 0.0
000070 00 00 00 00 00 00 00 00 00 00 00 00 00 00 00 00
       0.0 0.0 0.0 0.0
000080 00 00 00 00 00 00 00 00 00 00 00 00 00 00 00 00
       0.0 0.0 0.0 0.0
000090 00 00 00 00 00 00 00 00 00 00 00 00 00 00 00 00
       0.0 0.0 0.0 0.0
0000a0 00 00 00 00 00 00 00 00 00 00 00 00 00 00 00 00
       0.0 0.0 0.0 0.0
0000b0 00 00 00 00 00 00 00 00 00 00 00 00 00 00 00 00
       0.0 0.0 0.0 0.0
0000c0 00 00 00 00 00 00 00 00 00 00 00 00 00 00 00 00
       0.0 0.0 0.0 0.0
0000d0 00 00 00 00 00 00 00 00 00 00 00 00 00 00 00 00
       0.0 0.0 0.0 0.0
0000e0 00 00 00 00 00 00 00 00 00 00 00 00 00 00 00 00
       0.0 0.0 0.0 0.0
0000f0 00 00 00 00 00 00 00 00 00 00 00 00 00 00 00 00
       0.0 0.0 0.0 0.0
000100 00 00 00 00 00 00 00 00 00 00 00 00 00 00 00 00
       0.0 0.0 0.0 0.0
000110 00 00 00 00 00 00 00 00 00 00 00 00 00 00 00 00
       0.0 0.0 0.0 0.0
000120 00 00 00 00 00 00 00 00 00 00 00 00 00 00 00 00
       0.0 0.0 0.0 0.0
000130 00 00 00 00 00 00 00 00 00 00 00 00 00 00 00 00
       0.0 0.0 0.0 0.0
000140 00 00 00 00 00 00 00 00 00 00 00 00 00 00 00 00
       0.0 0.0 0.0 0.0
000150 00 00 00 00 00 00 00 00 00 00 00 00 00 00 00 00
       0.0 0.0 0.0 0.0
000160 00 00 00 00 00 00 00 00 00 00 00 00 00 00 00 00
       0.0 0.0 0.0 0.0
000170 00 00 00 00 00 00 00 00 00 00 00 00 00 00 00 00
       0.0 0.0 0.0 0.0
000180 00 00 00 00 00 00 00 00 00 00 00 00 00 00 00 00
       0.0 0.0 0.0 0.0
000190 00 00 00 00 00 00 00 00 00 00 00 00 00 00 00 00
       0.0 0.0 0.0 0.0
0001a0 00 00 00 00 00 00 00 00 00 00 00 00 00 00 00 00
       0.0 0.0 0.0 0.0
0001b0 00 00 00 00 00 00 00 00 00 00 00 00 00 00 00 00
       0.0 0.0 0.0 0.0
0001c0 00 00 00 00 00 00 00 00 00 00 00 00 00 00 00 00
       0.0 0.0 0.0 0.0
0001d0 00 00 00 00 00 00 00 00 00 00 00 00 00 00 00 00
       0.0 0.0 0.0 0.0
0001e0 00 00 00 00 00 00 00 00 00 00 00 00 00 00 00 00
       0.0 0.0 0.0 0.0
0001f0 00 00 00 00 00 00 00 00 00 00 00 00 00 00 00 00
       0.0 0.0 0.0 0.0

network_body._body_endoder.seq_layers.2.weight f4 [128, 128]
000000 ad 9e 51 3d 34 24 d6 bd d6 c9 a6 bc 63 bd dc 3b
       0.051176716 -0.10456124 -0.020359915 0.006736444
000010 b9 59 aa bd 6c 2d 5e be f2 9a 07 bd eb bf f8 bd
       -0.083178945 -0.21697015 -0.03310675 -0.121459804
000020 2b 77 b0 3d ae 03 90 bd fc 27 83 3d a3 c1 e4 3d
       0.086164795 -0.07031952 0.06404111 0.11169746
000030 78 cf 07 3d be cb cb 3d 1a 5d 41 be a8 c6 2d bd
       0.033156842 0.0995097 -0.18883172 -0.04242578
000040 82 1a e8 3d 91 b9 1c 3b d3 e6 2f be 95 a4 0b be
       0.11333181 0.0023914317 -0.17177896 -0.13637002
000050 4b 3d 18 be 6c 6b fb bc 41 e6 27 3d 6c 36 6f bd
       -0.14867131 -0.030690871 0.04099107 -0.05840151
000060 66 c4 85 bd 1d 31 a6 3d f2 05 ea bd 3b b9 73 3d
       -0.06531601 0.08114836 -0.11426915 0.05950282
000070 cb 6f cb 3d 8f f0 6b bd c4 09 2e 3e c2 a9 f9 bd
       0.09933432 -0.05760246 0.16995913 -0.12190582
000080 e1 4e a2 bb f7 3b 2c ba ac 93 1c be 04 83 02 3e
       -0.0049532508 -0.0006570215 -0.15290707 0.12745291
000090 d9 14 37 bd d4 dd 07 3d 76 4f c7 3d a9 4e 8c 3d
       -0.044697616 0.033170536 0.09731953 0.06850941
0000a0 fb d9 58 bd fb 95 1e be 4b 78 3f 3c 2c ca c6 bc
       -0.052942257 -0.154869 0.011686395 -0.024266325
0000b0 4c 84 86 bd 5f 6d 29 bd f6 8e 25 be 0f 72 c5 3d
       -0.065682024 -0.04136407 -0.16167817 0.096408956
0000c0 17 b5 35 3c 8b 9c eb 3d 8d 46 53 3d e9 0c b3 3d
       0.011090538 0.115044676 0.051580954 0.08742697
0000d0 b3 b9 e9 bd 05 84 20 3d 13 93 92 3d 3f c1 9c 3c
       -0.114123724 0.039188404 0.071569584 0.019135116
0000e0 e1 b9 b0 3d 87 b1 42 bc c1 9b 87 be 08 02 0d 3c
       0.086292036 -0.011883146 -0.26486018 0.008606441
0000f0 96 42 1b bd 7e 0a 3a 3c a6 62 05 bd cb 0a ac 3d
       -0.0379053 0.011355041 -0.03256478 0.08400496
000100 f7 81 f4 bc 01 d3 d8 bd 1a b4 4a 3c 34 31 b4 3d
       -0.029847128 -0.10587121 0.012372041 0.08798447
000110 bb 5d 8a 3e 64 a8 ec bb b8 a9 a9 bc 8e f6 b7 bc
       0.27024636 -0.007222222 -0.020710811 -0.022456434
000120 23 5e c1 bd 54 64 55 3d a9 71 04 3c 4d 11 f2 bd
       -0.09441783 0.052097633 0.008083739 -0.11819706
000130 94 e3 50 be e4 18 96 3c 8f 65 96 bd 76 32 50 bd
       -0.20399314 0.018322416 -0.073435895 -0.050829373
000140 ba bf 21 bd ad 97 6b 3c b8 ec 87 3d b0 cb a3 3c
       -0.039489485 0.014379424 0.066369474 0.019994587
000150 7a f7 8f 3d de 0c 00 3e 4a 46 c9 bb 00 9e 7a 3b
       0.07029624 0.12504908 -0.0061424123 0.0038241148
000160 cc 55 f6 3c 64 48 96 bc 03 9c 06 be d1 48 bc bd
       0.030070208 -0.018345065 -0.13145451 -0.09193576
000170 d9 f0 75 3d 7f 8c 47 be 7f 03 92 bd ab e9 a0 bd
       0.060044143 -0.19487189 -0.07129573 -0.07857069
000180 c7 6d 80 bd b0 21 71 3d 3c ec d9 3b 65 b3 b7 3d
       -0.06270938 0.058870018 0.006650476 0.08969764
000190 34 4d d3 3c 29 3a 20 3e 4c 7c 4b 3d f9 11 91 3d
       0.02579365 0.15647186 0.049679086 0.07083506
0001a0 b7 3b 28 3c 83 8e bb bb 08 2b ef bd 16 ae 86 bc
       0.010268143 -0.005723776 -0.116781294 -0.016440433
0001b0 f4 59 06 3e f6 05 94 3d 93 80 ac bd 82 1d e3 3c
       0.13120252 0.072276995 -0.08422961 0.027724031
0001c0 b4 f0 b3 3d cb 30 1b 3d fd 7f 62 3d 33 b7 a9 3d
       0.08786145 0.03788833 0.05529784 0.082868956
0001d0 40 c5 3b 3d b2 3a 97 3d 60 ff a1 3d ee d3 bf 3d
       0.04584241 0.07384242 0.07910037 0.09366594
0001e0 4a d0 88 3c 7d ec b1 3d 9c 18 25 bc 05 e8 3c 3d
       0.016700882 0.08687685 -0.010076668 0.04611971
0001f0 10 ef f2 bd 78 f6 e9 bc 67 99 cd 3d 9e e6 b4 bc
       -0.11862004 -0.028559908 0.10039025 -0.022082623
000200 e4 33 04 3e 83 47 c8 bc 97 68 41 bd 75 ef 75 3c
       0.1291042 -0.024448162 -0.047218885 0.015010704
000210 3e 47 07 3e 2b b9 ca 3c 03 20 a0 bd 1f 12 05 bd
       0.1321077 0.024746498 -0.07818606 -0.032487985
000220 11 58 82 bc 0d 2b 37 3d 53 a3 8f bd 0b 6a ca bd
       -0.015911134 0.04471879 -0.070135735 -0.09883507
000230 95 ee 31 bd 56 50 8d 3d 0c 5a ae bd 85 a6 4d 3d
       -0.04344042 0.069000885 -0.08513269 0.050207634
000240 0e 20 c6 3b 21 96 65 bd 7d b8 f2 3c 04 f9 1f 3c
       0.0060463017 -0.056051377 0.029628986 0.00976396
000250 ae e8 e6 bd 14 22 ae bd ab a6 c9 3d 52 24 4b bd
       -0.11274849 -0.08502594 0.098462425 -0.049595185
000260 7d 67 67 3e 41 6b c8 3d a4 c1 0d 3e 2b b1 ed bd
       0.22598071 0.09786082 0.138434 -0.11606058
000270 99 96 28 bd 78 31 39 3e 82 ed 48 3e 8d 58 24 bb
       -0.041159246 0.18085277 0.19621852 -0.0025077194
000280 90 67 97 bc f3 a1 43 bd d6 17 72 bc d3 6a e6 3d
       -0.018482 -0.04776187 -0.014776191 0.11250844
000290 22 d0 09 be eb 29 b9 3d 1b 12 42 3c 29 2c 92 bd
       -0.13458303 0.09041198 0.011845137 -0.07137329
0002a0 95 09 28 be f8 c0 24 be 2e f5 68 3c 31 68 08 bd
       -0.16409905 -0.16089237 0.014218612 -0.03330249
0002b0 91 55 5d 3e 5f 4f 07 bd 3b 46 6f bc 11 2b b1 3d
       0.21614672 -0.03303468 -0.014604147 0.086507924
0002c0 b8 31 f0 bd 65 2b 5f 3d ac 95 ae bc c7 38 7d bd
       -0.11728233 0.054484744 -0.021311603 -0.061821725
0002d0 f9 31 f8 bc b2 76 bb 3c 2c ca a8 3d fc bd b3 bb
       -0.030297266 0.022883747 0.08241686 -0.0054852944
0002e0 e5 e8 8f 3d ff 9c 60 3d 86 5c 13 be 15 84 ec bc
       0.07026843 0.054837223 -0.14390764 -0.028871575
0002f0 12 76 cd 3c ec a2 28 3e 83 0c 47 ba ac 7d c5 bd
       0.025080714 0.164684 -0.0007593112 -0.09643111
000300 83 52 08 3e aa 5e 63 bc 3d 06 81 bd 17 e6 6d 3c
       0.13312726 -0.01387755 -0.06300018 0.01452019
000310 1c 13 e6 3c bc 9b 9d bd 09 8a 5d 3d f9 03 0d 3e
       0.028085284 -0.076957196 0.05408672 0.13771047
000320 89 e1 9a bd d8 f5 c4 bc 46 09 09 3c c0 f3 e8 3d
       -0.07562549 -0.024043009 0.008364027 0.113746166
000330 02 74 f1 bd 6b 89 05 3c a4 5a f0 3c b4 f6 a3 3c
       -0.11789705 0.008150439 0.029340096 0.020015098
000340 a2 1a d2 bd e3 ac 37 bd 4e 18 67 bd 1e 7c 7e bd
       -0.10258986 -0.044842612 -0.056419663 -0.062130086
000350 1a b0 1a be 34 14 03 be 5b 1f 45 bd c9 88 d4 bd
       -0.1510624 -0.12800676 -0.048125606 -0.10377652
000360 ed 9b 59 3e 08 62 81 bd 44 50 a3 bd 4c 62 b5 bd
       0.21250887 -0.06317526 -0.07974294 -0.08856639
000370 5b d2 39 3c b5 22 21 3d 71 f8 04 3d 52 85 9c 3b
       0.011341657 0.03933974 0.032463495 0.004776635
000380 aa bc b4 bc 92 02 53 3a 49 fc 00 3c cc 2b ab bd
       -0.022062618 0.0008049394 0.0078726495 -0.08357963
000390 93 0c 83 3d de 4a 9c bd a2 35 11 3d 08 e9 0a bc
       0.06398883 -0.07631467 0.03545154 -0.008478411
0003a0 1a e2 98 3c 48 85 ce 3c b9 d2 38 bd c5 dd 6d bd
       0.018662501 0.025210038 -0.045122836 -0.058072824
0003b0 43 ca b7 3b cd 67 3c bb ad af 48 be bd ae 80 3d
       0.0056088283 -0.0028748394 -0.19598265 0.06283329
0003c0 8a cc 55 3d b3 6c b6 3d 29 35 1d bd 26 8f 40 be
       0.052197017 0.089074515 -0.038380776 -0.18804607
0003d0 55 bc cc 3b 09 22 ab 3d a4 00 58 3e 08 b0 0e 3e
       0.006248037 0.08356101 0.21093994 0.13934338
0003e0 37 e9 40 ba ff 51 2b bd e9 d4 d6 3d 34 76 17 bc
       -0.00073589705 -0.041826244 0.10489828 -0.00924449
0003f0 20 e0 1e bd 34 6c cb 3d 4c ed d9 3d d3 d7 87 bd
       -0.03878796 0.099327475 0.10640964 -0.06632962

network_body._body_endoder.seq_layers.2.bias f4 [128]
000000 00 00 00 00 00 00 00 00 00 00 00 00 00 00 00 00
       0.0 0.0 0.0 0.0
000010 00 00 00 00 00 00 00 00 00 00 00 00 00 00 00 00
       0.0 0.0 0.0 0.0
000020 00 00 00 00 00 00 00 00 00 00 00 00 00 00 00 00
       0.0 0.0 0.0 0.0
000030 00 00 00 00 00 00 00 00 00 00 00 00 00 00 00 00
       0.0 0.0 0.0 0.0
000040 00 00 00 00 00 00 00 00 00 00 00 00 00 00 00 00
       0.0 0.0 0.0 0.0
000050 00 00 00 00 00 00 00 00 00 00 00 00 00 00 00 00
       0.0 0.0 0.0 0.0
000060 00 00 00 00 00 00 00 00 00 00 00 00 00 00 00 00
       0.0 0.0 0.0 0.0
000070 00 00 00 00 00 00 00 00 00 00 00 00 00 00 00 00
       0.0 0.0 0.0 0.0
000080 00 00 00 00 00 00 00 00 00 00 00 00 00 00 00 00
       0.0 0.0 0.0 0.0
000090 00 00 00 00 00 00 00 00 00 00 00 00 00 00 00 00
       0.0 0.0 0.0 0.0
0000a0 00 00 00 00 00 00 00 00 00 00 00 00 00 00 00 00
       0.0 0.0 0.0 0.0
0000b0 00 00 00 00 00 00 00 00 00 00 00 00 00 00 00 00
       0.0 0.0 0.0 0.0
0000c0 00 00 00 00 00 00 00 00 00 00 00 00 00 00 00 00
       0.0 0.0 0.0 0.0
0000d0 00 00 00 00 00 00 00 00 00 00 00 00 00 00 00 00
       0.0 0.0 0.0 0.0
0000e0 00 00 00 00 00 00 00 00 00 00 00 00 00 00 00 00
       0.0 0.0 0.0 0.0
0000f0 00 00 00 00 00 00 00 00 00 00 00 00 00 00 00 00
       0.0 0.0 0.0 0.0
000100 00 00 00 00 00 00 00 00 00 00 00 00 00 00 00 00
       0.0 0.0 0.0 0.0
000110 00 00 00 00 00 00 00 00 00 00 00 00 00 00 00 00
       0.0 0.0 0.0 0.0
000120 00 00 00 00 00 00 00 00 00 00 00 00 00 00 00 00
       0.0 0.0 0.0 0.0
000130 00 00 00 00 00 00 00 00 00 00 00 00 00 00 00 00
       0.0 0.0 0.0 0.0
000140 00 00 00 00 00 00 00 00 00 00 00 00 00 00 00 00
       0.0 0.0 0.0 0.0
000150 00 00 00 00 00 00 00 00 00 00 00 00 00 00 00 00
       0.0 0.0 0.0 0.0
000160 00 00 00 00 00 00 00 00 00 00 00 00 00 00 00 00
       0.0 0.0 0.0 0.0
000170 00 00 00 00 00 00 00 00 00 00 00 00 00 00 00 00
       0.0 0.0 0.0 0.0
000180 00 00 00 00 00 00 00 00 00 00 00 00 00 00 00 00
       0.0 0.0 0.0 0.0
000190 00 00 00 00 00 00 00 00 00 00 00 00 00 00 00 00
       0.0 0.0 0.0 0.0
0001a0 00 00 00 00 00 00 00 00 00 00 00 00 00 00 00 00
       0.0 0.0 0.0 0.0
0001b0 00 00 00 00 00 00 00 00 00 00 00 00 00 00 00 00
       0.0 0.0 0.0 0.0
0001c0 00 00 00 00 00 00 00 00 00 00 00 00 00 00 00 00
       0.0 0.0 0.0 0.0
0001d0 00 00 00 00 00 00 00 00 00 00 00 00 00 00 00 00
       0.0 0.0 0.0 0.0
0001e0 00 00 00 00 00 00 00 00 00 00 00 00 00 00 00 00
       0.0 0.0 0.0 0.0
0001f0 00 00 00 00 00 00 00 00 00 00 00 00 00 00 00 00
       0.0 0.0 0.0 0.0
