MLATest/results/RollerBall/RollerBall/RollerBall-5207.onnx (onnx, 75044 bytes, 8 tensors)

action_model._continuous_distribution.log_sigma f4 [1, 2]
-0.03493921 -0.007080271
00000000: 6b1c 0fbd 9e01 e8bb

action_model._continuous_distribution.mu.bias f4 [2]
0.003008569 -0.011371148
00000000: 692b 453b 0d4e 3abc

action_model._continuous_distribution.mu.weight f4 [2, 128]
-0.00897221 0.022769071 0.023210144 0.022987802 -0.008702113 0.03716614 0.019396052 0.010737814
-0.047037333 0.024482522 0.004185957 -0.022475258 -0.027312534 -0.003761214 0.038812038 -0.022960138
-0.034414627 -0.05331539 -0.003783947 -0.016430466 0.017205186 -0.0072475923 0.021667428 -0.025260936
9.208862e-05 -0.0037621206 -0.004934687 -0.0155386 -0.017406859 0.02546171 -0.022334997 0.010567724
-0.013830359 -0.0452448 -0.0017360683 -0.0036191212 0.017909022 -0.012939516 0.0011465497 -0.024964863
-0.010106482 0.027328702 -0.002611653 0.042166054 0.025296489 -0.0121674035 -0.011508808 0.00032026693
-0.012865647 -0.03630432 0.0032594549 -0.022128923 0.0005343293 0.00038311793 -0.022073802 -0.0013744968
0.022647668 0.0030179282 0.045221183 -0.04364234 0.0454598 -0.023670668 -0.028537031 -0.021886384
0.012104284 -0.025632259 -0.017278384 0.04897582 0.031535134 -0.048538197 -0.010117339 -0.027330909
-0.047846556 0.030485634 -0.011878482 0.023587247 -8.8735185e-05 0.0097008115 0.010207326 -0.016211485
-0.0036950784 0.034043416 -0.006005964 0.03394512 0.013360716 -0.034010824 -0.0005290963 0.0006607244
-0.02289198 -0.024437744 -0.008459716 0.044992786 -0.022907881 -0.008835806 -0.006483127 -0.045153197
-0.014282652 -0.033854242 -0.0066541904 0.008056054 0.013224024 -0.0060533723 -0.051989697 -0.0073437737
-0.035945255 0.035234448 0.0028892395 0.022292638 -0.027584802 0.022339078 -0.02826127 -0.014418748
0.00095463847 -0.011743625 -0.04020906 -0.004550925 0.0019515982 -0.009621793 0.022202134 0.029680861
-0.031932265 0.022929378 -0.015820948 -0.031064253 -0.024149204 0.032016777 -0.026624305 -0.029379515
0.0219696 0.008850506 -0.024578206 -0.014635844 -0.02010642 -0.006702002 0.017635394 0.019621236
-0.0064154784 0.005797818 -0.00033177857 0.006886172 -0.015166346 0.016690103 -0.0078038317 -0.020898059
0.018377861 -0.0135417245 0.029830635 0.0152025325 0.0030465259 -0.040519055 0.019187588 0.022552444
0.0051199994 -0.017813222 0.029121056 -0.014804258 0.011794205 0.018331364 0.050919566 0.01672584
-0.0006511419 0.0016405071 -0.01422931 0.021699568 0.022382755 -0.00671182 0.015246648 0.004463665
0.018482704 -0.0044570696 -0.00918341 -0.011826513 -0.012363872 0.02337019 0.005643079 -0.013056113
0.013268144 -0.014430689 0.033233307 0.0069902996 0.006711537 0.007936538 0.004478814 0.0037973113
-0.0108610485 0.037002947 0.010674601 0.016339276 -0.05817815 -0.0067771166 -0.007374765 0.028039325
0.011444001 -0.0020893058 0.0011124582 0.023618048 -0.0014856805 0.019423075 0.018656168 0.010338735
0.0174813 0.009357226 0.012967412 -0.008051751 0.011321059 0.05157747 0.023690639 0.008859113
-0.02148286 -0.024218448 -0.008994837 -0.0052027386 -0.008762585 0.008750611 0.0074410085 0.021754485
0.00741216 -0.020118155 -0.008573113 -0.056858864 -0.0118851885 0.05393774 0.019927828 -0.027801901
0.0077357357 -0.024186483 0.011262266 0.023913946 -0.009713812 0.010372131 0.028274091 0.014776073
-0.010090998 -0.031472474 0.018619776 0.009302497 -0.042864528 -0.0047356756 -0.03534593 -0.004996338
0.014569656 -0.019208707 -0.0009157506 0.01778767 0.028640596 0.01512489 0.042333726 0.011279568
-0.0103453165 0.03542909 -0.026633633 0.014365663 0.05813435 -0.023687229 -0.016990667 -0.029679766
00000000: 2d00 13bc 3486 ba3c 3323 be3c ea50 bc3c
00000010: 4f93 0ebc 863b 183d 78e4 9e3c a8ed 2f3c
00000020: 38aa 40bd 928f c83c 5a2a 893b 081e b8bc
00000030: 89be dfbc b37e 76bb 5ff9 1e3d e616 bcbc
00000040: 5af6 0cbd 3d61 5abd 19fc 77bb 2f99 86bc
00000050: e4f1 8c3c 367d edbb e47f b13c 06f0 cebc
00000060: b41f c138 e98d 76bb 28b3 a1bb 9d95 7ebc
00000070: d498 8ebc 1395 d03c e2f7 b6bc 3f24 2d3c
00000080: bb98 62bc 9d52 39bd c98c e3ba c72e 6dbb
00000090: f1b5 923c 4400 54bc d347 963a 1d83 ccbc
000000a0: a895 25bc 71e0 df3c 4428 2bbb 50b6 2c3d
000000b0: 953a cf3c ca59 47bc 708f 3cbc 80e9 a739
000000c0: 6fca 52bc d7b3 14bd 949c 553b b747 b5bc
000000d0: 3b12 0c3a 38dd c839 1ed4 b4bc 7628 b4ba
000000e0: 9a87 b93c 6fc8 453b d939 393d 4fc2 32bd
000000f0: 0e34 3a3d fde8 c1bc 7ec6 e9bc 134b b3bc
00000100: 0c51 463c befa d1bc 668b 8dbc df9a 483d
00000110: fc2a 013d fdcf 46bd 32c3 25bc 12e5 dfbc
00000120: c0fa 43bd 02bd f93c f79d 42bc 0b3a c13c
00000130: 5717 bab8 27f0 1e3c a13c 273c f3cd 84bc
00000140: 2129 72bb 1c71 0b3d adcd c4bb 0a0a 0b3d
00000150: e8e6 5a3c ef4e 0bbd 0db3 0aba 7734 2d3a
00000160: f687 bbbc aa31 c8bc 9f9a 0abc 5b4a 383d
00000170: 4fa9 bbbc 0ec4 10bc 6970 d4bb 8ff2 38bd
00000180: c901 6abc bfaa 0abd 650b dabb 8afd 033c
00000190: 94a9 583c 5e5b c6bb 26f3 54bd 0aa4 f0bb
000001a0: 553b 13bd ff51 103d 6559 3d3b 0d9f b63c
000001b0: 86f9 e1bc 7100 b73c 2e84 e7bc 9d3c 6cbc
000001c0: b440 7a3a 5568 40bc 41b2 24bd ed1f 95bb
000001d0: c5cc ff3a baa4 1dbc 40e1 b53c 4725 f33c
000001e0: 68cb 02bd 64d6 bb3c ef9a 81bc 767a febc
000001f0: 8dd4 c5bc 0624 033d 371b dabc 4fad f0bc
00000200: 97f9 b33c b601 113c 3c58 c9bc 2ecb 6fbc
00000210: 38b6 a4bc 789c dbbb 1a78 903c b7bc a03c
00000220: ef38 d2bb 9ffb bd3b 91f2 adb9 66a5 e13b
00000230: 447c 78bc afb9 883c 49b7 ffbb 6832 abbc
00000240: 2b8d 963c 1cde 5dbc 605f f43c 0b14 793c
00000250: 39a8 473b 4ff7 25bd 4a2f 9d3c e7bf b83c
00000260: abc5 a73b 09ed 91bc 488f ee3c 8f8d 72bc
00000270: 7b3c 413c a82b 963c 0991 503d a104 893c
00000280: 65b1 2aba 4906 d73a 0d22 69bc 4bc3 b13c
00000290: 0a5c b73c d4ee dbbb 14cd 793c f043 923b
000002a0: 0a69 973c 9c0c 92bb 0376 16bc fec3 41bc
000002b0: d691 4abc d772 bf3c 94e9 b83b 4fe9 55bc
000002c0: a162 593c b26e 6cbc a61f 083d e20e e53b
000002d0: 74ec db3b 4108 023c 04c3 923b 50dc 783b
000002e0: 8af2 31bc 6790 173d 86e4 2e3c f2d9 853c
000002f0: 364c 6ebd 9312 debb 03a8 f1bb bab2 e53c
00000300: 9f7f 3b3c bcec 08bb e7cf 913a a37a c13c
00000310: 2abb c2ba 241d 9f3c d2d4 983c cc63 293c
00000320: f134 8f3c 0d4f 193c 4575 543c 7eeb 03bc
00000330: f77b 393c e642 533d df12 c23c d025 113c
00000340: d3fc afbc c465 c6bc 155f 13bc bc7b aabb
00000350: f290 0fbc b95e 0f3c b4d3 f33b 7636 b23c
00000360: b4e1 f23b d4ce a4bc 3e76 0cbc d7e4 68bd
00000370: 18ba 42bc d2ed 5c3d af3f a33c d0c0 e3bc
00000380: 0e7c fd3b bb22 c6bc 5e85 383c 2ee7 c33c
00000390: ae26 1fbc dfef 293c 119f e73c 5817 723c
000003a0: b754 25bc 48e9 00bd 8088 983c 8069 183c
000003b0: b792 2fbd ba2d 9bbb e5c6 10bd 52b8 a3bb
000003c0: 91b5 6e3c 945b 9dbc fc0e 70ba 73b7 913c
000003d0: af9f ea3c 63ce 773c 2166 2d3d f0cd 383c
000003e0: 677f 29bc 181e 113d c72e dabc f55d 6b3c
000003f0: 491e 6e3d b80b c2bc 0330 8bbc fb22 f3bc

action_model._discrete_distribution.branches.0.weight f4 [1, 128]
-0.0001328079 0.006743712 0.007204427 0.009871578 0.0026963889 -0.0057172296 -0.0029339 -0.0033359937
0.0014791129 0.0048322985 0.01180417 -0.0033824944 0.00890072 0.0048412154 0.008289455 0.0061180433
0.0014996452 0.009299052 0.01720472 0.0051117777 0.009055107 -0.0012561977 -0.0015403501 -0.003480151
0.005867709 -0.010140731 0.011430247 0.00804197 -0.0039486126 -0.006767844 -0.0055121686 0.00633429
-0.006575139 0.012091418 0.0019918985 -0.00808157 -0.0038341514 0.0062039876 0.0058694384 0.003708873
-0.0028985408 0.0007432254 -0.00957683 -0.008605882 -0.00026385876 -0.0039647683 -0.011440544 0.0034776088
-0.005820622 0.0025274477 -0.0030252389 0.014822811 -0.0018240301 7.45862e-05 -0.016369363 0.014368623
0.014423638 0.010170626 -0.0045243553 0.0013200067 0.012017943 0.005219922 0.01225189 -0.0032943666
-0.001638062 0.0018993992 -0.0074869874 0.0011449977 -0.0077657015 0.0007331153 -0.011259209 -0.010693324
-0.0019314353 0.0005767708 -0.003115088 -0.0027115038 -0.0033523322 0.0058506234 0.0028536113 0.009759314
0.002520372 0.012506537 0.0010125601 0.01451416 0.008773707 0.0024596166 -0.0025136855 0.004114644
0.006540493 0.003696895 -0.0022737277 8.259023e-05 0.018533684 -0.0008536203 -0.0007866276 0.013770257
0.007990628 0.018835051 -0.004472961 -0.0124675175 -0.0040781195 -0.013674487 -0.009915842 -0.013083021
0.0025595457 0.0047647026 0.007052455 0.0009913839 -0.006367255 0.010985811 0.0003304198 0.004217816
-0.022954619 0.009681724 -0.027361272 -0.0027334269 -0.0059045707 -0.0037227843 -0.0005896994 -0.004586739
-0.012903775 0.01803942 -0.00655204 -0.0027412025 -0.007973983 -0.00884888 0.017299801 -0.016646964
00000000: 5942 0bb9 5bfa dc3b 1d13 ec3b 66bc 213c
00000010: e6b5 303b 9957 bbbb ad46 40bb b0a0 5abb
00000020: cbde c13a 4258 9e3b 4766 413c d7ac 5dbb
00000030: 53d4 113c 0fa3 9e3b 7fd0 073c de79 c83b
00000040: be8f c43a 0d5b 183c eaf0 8c3c b380 a73b
00000050: df5b 143c 00a7 a4ba 93e5 c9ba 3f13 64bb
00000060: e945 c03b 4f25 26bc ee45 3b3c 78c2 033c
00000070: 5d63 81bb cac4 ddbb 6c9f b4bb e08f cf3b
00000080: 4374 d7bb 151b 463c 838a 023b 9068 04bc
00000090: 6346 7bbb d24a cb3b 6b54 c03b 9010 733b
000000a0: 72f5 3dbb 03d5 423a 23e8 1cbc afff 0cbc
000000b0: 8656 8ab9 e3ea 81bb 1f71 3bbc 98e8 633b
000000c0: ebba bebb 89a3 253b 1643 46bb 60db 723c
000000d0: 4b14 efba 296b 9c38 0b19 86bc 5f6a 6b3c
000000e0: 1f51 6c3c b3a2 263c 0b41 94bb 1304 ad3a
000000f0: e8e6 443c e10b ab3b 27bc 483c 4de6 57bb
00000100: 3db4 d6ba 43f5 f83a 6755 f5bb bf13 963a
00000110: 6d77 febb 892e 403a 8c78 38bc 0d33 2fbc
00000120: 3728 fdba 6f32 173a 8126 4cbb 7cb3 31bb
00000130: cdb2 5bbb 96b6 bf3b a703 3b3b 88e5 1f3c
00000140: d32c 253b 38e8 4c3c e1b7 843a cdcc 6d3c
00000150: 98bf 0f3c 8531 213b a5bc 24bb 23d4 863b
00000160: a251 d63b 9b47 723b d202 15bb 4b34 ad38
00000170: f4d3 973c 7dc5 5fba af35 4eba a59c 613c
00000180: 1feb 023c f74b 9a3c eb91 92bb 8f44 4cbc
00000190: bfa1 85bb f50a 60bc 0e76 22bc 2b5a 56bc
000001a0: 0dbe 273b 3921 9c3b 4818 e73b 53f1 813a
000001b0: 68a4 d0bb d5fd 333c 323c ad39 9b35 8a3b
000001c0: 530b bcbc 18a0 1e3c bf24 e0bc 4b23 33bb
000001d0: 217b c1bb f5f9 73bb 0f96 1aba 5b4c 96bb
000001e0: 5b6a 53bc 68c7 933c 7fb2 d6bb bfa5 33bb
000001f0: 4fa5 02bc e5fa 10bc 50b8 8d3c 375f 88bc

network_body._body_endoder.seq_layers.0.bias f4 [128]
0.0032022423 -0.0011163396 0.019532721 -0.03032974 0.02008901 0.01145627 -0.008380872 0.016572557
-0.004109996 0.005590951 0.003855665 0.020384485 -0.014944681 -0.031417035 -0.013472976 0.00164276
-0.008698801 -0.021672605 0.023843218 -0.011257613 0.011085488 -0.010748416 -0.005557956 0.0050815893
0.008400766 0.0034101119 0.010662604 0.023900544 -0.023907473 -0.011514438 0.0022549662 -0.006601504
0.00652151 0.008547856 0.00022854959 0.002984807 -0.018795101 0.00035825433 -0.013090537 -0.033756033
-0.008946457 0.009020248 -0.008614728 -0.016446829 0.012475511 -0.02543317 0.0009234857 -0.024242027
-0.014180244 0.003771736 0.0065644514 -0.0040664375 -0.0013296677 0.021964228 0.0020970004 -0.011980267
-0.008576008 -0.012546159 1.910355e-05 0.012540476 -0.006855278 0.014752104 0.0019118732 0.021872528
-0.0068467353 0.013556725 0.0068606767 0.00929128 -0.01074188 0.008350033 0.010982043 0.003539302
1.9002528e-06 -0.013789602 -0.01688678 -0.018172823 0.02176053 0.007657897 -0.011130366 0.0044111023
-0.010396024 0.0015095687 0.008715236 0.030708872 -0.027102707 0.02455262 0.014663136 -0.013324072
0.0146805355 -0.002019538 -0.04250908 0.016174547 -0.014789146 0.006442824 0.018673804 -0.020940939
0.02628802 -0.0086253015 -0.0033845606 -0.017757045 0.0061833845 -0.0060958043 -0.028252458 0.0052767983
0.009306338 -0.012099198 0.013345367 -0.024777206 0.0376547 0.0066249077 0.007937787 0.00849507
0.0094517525 0.0106446175 -0.010323065 0.021047888 0.03139511 0.010758391 0.012260053 0.0022938089
-0.017313683 0.00036802448 -0.0029400387 0.012814178 -0.009071276 0.022543553 0.002056701 -0.014406923
00000000: b6dc 513b 2452 92ba 1603 a03c 1376 f8bc
00000010: b591 a43c 14b3 3b3c ed4f 09bc 2cc3 873c
00000020: 25ad 86bb 4c34 b73b 53af 7c3b 5dfd a63c
00000030: 89da 74bc 26af 00bd c2bd 5cbc e151 d73a
00000040: 6a85 0ebc bf8a b1bc da52 c33c da71 38bc
00000050: e89f 353c 201a 30bc 841f b6bb 7683 a63b
00000060: 5ea3 093c 2f7c 5f3b 34b2 2e3c 13cb c33c
00000070: 9bd9 c3bc 0ea7 3cbc 0ec8 133b 6e51 d8bb
00000080: 64b2 d53b 4e0c 0c3c d0a6 6f39 c09c 433b
00000090: 2ff8 99bc 15d4 bb39 b179 56bc c443 0abd
000000a0: 2994 12bc aac9 133c ca24 0dbc 80bb 86bc
000000b0: 1666 4c3c 3959 d0bc 1416 723a 3797 c6bc
000000c0: 4154 68bc 3b2f 773b 9c1a d73b c03f 85bb
000000d0: 3f48 aeba 53ee b33c d46d 093b e248 44bc
000000e0: 6282 0cbc 688e 4dbc 9040 a037 9276 4d3c
000000f0: 3da2 e0bb cfb2 713c d297 fa3a 042e b33c
00000100: 945a e0bb 071d 5e3c 87cf e03b 743a 183c
00000110: b6fe 2fbc 94ce 083c 07ee 333c a2f3 673b
00000120: 300c ff35 c8ed 61bc 2556 8abc 2cdf 94bc
00000130: 2443 b23c 19ef fa3b 235c 36bc 028b 903b
00000140: 1654 2abc b8dc c53a 59ca 0e3c 2c91 fb3c
00000150: 7f06 debc 9322 c93c a63d 703c 354d 5abc
00000160: a186 703c 3a5a 04bb 001e 2ebd 7c80 843c
00000170: 2d4e 72bc 531e d33b cef9 983c 558c abbc
00000180: f959 d73c 2351 0dbc 81cf 5dbb 3977 91bc
00000190: fd9d ca3b 50bf c7bb b371 e7bc fee8 ac3b
000001a0: 9c79 183c b73b 46bc 87a6 5a3c 91f9 cabc
000001b0: d13b 1a3d c115 d93b 7e0d 023c e82e 0b3c
000001c0: 86db 1a3c c366 2e3c 1322 29bc 9f6c ac3c
000001d0: 2998 003d f643 303c 64de 483c ba53 163b
000001e0: 6dd5 8dbc 69f3 c039 aaad 40bb 8ff2 513c
000001f0: b09f 14bc 42ad b83c b8c9 063b 040b 6cbc

network_body._body_endoder.seq_layers.0.weight f4 [128, 8]
-0.41393343 -0.0021006854 0.17527366 0.021210844 0.35160688 0.23176697 0.12065699 -0.15219195
0.39138064 -0.22931418 0.37556046 -0.07061932 -0.4953292 0.060256477 0.40825218 0.09429442
-0.5525112 0.02228126 -0.21397582 0.2936268 0.18545991 0.43060613 0.84326416 -0.111503705
0.26478234 -0.5211646 -0.19646427 -0.2909542 0.16732548 -0.499767 0.194453 0.1878888
0.11339689 0.3418666 -0.16276951 -0.055745296 0.05379783 -0.53867537 -0.10510527 0.34291017
-0.007644097 -0.023329549 0.38341716 -0.5381146 -0.5172343 0.22936654 -0.30995965 -0.069380485
-0.40470502 0.24939947 0.18142603 -0.2148959 -0.19001122 -0.29104534 0.18324666 0.76272553
-0.3902939 -0.0838952 -0.53959256 0.39858922 -0.33433086 0.10374054 0.40389636 -0.6556366
0.31047964 -0.4243125 -0.030355824 -0.15287568 -0.370645 0.028563099 -1.0549555 0.16521768
-0.43769637 -0.25775343 0.12239334 0.18463175 0.49700403 0.49266332 0.25152078 -0.6152008
0.22839299 0.1130979 0.0304769 0.12224208 -0.15469658 -0.18800886 0.20331109 -0.43980938
0.5705901 0.07366425 0.28324804 -0.32739994 -0.09760272 -0.463332 0.7557564 -0.061026063
-0.09588773 0.34509265 -0.41970685 -0.28757578 -0.3007142 -0.52992266 0.0067822654 -0.073191814
-0.096420065 -0.44363186 0.42206225 0.12087021 -0.42012176 -0.56485915 0.8000613 -0.170837
0.3229836 0.46372622 0.426267 0.31950635 0.5329387 0.13778038 -0.17830855 -0.061342817
0.2594937 -0.08918481 0.61657745 0.20330703 0.539677 0.5609228 0.19130416 -0.17867239
-0.28065068 0.26118216 -0.5082665 0.44406134 0.17367004 0.05579324 0.0037854218 -0.1276225
0.14475091 -0.5166888 0.185134 -0.07517961 0.22112565 -0.27033904 0.21392952 -0.53636044
0.2403501 0.5291167 -0.39005345 0.22549933 0.012953811 -0.4447211 0.06145611 -0.14787662
0.014717117 -0.19134459 -0.44938815 0.09108921 -0.07224227 -0.11930075 -0.57125676 0.29840064
0.14534006 -0.121869214 -0.39931843 -0.4874849 0.21362475 -0.628978 0.13017175 0.11141885
-0.11023342 -0.24850817 0.2660976 0.17101935 0.33805472 -0.030389342 -0.027323108 -0.3710989
-0.49532613 0.05412007 0.08614925 0.13687181 -0.06965265 0.03974692 -0.5249233 0.36563596
-0.23617868 -0.25356242 0.22939223 0.14336552 0.044917952 0.44748196 0.13277785 -0.24007094
0.16386364 0.25115627 -0.3636404 0.20976222 0.11224602 0.34521332 -0.5275457 -0.035232965
-0.0055985786 -0.12515168 0.39455384 0.31626534 0.26595306 -0.2214053 0.038879197 -0.023440802
-0.35964638 0.37192395 -0.3026807 0.43915787 0.5369475 -0.39694366 -0.1422297 -0.58830017
-0.27634108 0.1597051 -0.04107976 0.54323244 0.15389308 -0.58440775 -0.15589441 -0.0060520535
-0.14817591 0.27897415 0.8046146 0.46532747 0.37347007 -0.34026548 -0.7423317 -0.3430186
0.077055976 -0.44534543 0.25066903 -0.110374786 -0.14882393 -0.6658796 -0.34830645 0.032298706
0.12108926 0.72350746 0.25629416 0.027784357 -0.016412128 -0.6575188 0.040732052 0.1371313
-0.16468126 -0.3984937 0.122688554 -0.21525306 -0.18141437 -0.13640514 -0.0273365 -0.59332037
00000000: 15ef d3be a7ab 09bb f07a 333e 5dc2 ad3c
00000010: d105 b43e 5254 6d3e 031b f73d 35d8 1bbe
00000020: 0b63 c83e 56d1 6abe 7649 c03e dda0 90bd
00000030: ca9b fdbe 7fcf 763d 6e06 d13e 6f1d c13d
00000040: 6071 0dbf 3087 b63c 7a1c 5bbe 4056 963e
00000050: 34e9 3d3e 6878 dc3e 29e0 573f 0e5c e4bd
00000060: 8d91 873e 0b6b 05bf ee2d 49be f3f7 94be
00000070: 5f57 2b3e 76e1 ffbe b01e 473e ec65 403e
00000080: a13c e83d 2409 af3e 0dad 26be 2e55 64bd
00000090: 1d5b 5c3d a1e6 09bf 6f41 d7bd ec91 af3e
000000a0: 557b fabb 9c1d bfbc 414f c43e e1c1 09bf
000000b0: 7869 04bf 10df 6a3e 08b3 9ebe 5b17 8ebd
000000c0: 7f35 cfbe 9362 7f3e bfc7 393e ac0d 5cbe
000000d0: 4d92 42be e503 95be 03a5 3b3e fb41 433f
000000e0: 9ad4 c7be 3fd1 abbd bd22 0abf e313 cc3e
000000f0: 6a2d abbe ec75 d43d 81cb ce3e cdd7 27bf
00000100: 30f7 9e3e 7d3f d9be c7ac f8bc 718b 1cbe
00000110: 2ec5 bdbe 29fd e93c c808 87bf d32e 293e
00000120: bd19 e0be 42f8 83be 5ca9 fa3d 1b10 3d3e
00000130: 5077 fe3e 5e3e fc3e 55c7 803e cd7d 1dbf
00000140: dadf 693e df9f e73d b1aa f93c 0e5a fa3d
00000150: c868 1ebe 6585 40be c830 503e b22e e1be
00000160: 3112 123f 48dd 963d e305 913e f7a0 a7be
00000170: efe3 c7bd da39 edbe 4079 413f 77f6 79bd
00000180: c960 c4bd fcaf b03e d1e3 d6be 223d 93be
00000190: 36f7 99be 03a9 07bf c43d de3b 97e5 95bd
000001a0: e277 c5bd b723 e3be 8b18 d83e cd8a f73d
000001b0: 331a d7be 9c9a 10bf d1d0 4c3f e5ef 2ebe
000001c0: 1b5e a53e 866d ed3e ab3f da3e 5696 a33e
000001d0: ac6e 083f 4d16 0d3e 8496 36be 9b42 7bbd
000001e0: 5cdc 843e 87a6 b6bd 05d8 1d3f b82f 503e
000001f0: 4628 0a3f a398 0f3f 3de5 433e e5f5 36be
00000200: 72b1 8fbe abb9 853e c11d 02bf 025c e33e
00000210: 8fd6 313e 7487 643d d714 783b 79af 02be
00000220: 9539 143e b845 04bf c493 3d3e c4f7 99bd
00000230: c36e 623e e169 8abe 5710 5b3e eb4e 09bf
00000240: 561e 763e 3174 073f 16b5 c7be 4ce9 663e
00000250: 393c 543c 7cb2 e3be 67b9 7b3d f86c 17be
00000260: 1020 713c d6ef 43be 3416 e6be fb8c ba3d
00000270: c1f3 93bd f453 f4bd e23d 12bf f8c7 983e
00000280: 06d4 143e 9196 f9bd 7773 ccbe 9f97 f9be
00000290: 72c0 5a3e b404 21bf be4b 053e 912f e43d
000002a0: 0fc2 e1bd ed78 7ebe f23d 883e b21f 2f3e
000002b0: 8215 ad3e 12f3 f8bc b6d4 dfbc ad00 bebe
000002c0: 639b fdbe 02ad 5d3d 056f b03d 2028 0c3e
000002d0: 0ca6 8ebd abcd 223d 6061 06bf a334 bb3e
000002e0: d3d8 71be efd2 81be cce5 6a3e 69ce 123e
000002f0: e3fb 373d 5b1c e53e ebf6 073e 28d5 75be
00000300: dfcb 273e 8e97 803e 132f babe e8cb 563e
00000310: 3ee1 e53d cdbf b03e 3c0d 07bf 7150 10bd
00000320: 4874 b7bb c327 00be f602 ca3e 88ed a13e
00000330: 002b 883e 12b8 62be cb3f 1f3d ed06 c0bc
00000340: 9223 b8be d16c be3e f7f8 9abe 4dd9 e03e
00000350: 6475 093f 333c cbbe aaa4 11be d79a 16bf
00000360: 947c 8dbe bc89 233e 4043 28bd 4811 0b3f
00000370: 2696 1d3e bf9b 15bf c9a2 1fbe 4e50 c6bb
00000380: 6dbb 17be b3d5 8e3e 39fb 4d3f 673f ee3e
00000390: 7837 bf3e 4737 aebe 7309 3ebf 22a0 afbe
000003a0: 86cf 9d3d 5104 e4be b157 803e 2d0c e2bd
000003b0: 4d65 18be 1677 2abf 3955 b2be a64b 043d
000003c0: a5fd f73d c937 393f fd38 833e 059c e33c
000003d0: ba72 86bc 2753 28bf a7d6 263d 266c 0c3e
000003e0: 34a2 28be 5e07 ccbe 2344 fb3d 4c6b 5cbe
000003f0: b0c4 39be caad 0bbe ccf0 dfbc d8e3 17bf

network_body._body_endoder.seq_layers.2.bias f4 [128]
-0.002902082 -0.0021458392 0.00454302 0.011144879 0.02082982 0.012668419 0.00094077125 -0.005814862
-0.004977559 0.0098442985 0.015178264 0.0026108115 0.0059970166 -0.018816268 0.0292195 -0.0017807977
0.007450019 0.009673671 -0.001996968 -0.012089797 0.004392948 0.049575634 -0.00019813821 0.013068085
-0.014663346 0.013107344 -0.017323066 0.007643803 -0.006218681 0.0045321053 -0.0031007682 -0.007892187
-0.0048333374 0.003049198 0.004074916 0.0036257543 -0.0049776183 -0.0018976356 -0.015505688 0.0028203558
-0.006518053 0.014896042 0.008635005 0.0076326774 0.02719409 -0.0051088263 -0.009039967 -0.0029811093
-0.014791322 0.012131049 -0.007650977 -0.01048458 -0.0052764527 -0.014373819 -0.0023374474 -0.0048156995
-0.0015685009 0.009854351 0.014262674 0.003432961 0.033636313 -0.0016311853 0.0077375714 -0.01513152
0.005533771 -0.0009844584 -0.011816787 0.020973973 0.009198101 -0.0074993335 -0.0141078895 -0.010586405
0.0035992183 0.012290047 -0.008437849 0.016803462 -0.013888455 0.014105907 -0.01728999 -0.01101208
0.019723147 0.045462087 -0.0043534143 0.009370958 0.014018864 -0.0059407745 -0.006775283 -0.009713085
-0.0075318967 0.0015942126 -0.00048216194 0.022797141 -0.0068665366 0.0066889976 -0.009980928 0.020959914
-0.016456043 0.009443797 -0.007787414 -0.0075834948 0.011009034 -0.003506095 -1.2208227e-05 -0.004139304
0.008290569 0.048562776 -0.0057524624 -0.010421547 0.026114501 0.034017745 0.004850981 0.0057880194
-0.013172955 0.019857295 0.0033471957 -0.0075552687 -0.0049197203 -0.008684702 -0.0074915625 0.015257587
0.00701288 -0.0009249353 0.03475908 0.0023939935 -0.0047894847 0.029733324 0.011981319 0.014816967
00000000: db30 3ebb 35a1 0cbb 9ddd 943b 0399 363c
00000010: 4ca3 aa3c 338f 4f3c 179e 763a 998a bebb
00000020: cb1a a3bb fb49 213c 41ae 783c 261a 2b3b
00000030: 9f82 c43b 9324 9abc bc5d ef3c a869 e9ba
00000040: 4a1f f43b 517e 1e3c 90df 02bb 4914 46bc
00000050: b8f2 8f3b d20f 4b3d 52c3 4fb9 851b 563c
00000060: 883e 70bc 2fc0 563c 1ae9 8dbc de78 fa3b
00000070: 14c6 cbbb 0e82 943b 4236 4bbb 3b4e 01bc
00000080: f960 9ebb 0ed5 473b df86 853b 109e 6d3b
00000090: 4a1b a3bb 16ba f8ba 920b 7ebc b8d5 383b
000000a0: 6495 d5bb 870e 743c d679 0d3c 8a1b fa3b
000000b0: 24c6 de3c f167 a7bb 5f1c 14bc b75e 43bb
000000c0: 4d57 72bc 4fc1 463c 0cb5 fabb 84c7 2bbc
000000d0: 18e6 acbb 2b80 6bbc dc2f 19bb 04cd 9dbb
000000e0: 2896 cdba 2574 213c fead 693c 87fb 603b
000000f0: 3bc6 093d 7fcd d5ba 748b fd3b 32ea 77bc
00000100: a354 b53b f108 81ba 329b 41bc 9cd1 ab3c
00000110: a2b3 163c f8bc f5bb c724 67bc 9a72 2dbc
00000120: dde0 6b3b 315c 493c e73e 0abc 6aa7 893c
00000130: 678c 63bc 761c 673c bda3 8dbc 036c 34bc
00000140: 7092 a13c 7436 3a3d 16a7 8ebb a688 193c
00000150: 61af 653c d4aa c2bb 3103 debb a223 1fbc
00000160: 21ce f6bb e6f4 d03a aeca fcb9 12c1 ba3c
00000170: af00 e1bb 612f db3b 0c87 23bc 20b4 ab3c
00000180: d3ce 86bc 28ba 1a3c 902d ffbb f77e f8bb
00000190: 3c5f 343c 83c6 65bb f0d1 4cb7 00a3 87bb
000001a0: 2bd5 073c c3e9 463d 277f bcbb 23bf 2abc
000001b0: 14ee d53c 3156 0b3d faf4 9e3b 6da9 bd3b
000001c0: 61d3 57bc c4ab a23c a05c 5b3b 3092 f7bb
000001d0: 9b35 a1bb 484a 0ebc c87b f5bb f5fa 793c
000001e0: 4dcc e53b 5b77 72ba 895f 0e3d 8ce4 1c3b
000001f0: 1cf1 9cbb 4d93 f33c 4b4d 443c ddc2 723c

network_body._body_endoder.seq_layers.2.weight f4 [128, 128]
0.04252771 0.15109582 0.010784395 -0.07808721 0.06521202 0.053921167 -0.012982943 -0.138582
-0.08310792 0.096435495 0.04641968 0.069575615 0.082482226 -0.18440294 -0.03212267 -0.015620423
-0.057639703 0.05239769 -0.09548545 0.1442753 0.0883187 0.01921482 0.025193423 -0.1868102
-0.06084241 -0.01948031 -0.002462979 0.07942213 -0.067555495 -0.099155955 0.0023507033 -1.5544378e-05
0.110178284 0.098003715 -0.039225876 0.08115753 -0.11938962 -0.016913656 0.058593705 -0.041518133
-0.065044716 0.11434807 -0.02765768 0.07888651 -0.0909047 -0.08836062 -0.0006733393 0.025156345
-0.00091504335 -0.116496384 -0.017809074 -0.07669398 -0.054807495 0.07880918 -0.11559448 0.08243894
0.05148225 -0.03335562 -0.13387442 -0.074511915 0.048794027 -0.02972874 0.04149139 0.1116341
-0.11855738 -0.09620323 -0.09682024 0.14399862 0.054161403 0.011275234 -0.013075098 0.13588785
-0.06698589 0.00035049912 0.04554256 0.16546096 0.005140349 -0.061544355 -0.035939783 0.013549179
0.09454213 -0.024685057 -0.037053682 -0.055446155 -0.09763406 0.053329617 -0.07749173 -0.10220783
-0.059840176 0.09931353 -0.07375575 -0.17612419 -0.12681878 -0.023818484 -0.087226264 0.072352
0.075537935 -0.015997738 -0.035578363 0.08769174 -0.23921922 -0.06252609 0.03990954 0.050923195
-0.22552161 -0.056523554 0.007962072 -0.04463896 0.06533505 -0.019598445 -0.14309815 0.08523249
0.0007278684 0.04082154 -0.016780574 0.08540669 0.073491596 0.008091396 0.17800795 -0.017550109
-0.11145249 -0.0018254211 -0.030107547 -0.27358785 0.14150096 -0.14254358 -0.014410722 -0.04023339
0.024522435 0.1202944 -0.08495308 -0.045883942 0.11468704 -0.036764033 0.02681146 0.031123351
0.022812914 0.10119402 -0.10671365 -0.022606721 -0.060690116 0.089243636 -0.028154107 0.11222975
0.044481903 0.06376299 -0.11086558 0.013518084 0.03080992 0.0816803 -0.06408205 0.11243746
-0.021496195 -0.038404584 0.048640728 0.06052092 0.05088006 0.14832966 0.097512454 0.021861838
0.06402143 -0.08996928 -0.07878554 -0.07249623 -0.08499031 -0.055188425 0.20923667 0.050440997
-0.15435089 0.0010575223 -0.15044354 -0.08624396 -0.14877346 0.02970776 0.11475522 -0.06849045
-0.10570019 0.12463812 -0.034085162 -0.1397634 0.054152694 -0.051124487 0.104766235 0.023166345
-0.11212924 -0.047471482 0.11585983 -0.08870733 -0.012525419 -0.06769677 0.117982276 0.0872891
0.027343769 -0.09492936 -0.009585383 0.00013264547 -0.0442234 0.057637516 -0.1370679 -0.040339824
0.0049297465 0.15405639 -0.16874099 -0.25242576 -0.053472273 0.074050404 -0.023341466 0.022605266
-0.24999544 -0.009026879 0.008636938 0.018418372 -0.07476676 0.09587504 0.12880369 0.04168353
-0.067106985 0.16569556 0.02673907 -0.007395343 0.08546876 -0.042139567 0.025975067 -0.08558506
0.014618823 0.044866174 0.0076541323 -0.054950893 0.040888287 0.10025857 -0.05758971 -0.107082665
0.088324025 -0.09334553 0.039141573 0.076450676 0.060372885 0.02657847 0.08342568 0.03560561
-0.041152522 -0.13002993 -0.11025691 -0.019425146 -0.009204559 -0.037171524 0.06622408 0.16999543
0.014843829 0.18742196 0.04987182 -0.08354707 -0.17861833 0.046642095 0.0017952159 0.07744795
00000000: 8931 2e3d ddb8 1a3e 08b1 303c 30ec 9fbd
00000010: e18d 853d 71dc 5c3d 69b6 54bc 71e8 0dbe
00000020: 7c34 aabd f97f c53d 9022 3e3d a97d 8e3d
00000030: 71ec a83d 20d4 3cbe 1093 03bd cdec 7fbc
00000040: 9c17 6cbd f69e 563d e08d c3bd e7bc 133e
00000050: 6fe0 b43d 6668 9d3c 7062 ce3c 2c4b 3fbe
00000060: e435 79bd 2c95 9fbc ee69 21bb 12a8 a23d
00000070: 895a 8abd 4712 cbbd 420e 1a3b 4c65 82b7
00000080: 27a5 e13d 2cb6 c83d 50ab 20bd eb35 a63d
00000090: 8c82 f4bd 828e 8abc f4ff 6f3d eb0e 2abd
000000a0: 2a36 85bd 522f ea3d 5c92 e2bc 408f a13d
000000b0: 3e2c babd 6af6 b4bd 0983 30ba ae14 ce3c
000000c0: 85df 6fba a895 eebd 56e4 91bc bc11 9dbd
000000d0: d37d 60bd b566 a13d ccbc ecbd bfd5 a83d
000000e0: 0ddf 523d e79f 08bd 6016 09be b499 98bd
000000f0: 3fdc 473d b089 f3bc e0f2 293d 6ba0 e43d
00000100: 36ce f2bd 3306 c5bd b149 c6bd 6074 133e
00000110: 59d8 5d3d c2bb 383c f038 56bc 2f26 0b3e
00000120: e62f 89bd 32c3 b739 d68a 3a3d 996e 293e
00000130: 5f70 a83b ef15 7cbd 9835 13bd 60fd 5d3c
00000140: 4e9f c13d 5138 cabc 9ac5 17bd 821b 63bd
00000150: 5ef4 c7bd 2870 5a3d fcb3 9ebd 5752 d1bd
00000160: f91a 75bd e464 cb3d 410d 97bd e659 34be
00000170: c8dc 01be fb1e c3bc afa3 b2bd 492d 943d
00000180: a2b3 9a3d b00d 83bc 9eba 11bd ba97 b33d
00000190: e2f5 74be ae0d 80bd 3078 233d d794 503d
000001a0: 23ef 66be 3e85 67bd 5a73 023c 58d7 36bd
000001b0: 62ce 853d eb8c a0bc 5288 12be 5f8e ae3d
000001c0: 6cce 3e3a 7d34 273d 6a77 89bc b4e9 ae3d
000001d0: c382 963d c691 043c b747 363e 3fc5 8fbc
000001e0: 3441 e4bd f842 efba 1aa4 f6bc b513 8cbe
000001f0: a1e5 103e f2f6 11be f31a 6cbc c4cb 24bd
00000200: 46e3 c83c e95c f63d e1fb adbd cdf0 3bbd
00000210: 0ae1 ea3d e295 16bd b5a3 db3c 66f6 fe3c
00000220: 26e2 ba3c cf3e cf3d b08c dabd bb31 b9bc
00000230: 3396 78bd 5ec5 b63d 71a3 e6bc b6d8 e53d
00000240: a832 363d 2c96 823d 7e0d e3bd f47a 5d3c
00000250: 1665 fc3c 0048 a73d 733d 83bd 9c45 e63d
00000260: ca18 b0bc 204e 1dbd 803b 473d c9e4 773d
00000270: 9c67 503d bbe3 173e 9cb4 c73d 9917 b33c
00000280: ab1d 833d d041 b8bd 505a a1bd e778 94bd
00000290: 660f aebd 420d 62bd 2342 563e 389b 4e3d
000002a0: 290e 1ebe 8f9c 8a3a df0d 1abe aca0 b0bd
000002b0: 1258 18be b05d f33c c904 eb3d b944 8cbd
000002c0: 5779 d8bd 4542 ff3d e29c 0bbd 231e 0fbe
000002d0: 37cf 5d3d e967 51bd ae8f d63d 59c7 bd3c
000002e0: 04a4 e5bd 7571 42bd eb47 ed3d 30ac b5bd
000002f0: 6a37 4dbc 9ba4 8abd b1a0 f13d a1c4 b23d
00000300: 0a00 e03c 536a c2bd 030c 1dbc bf16 0b39
00000310: 9923 35bd 5115 6c3d 875b 0cbe 5f3b 25bd
00000320: b689 a13b f5c0 1d3e 70ca 2cbe f33d 81be
00000330: be05 5bbd bda7 973d 9a36 bfbc ae2e b93c
00000340: cefe 7fbe 7ae5 13bc f281 0d3c 20e2 963c
00000350: 511f 99bd 225a c43d 1de5 033e 59bc 2a3d
00000360: 636f 89bd 19ac 293e e50b db3c a254 f2bb
00000370: 3f0a af3d 8a9a 2cbd aac9 d43c 3847 afbd
00000380: ca83 6f3c 98c5 373d 84cf fa3b 3014 61bd
00000390: 7a7a 273d 5d54 cd3d 30e3 6bbd 284e dbbd
000003a0: 3ae3 b43d f12b bfbd ea52 203d 2c92 9c3d
000003b0: 8f49 773d 17bb d93c 15db aa3d 30d7 113d
000003c0: 8c8f 28bd 9126 05be 60ce e1bd 7c21 9fbc
000003d0: b8ce 16bc 2b41 18bd 7ea0 873d 4813 2e3e
000003e0: 8833 733c 8beb 3f3e 6546 4c3d ba1a abbd
000003f0: b9e7 36be c80b 3f3d 734d eb3a 089d 9e3d
