MLA_Lab4/results/ppo/Economic.onnx (onnx, 76961 bytes, 8 tensors)

action_model._continuous_distribution.log_sigma f4 [1, 5]
000000 fd cc d0 3b c7 2c 51 3b 05 b0 5f 3b d0 5e e3 39
       0.0063720928 0.0031917559 0.0034132015 0.00043367455
000010 fd f8 8f 3b
       0.0043936954

action_model._continuous_distribution.mu.bias f4 [5]
000000 5e f1 ac 39 b8 e3 16 bb 58 1c 61 ba 65 26 d1 b9
       0.0003298623 -0.0023023915 -0.00085872924 -0.00039892193
000010 5a d5 80 ba
       -0.0009829209

action_model._continuous_distribution.mu.weight f4 [5, 128]
000000 b7 4a 95 3c fc 8c 21 bd ae 19 8e 3a 07 ac 2b 3c
       0.018224103 -0.039441094 0.0010841393 0.010478026
000010 53 3c 29 bc ee 63 4a bc 0b 41 e9 3b f3 10 71 39
       -0.010329324 -0.012352927 0.0071183494 0.00022989865
000020 4b 44 43 3b e3 3c 1a 3c 7a bd 37 bc 25 bb 8b 3a
       0.0029795344 0.009413931 -0.011214608 0.0010660632
000030 ae 80 29 3a 5b 34 d6 b9 f8 ea db bb 51 bb e7 3b
       0.0006466013 -0.0004085627 -0.00671136 0.0070718904
000040 88 59 ac bb 4c 3a 1c bd 6a d1 35 3c ff 24 92 3b
       -0.0052596964 -0.038141534 0.0110972915 0.0044599767
000050 a9 a8 3c bc 39 8c a3 3c 08 5f f8 3b a5 07 15 3d
       -0.011514821 0.019964324 0.007579688 0.036384244
000060 43 f4 17 3c ef e6 48 3c 2b 89 12 3d 43 b3 9e 3c
       0.009274545 0.01226209 0.035775345 0.019372588
000070 3b 73 93 bb df 6a 0e bc 9c f3 68 3d 8c 33 38 bc
       -0.0044998205 -0.008692472 0.05687295 -0.0112427585
000080 7f d1 07 bc fc 9d a2 bb d5 40 a0 3b 0e b2 af bb
       -0.008289694 -0.004962681 0.004890541 -0.005361802
000090 ab 30 e7 bb cf 17 eb 3c 6c 6b c6 3c 96 bf 0f bd
       -0.007055362 0.028697876 0.024221145 -0.03509482
0000a0 60 a3 07 3d 0b 21 0a bd f0 06 7a 3b fe ba cf bc
       0.03311479 -0.03372292 0.0038151108 -0.02535772
0000b0 27 e2 3f bc a4 19 63 bc 24 b3 0c bc 1c cc a9 bc
       -0.011711634 -0.013861094 -0.008587632 -0.02072721
0000c0 b3 e2 27 bc 02 70 aa bc 42 62 6a bb 8d 54 07 bb
       -0.01024692 -0.020805363 -0.0035764133 -0.0020649761
0000d0 78 11 a0 38 ca 1f d1 bc 0f d4 12 3c 17 63 39 3c
       7.632648e-05 -0.025527854 0.0089616915 0.011315129
0000e0 2c 3f 45 bc 37 13 ac 3c 91 44 6f bc 5e 67 cf bc
       -0.012038987 0.021005256 -0.01460375 -0.025317844
0000f0 08 ae 88 bb 8b 7c b7 3c 0d 91 0f bd a4 48 56 3c
       -0.0041711368 0.022398254 -0.03505044 0.013078842
000100 e5 23 a7 3c 7c cb ca 3b 40 06 8c 3a 47 5b d5 3c
       0.020402858 0.006188808 0.0010683015 0.026044501
000110 9e 7b df 3a 81 c2 11 3c 0a e3 fb 39 1a 46 0a 3d
       0.0017050391 0.008896471 0.00048043608 0.03375826
000120 c7 41 99 3c 64 b8 a7 3a b0 2c 00 3c a1 ec ac bb
       0.018708123 0.0012796042 0.007823154 -0.005277232
000130 38 ea 9c 3c 89 4f f3 3c c7 e1 df bb 61 bc c6 bc
       0.019154653 0.029701011 -0.0068323347 -0.024259748
000140 89 78 de bb cc de 98 3c 22 69 0f 3b b3 6d d9 bb
       -0.0067892713 0.018660925 0.0021882732 -0.0066353916
000150 5b 6f fa bb 6c 9c 33 bc f4 99 14 bc 1a 9e 92 3c
       -0.007642669 -0.010962587 -0.009069908 0.017897654
000160 db 39 43 3c 20 08 f7 3a 17 43 dc 3c fd f6 8c bc
       0.011915649 0.0018847026 0.02688746 -0.017207617
000170 65 c5 75 bb ac 09 a3 bb 2e 65 b0 3b 0e 07 d6 3a
       -0.003750169 -0.004975518 0.0053831553 0.0016329007
000180 e2 a1 98 bb e9 67 50 3c 44 d2 fc bb c4 4f bb 3c
       -0.00465797 0.012720087 -0.0077154953 0.022865184
000190 67 61 39 3c b3 71 d9 bb e8 7c 6f bc 69 fb 34 bc
       0.011314726 -0.0066358685 -0.014617182 -0.011046269
0001a0 f9 8c 5a bb 86 f3 b9 bb 09 6a 37 bb 9f e8 d5 ba
       -0.0033348186 -0.005674782 -0.0027986786 -0.0016319937
0001b0 9e 26 8e bc d2 78 8b bb ea 5e 3a 3c 58 72 97 3c
       -0.017352398 -0.0042563463 0.011375168 0.01848714
0001c0 dd f4 29 bc 7a 65 35 3b af a7 72 3c 5e fa 9b 3c
       -0.010373321 0.0027678893 0.014810487 0.019040283
0001d0 e3 37 b6 3c e4 b0 22 3d b2 7f 4c bc b1 b3 ac 3c
       0.022243446 0.039719477 -0.012481617 0.021081777
0001e0 3e 97 05 bb 67 10 c2 3b 8c 28 52 bc 80 cb ec 3c
       -0.0020384337 0.0059223655 -0.01282705 0.02890563
0001f0 5e f5 9f 3c c1 6f 7c 3c b9 92 95 3b 70 35 2b bc
       0.01952618 0.015407504 0.00456461 -0.010449752
000200 cb 2e 73 3b 91 0d e4 3a cb 55 f5 3c af bd 75 3c
       0.0037106748 0.0017399063 0.029948136 0.014998837
000210 7d e8 6e bb ee 26 a1 bc fd 61 a9 bc 38 d4 57 3c
       -0.0036454492 -0.019671883 -0.020676607 0.0131731555
000220 56 cc a9 ba a6 d9 0e bc 59 e1 05 3c cb 83 20 bc
       -0.0012954574 -0.008718884 0.008171403 -0.009797047
000230 f5 84 22 3c 46 ab e9 3c b3 fc 13 bc 01 97 f1 bc
       0.009919395 0.028524052 -0.009032416 -0.02949095
000240 a0 b3 cc 39 75 50 66 3c e5 7c cc ba a3 fa ab 3b
       0.00039043743 0.014057268 -0.0015601186 0.005248384
000250 03 78 5a bb dd d7 3a bc dd 22 05 3c ff 7c 17 bc
       -0.0033335693 -0.011404005 0.008125988 -0.00924611
000260 5d 91 7a ba 13 8f dc bb 4b 0e 69 3b d7 27 b3 3c
       -0.0009558404 -0.006730923 0.0035561498 0.021869583
000270 12 bd c7 3b 74 24 30 bc 12 ad 29 bc ba 17 87 3c
       0.006095537 -0.010750879 -0.010356205 0.016490806
000280 8a ec 39 3d b6 90 17 bb e8 83 86 bc 9a 60 87 3c
       0.045391597 -0.0023127026 -0.01642032 0.016525555
000290 49 60 fb 3c d0 6a 53 3c cb 17 85 3c 91 9b 73 3b
       0.03068556 0.012903884 0.016246697 0.0037171582
0002a0 48 8e 5b 3b 55 c5 e1 3c d9 b0 8f bc b9 74 8c 3b
       0.0033501554 0.027559916 -0.017540382 0.0042863754
0002b0 04 17 9d 3c eb c8 89 3c d6 8f 56 bc 82 78 db bc
       0.019176014 0.016819438 -0.013095817 -0.026790861
0002c0 84 74 90 bc 06 18 1e bc 88 8a 65 3c 30 d1 20 bc
       -0.017633684 -0.009649282 0.014010079 -0.009815499
0002d0 e5 6e b6 ba 7b ef 1f 3d ba 8c ca 3c cd 57 4b bb
       -0.0013918547 0.039046746 0.024725307 -0.0031027675
0002e0 e3 a4 5f bc b1 f7 2b 3b e6 53 06 3d 88 8c 77 3c
       -0.013650152 0.0026240165 0.032794856 0.015109189
0002f0 f6 1e e9 3c da ce b4 3c bd 4c 30 bc 8e e8 aa 3b
       0.028457146 0.02207129 -0.010760483 0.005215711
000300 f7 0e 03 bd 5d 38 84 bc 18 32 80 bc df fc 6a 3a
       -0.031996693 -0.016140157 -0.015648887 0.00089640723
000310 0f d9 e6 bc 0e 43 f9 3a d7 3f f2 39 48 0f 63 bb
       -0.028179673 0.0019017176 0.000462054 -0.003464656
000320 82 7c de 3c 7c 2a 08 3c 37 8c ae bc a3 f1 d0 bc
       0.02715898 0.00831091 -0.021307094 -0.025505846
000330 45 21 a2 bc 57 b9 dc bb 68 c5 26 bc ad 6c 0a bd
       -0.019791255 -0.0067359614 -0.010178901 -0.033795048
000340 98 a2 f4 bc e8 2f 62 3c 91 98 ec ba aa c5 3d bb
       -0.029862687 0.013805367 -0.001805084 -0.0028956928
000350 c5 7e 3b bc 39 a6 f4 3b 99 24 ad bc 10 90 ae 3c
       -0.011443798 0.0074661043 -0.021135615 0.021308929
000360 4f 74 93 3c 86 46 9c bc 96 b2 20 3c 8d 75 f3 bb
       0.017999796 -0.019076597 0.009808203 -0.0074297846
000370 b2 ea 9e bb 4a 88 1f 3c 51 be b2 bb 3e 29 0d 3d
       -0.004849755 0.009737084 -0.0054548164 0.03446316
000380 9a 22 7a bc 06 7b 66 bc 48 3d ae bc 22 26 94 bc
       -0.015267039 -0.014067417 -0.021269456 -0.01808459
000390 c6 33 3e bc 1d 13 05 3c fe 45 a2 bc 58 84 29 bc
       -0.011609023 0.008122233 -0.019808766 -0.010346495
0003a0 b5 5e 7a bb f7 93 8c bc 1a 9e ee bc 29 ba 85 3b
       -0.0038203422 -0.017160399 -0.029128123 0.00408103
0003b0 6d 69 06 3c be fc 66 b9 7d 8b 07 3d 69 7f 8c 3c
       0.008203846 -0.00022028663 0.03309201 0.017150598
0003c0 88 d1 3e 3c b7 87 41 3c 7e 29 64 bc 62 b5 39 3c
       0.011646636 0.011812142 -0.013925908 0.011334749
0003d0 bc 38 b7 bb c7 50 00 3c a2 71 24 bc 05 a5 97 3b
       -0.00559148 0.007831759 -0.010036858 0.004627826
0003e0 c7 39 6b b9 06 b2 0e bc c4 04 05 bc c4 d6 f5 3b
       -0.0002243287 -0.008709436 -0.008118812 0.0075024087
0003f0 b2 b8 87 bc b9 2b 6e 3c ff 69 82 bc 36 2e 7d 3c
       -0.016567562 0.0145367915 -0.015919684 0.015452912

action_model._discrete_distribution.branches.0.weight f4 [1, 128]
000000 b7 9c 00 bb a0 5f 12 3c 79 9c 38 ba 92 e8 fa bb
       -0.001962466 0.008933932 -0.0007042359 -0.007657119
000010 c2 ac 6b bb c3 d8 19 3c ef 18 96 ba f4 1e 07 3b
       -0.0035961126 0.009390059 -0.0011451523 0.0020617815
000020 86 41 95 3c f3 dc 75 bc c2 48 b5 3a 57 bd 70 bc
       0.01821972 -0.015006292 0.0013830888 -0.01469358
000030 eb 33 a8 3a e7 76 e2 3a 4b 0b d0 b9 fa 44 c9 3a
       0.0012832856 0.0017277867 -0.00039681265 0.001535564
000040 fd 65 34 3c db 43 c3 3a 6b fb 66 3b 02 46 fd bb
       0.011010644 0.0014897542 0.0035245072 -0.007729293
000050 05 68 e4 3b 67 79 12 bc b7 62 1a bb 87 4b 79 3c
       0.006970408 -0.008940077 -0.0023557374 0.015215761
000060 97 cb 21 3b 55 6f 0b 3a cc d9 a7 bb bc cc 45 bb
       0.0024688 0.0005319019 -0.005122399 -0.0030181846
000070 22 d0 d2 b9 69 60 14 3c df 7c 8f 3a fb e7 06 3c
       -0.00040209392 0.009056189 0.0010947249 0.008234019
000080 97 df 9c 38 2f f5 49 3c 4e 60 9c 3b c7 e4 1d 3b
       7.4803065e-05 0.012326523 0.0047722226 0.002409266
000090 73 01 81 bb 53 fc 00 3b 0f 4e e0 3b 7f 36 b7 3b
       -0.0039369403 0.0019681647 0.006845243 0.0055912132
0000a0 f7 3b 67 bc d8 31 be bb ee ca 14 ba bb 17 aa 3a
       -0.014113418 -0.0058042817 -0.0005675991 0.0012977043
0000b0 47 bf ac 3c 2b 96 b3 bb 2e bd 3a 3c 95 86 54 3b
       0.021087302 -0.005480548 0.011397643 0.003242885
0000c0 ad 62 05 bc 6d 6a 64 b9 bf 75 26 bc c7 a4 ef 3b
       -0.008141202 -0.00021783421 -0.010159909 0.007313344
0000d0 e5 71 1e bb 48 0a 90 bb e2 d3 94 3b ff 18 59 3c
       -0.0024176773 -0.004395757 0.00454186 0.013250588
0000e0 ce b0 cb 3b 07 63 c6 3a 63 ad 7f 3c 28 91 54 3c
       0.006216145 0.0015135714 0.015605303 0.012974061
0000f0 b3 a5 e4 bb e7 7f 62 3b 4b 86 cc 3b 72 10 dd 3b
       -0.0069777607 0.00345611 0.006241595 0.006746345
000100 e2 21 55 bb 84 be b1 b7 bb 7e a8 bb 30 1c 1f bc
       -0.0032521416 -2.118876e-05 -0.0051420606 -0.00971131
000110 fb ef b5 3b 7a b6 7b bc 74 a1 a7 bc 2b 0c f5 bb
       0.0055522895 -0.01536333 -0.020462729 -0.007478257
000120 00 6c 46 bc ea a3 93 bb 87 81 a3 bb 47 32 27 bc
       -0.01211071 -0.004505624 -0.004989806 -0.010204858
000130 c9 4a 37 3c 9b b7 90 3b 05 ae 82 3c f3 f0 6d 3c
       0.011187264 0.0044164187 0.01595212 0.014522779
000140 a8 f9 1f 3c a5 37 86 ba a0 3c be bb 80 df ae bc
       0.0097641125 -0.0010239972 -0.005805567 -0.021346807
000150 93 f0 3a bc 7e 00 43 bc 0b 0e 97 3c 97 07 24 bc
       -0.011409896 -0.011901973 0.018439313 -0.010011575
000160 99 b7 8f bb c4 ca 0d bc 18 53 04 3c 43 af bd 3b
       -0.0043859 -0.0086543 0.008076452 0.005788715
000170 92 ee 09 bc bc 42 9c 3a 05 81 1b bc 45 82 d3 3b
       -0.008418696 0.0011921744 -0.00949121 0.0064547383
000180 83 65 6d 3c 20 ab ec bb f8 0d 5d 3b 92 13 b5 3b
       0.014489534 -0.007222548 0.003373025 0.0055260146
000190 1f 04 cb 3b a2 82 73 3b 8d 74 d9 3b 8a 35 5a bc
       0.0061955596 0.003715672 0.0066362084 -0.013318429
0001a0 f9 46 19 bc 1f 05 b9 3b 03 53 4d 3c 6d 76 4e bc
       -0.0093553 0.0056463624 0.012531999 -0.012601477
0001b0 20 76 de bb 84 d3 1c ba 80 4a c1 bb 3c bb b7 3b
       -0.006788984 -0.0005982446 -0.0058987737 0.005607037
0001c0 c5 3e ea bb ce fe 28 bc a8 6a f3 3a 03 6c 12 3c
       -0.007148596 -0.010314656 0.0018571215 0.008936885
0001d0 8c b4 c2 3b 0d dc 0a 3c f3 3c 22 3b 02 3e 90 bb
       0.005941933 0.008475316 0.0024755567 -0.004401923
0001e0 6a f7 ce 3a 07 e1 3a bc 93 9a 80 3c 9d 4b 19 3c
       0.0015790288 -0.01140619 0.015698707 0.0093564065
0001f0 4b c5 1b 3c 97 f6 98 3b e7 2d c9 3b 25 66 63 bc
       0.0095074875 0.0046680677 0.006139505 -0.013879334

network_body._body_endoder.seq_layers.0.bias f4 [128]
000000 04 fd 04 3b 21 fe a1 ba 18 ce 5d ba 99 19 b1 bb
       0.002029241 -0.0012359062 -0.00084611913 -0.005404663
000010 8f a8 aa 3b ed 54 23 ba 79 d2 51 ba 2f 50 23 39
       0.005208082 -0.00062306115 -0.000800408 0.00015574762
000020 0b f6 fd b9 3d 47 1a 39 b5 af 2c 3b 3d 27 7a 38
       -0.00048439237 0.00014713123 0.0026349847 5.964119e-05
000030 bf 17 81 bb 5e ca 1e b9 f1 1b 7d b9 dd 34 89 b7
       -0.0039395983 -0.00015143442 -0.00024138369 -1.6356289e-05
000040 1a 8d 80 39 2e df 8e 3b 84 5b 4d 3a 23 a3 16 ba
       0.0002451919 0.004360101 0.0007833766 -0.0005746355
000050 a3 01 1a 3b 3e 51 83 39 8f 8a 5e ba 70 16 52 b9
       0.002349951 0.00025046797 -0.0008489275 -0.00020035519
000060 96 1c 88 ba a2 a9 95 3a 1d f6 ad bb 38 0c b9 bb
       -0.0010384496 0.0011418352 -0.00530888 -0.0056472085
000070 ed 8c bb 3b b3 b5 91 bb ee c5 25 bb 11 9b aa bb
       0.005723587 -0.004446709 -0.0025294977 -0.0052064736
000080 0d a5 78 ba af e3 95 b8 54 a9 2f bb 03 df 52 ba
       -0.00094850437 -7.147283e-05 -0.0026803808 -0.00080440956
000090 27 4e 3f 3a dc 36 70 3b 15 fc 24 bb 6b cc 37 3b
       0.00072977174 0.0036653792 -0.0025174667 0.0028045427
0000a0 f5 db 5b ba 88 6c d7 39 cd 04 d9 b8 7d f4 46 3a
       -0.0008386963 0.00041088858 -0.000103482605 0.0007589532
0000b0 8c db 3e bb b1 9e 20 39 b4 6d e4 39 29 ef a5 bb
       -0.002912256 0.00015317906 0.00043569284 -0.0050639105
0000c0 fe ef 86 3b c2 4e db ba 2e 38 ee 3a 76 df b0 ba
       0.0041179648 -0.0016731846 0.0018174702 -0.0013494331
0000d0 7d 44 6d 3b de 39 88 bb 90 62 41 3a c6 62 0d 3b
       0.0036204152 -0.004157289 0.00073770527 0.0021573766
0000e0 f8 c0 c4 37 f2 20 20 ba 3e 92 00 3b 69 64 c2 bb
       2.3454879e-05 -0.0006108425 0.0019618417 -0.00593238
0000f0 3c 2d 10 39 36 ee 19 39 97 7b a3 b9 19 4c 40 39
       0.00013749761 0.00014679958 -0.00031181864 0.00018338895
000100 40 79 a0 bb cd f2 e2 ba 48 73 93 bb 04 de 07 bb
       -0.0048972666 -0.0017314792 -0.0044998266 -0.0020731697
000110 11 e1 0c bb 98 b7 22 b9 80 80 24 3b 10 d3 b5 bb
       -0.0021496455 -0.00015517918 0.0025101006 -0.0055488423
000120 70 ad 1a 3a 7f 09 98 3b bb 07 5b 3b cf 88 3d b9
       0.0005900478 0.004639804 0.0033421356 -0.0001807541
000130 42 e2 d5 3a 61 66 16 3a 66 33 a7 b8 24 ba 04 3a
       0.001631804 0.00057373015 -7.972754e-05 0.00050631375
000140 bf 75 9e bb cb c9 70 ba fa 8e 30 39 e4 ec 5f bb
       -0.004835814 -0.0009185343 0.00016837931 -0.0034168297
000150 3f 86 b1 ba ef 71 06 ba d6 38 17 ba f8 08 0e ba
       -0.0013544037 -0.0005128672 -0.0005768662 -0.00054182066
000160 7d 5d 49 3b 2f b1 dc b9 bb 70 1d b9 8c 82 6b bb
       0.003072589 -0.00042093682 -0.00015014682 -0.0035935966
000170 d1 67 93 ba ce cb 94 bb 8b ac fa 33 e4 ae 23 3b
       -0.001124615 -0.004540897 1.16729176e-07 0.002497607
000180 22 22 28 3b a4 2f b6 ba e0 8a ba b9 eb 37 eb 38
       0.002565511 -0.0013899696 -0.00035580155 0.00011216089
000190 9f c6 0a 39 44 92 e0 b9 ad ff e8 b8 e0 28 98 39
       0.00013234698 -0.00042833586 -0.000111102454 0.00029022153
0001a0 77 7e 00 b9 8b 72 7b b7 ec 04 3c 3a 31 ec dd b8
       -0.00012254143 -1.4987435e-05 0.0007172364 -0.00010582095
0001b0 7a 56 5b bb 2f 4f 29 3a ca ee 18 3b f4 59 79 3a
       -0.0033468292 0.00064586377 0.0023335689 0.0009512
0001c0 9c 4a 4a 39 55 42 4b b9 7c a3 ac 3b 91 41 53 3b
       0.00019292015 -0.00019384299 0.0052685123 0.0032235126
0001d0 f4 8e 85 bb ba d4 67 b9 4c f0 88 3b b8 b8 5b 3b
       -0.004075879 -0.00022109124 0.0041790362 0.003352685
0001e0 86 85 81 b8 45 a4 31 39 63 fe 09 ba c6 a9 29 bb
       -6.17607e-05 0.0001694123 -0.0005264042 -0.0025888546
0001f0 d3 1d 6e 3a 64 7a 47 3b a7 75 08 39 73 83 a5 ba
       0.00090834236 0.003043794 0.000130138 -0.0012627676

network_body._body_endoder.seq_layers.0.weight f4 [128, 8]
000000 bc 6d 8f 3c c9 0f 74 be d3 d4 ea be a2 a9 68 ba
       0.01750838 -0.23834147 -0.45865497 -0.0008875375
000010 2e 28 a7 be 81 7c 1a 3f 70 ee 36 3e 34 d9 71 bd
       -0.32647842 0.6034623 0.17864394 -0.05904503
000020 7b 51 3f 3d 36 5a c6 be 3f ce 29 be ee 31 1e be
       0.046708565 -0.387407 -0.16582583 -0.15448734
000030 04 be 41 bf e3 61 32 3f 6d dc 0f 3f 6c 35 3b 3e
       -0.75680566 0.69680613 0.5619572 0.18282098
000040 59 75 41 3e 19 96 c7 3e 11 ff 2f 3f 7a ad b1 3e
       0.18892421 0.38981703 0.68748575 0.34702665
000050 a0 56 7a 3e 74 52 fa 3d 42 90 91 be 7e 06 19 be
       0.24447107 0.12222758 -0.28430372 -0.14943883
000060 2d de 01 bf 00 26 1c 3e bf 18 c8 be 1f ac 04 bf
       -0.5072964 0.15248871 -0.3908138 -0.51825136
000070 a6 42 a4 be 2b e2 1d 3f 82 64 1c 3c 7f f4 fc bc
       -0.320821 0.6167323 0.009545447 -0.030878304
000080 72 28 6a 3e c8 b8 6d 3d b5 27 c4 be f2 66 32 be
       0.22866991 0.05803755 -0.38311544 -0.17422083
000090 b4 39 ba 3d bd ec 89 be c6 4f 31 3e ed 16 a6 be
       0.09093037 -0.2693843 0.17315587 -0.32439366
0000a0 49 bf 92 be 94 db bb bd c2 2c 04 3d 51 a6 85 3e
       -0.28661564 -0.091727406 0.032269247 0.26103452
0000b0 96 b9 dd bd 2a 0b 23 bf 85 8e a3 be 14 75 52 be
       -0.10826413 -0.6368891 -0.3194467 -0.20552474
0000c0 c8 60 d5 bd 06 cb bf be d8 fe db bd 62 7c 47 be
       -0.1041885 -0.37459582 -0.10741967 -0.19481042
0000d0 0f 73 fb bd 6a 0d fa 3e f4 89 a0 be a2 88 98 be
       -0.12277805 0.4883836 -0.3135525 -0.29791743
0000e0 a1 ad b9 3e cb c2 bf 3e 7f f9 cc 3e 62 bb e0 3e
       0.3626528 0.37453303 0.400341 0.43892962
0000f0 4b 41 06 be 8c a5 96 be 44 ae 8a ba 85 62 5e 3e
       -0.13110845 -0.29423177 -0.00105805 0.2171727
000100 23 38 18 3f aa f8 bc bd c7 ea e4 3e e8 92 6e 3e
       0.5946066 -0.092271164 0.4471037 0.23298228
000110 67 9d ab 3e 8d e9 83 3d 50 6e 88 3e ed 97 7e be
       0.33518526 0.06441031 0.26646662 -0.24862643
000120 0c d3 f6 bd 50 eb ef bc 80 12 47 3e 43 95 22 3f
       -0.12051973 -0.02928701 0.19440651 0.63509005
000130 eb e9 48 3f 7e 93 9f be c9 bc 03 bf e2 e0 99 bc
       0.7848193 -0.31167215 -0.5145994 -0.01878399
000140 44 c0 8d be 6a fc ac 3d 69 18 56 3d d2 7f dd be
       -0.2768575 0.08446582 0.052269373 -0.43261582
000150 5c c0 4c bd 90 63 11 3e 5f d2 a8 3d dd b2 0f 3f
       -0.049988136 0.14198136 0.0824325 0.561323
000160 e5 6b a5 3d cf 7f d6 3e ba 73 08 3e 3c 6e aa 3e
       0.0807722 0.41894385 0.13325396 0.33287227
000170 87 a1 f4 3c 86 a4 48 be 96 df 9e 3e 83 d3 c6 be
       0.029862178 -0.1959401 0.31029958 -0.38833246
000180 a8 36 c6 3d 2e 43 a1 3e 60 a5 06 bf 30 f5 f3 be
       0.096783936 0.31496567 -0.5259609 -0.47648
000190 08 f2 84 be f5 71 41 bd 02 9f a3 3e 03 7b ee 3d
       -0.25965905 -0.04722782 0.3195725 0.116445564
0001a0 8d c8 26 3d de 91 45 be ab f9 58 3e fb 91 d2 3b
       0.040718604 -0.19293925 0.21188991 0.0064260936
0001b0 9a ef fb 3e 73 85 5d bf 84 e7 ae 3e d2 8c 3d bf
       0.4920624 -0.8653175 0.34161007 -0.74043
0001c0 dd 80 53 be 82 f0 4d 3e 19 e0 ba bd ce bd 32 3e
       -0.20654626 0.20111278 -0.091247745 0.17455217
0001d0 01 fe 1a 3f 01 23 66 3d 1f e1 8a 3d 78 f5 ab bd
       0.6054383 0.056185726 0.0678122 -0.08396429
0001e0 f9 b5 2b 3e a9 4a c3 be e9 99 16 3f a1 d6 90 3e
       0.16768636 -0.381429 0.588286 0.2828875
0001f0 bf b6 2a be 05 98 5b bc 18 07 97 be 43 71 dc be
       -0.16671275 -0.0134029435 -0.294976 -0.43055162
000200 9e a8 55 3e d0 f6 af bd 2f 21 f8 be 28 4a b9 3e
       0.20865104 -0.085919976 -0.48462817 0.3618939
000210 c9 8e 34 3f ab 87 a8 3e 97 6a 2a bf a2 c2 a6 3d
       0.7053037 0.32916006 -0.66568893 0.08142592
000220 00 97 aa 3e dc 10 be 3e e9 f5 32 bf 47 87 28 be
       0.3331833 0.37122238 -0.6990648 -0.16457854
000230 ce 73 62 3e 42 66 c7 3d 2a b1 5f bd 74 29 c1 3e
       0.22114488 0.09736301 -0.054612316 0.3772694
000240 d8 38 04 3f 47 96 fd 3d 8e 94 f5 3e 00 1a b4 3e
       0.51649237 0.12382179 0.479649 0.35176086
000250 66 ab 8a bf 2d b3 6b be d8 44 e1 3e 0d fe ca 3e
       -1.0833557 -0.23017569 0.43997836 0.3964695
000260 08 e2 02 3f 0d 91 ed be 4b f2 42 3d 52 07 42 3e
       0.51126146 -0.46399727 0.04759435 0.18948105
000270 0d 7b 68 be f0 f4 30 3e f6 b1 88 3e 88 43 3c bf
       -0.2270319 0.17280936 0.26698273 -0.73540545
000280 73 f6 10 3e 40 c5 3d be db 9a 39 bf 50 74 f7 3c
       0.14156513 -0.18532276 -0.72501916 0.03020683
000290 cc 88 5a be d5 79 3d be 20 04 57 3e 38 ab 8a bd
       -0.21341246 -0.18503506 0.20997667 -0.06770939
0002a0 71 64 85 bd a3 54 5f be 30 2c 87 3d 8d f1 b8 3d
       -0.06513298 -0.2180963 0.06600225 0.09030447
0002b0 4a a3 85 be 09 cf 7a 3e 57 98 d9 be 06 cf 80 be
       -0.26101142 0.2449304 -0.4249904 -0.25157946
0002c0 4b 8e c1 3e 61 59 df 3e d5 6f c7 bd fb ad 83 3e
       0.37803873 0.43622878 -0.09738127 0.25718674
0002d0 65 17 66 3d c4 d4 ab 3e f4 b7 01 be 0c 60 23 be
       0.056174655 0.33560765 -0.12667829 -0.15954608
0002e0 a4 c4 6b be 34 65 27 be fa ce ee be 01 e6 8e 3e
       -0.23024231 -0.163472 -0.46642286 0.27909854
0002f0 1d f5 f6 bd 5d bc bc be 21 af 99 bd 06 60 b3 be
       -0.120584704 -0.3686246 -0.07504106 -0.35034198
000300 d9 52 c7 3e 8f 74 ba 3d ff bc 77 3e 09 85 f1 3d
       0.38930395 0.09104263 0.2419319 0.117929526
000310 5c 71 8c be 08 6a 38 bd 65 42 54 bd c8 35 8f be
       -0.27430236 -0.045022994 -0.05182113 -0.2797072
000320 37 bb cd bd ce b1 87 bd b0 39 13 3e b2 59 c0 be
       -0.10045474 -0.066257104 0.14377475 -0.37568432
000330 2c 48 d6 be f3 8d 95 3e ee d7 12 bf 66 e4 84 3e
       -0.41851938 0.2920986 -0.5736073 0.25955504
000340 ee bb 16 be 2b 4c c1 bc 98 16 cf be 39 68 31 be
       -0.14720127 -0.02359589 -0.40446925 -0.17324914
000350 d6 9f 49 3e ec e6 e6 3e e9 e5 8d be 6f 4d 08 be
       0.19689879 0.45098054 -0.2771447 -0.13310789
000360 79 bb b0 bd 47 dd b2 be 20 2b 3b be d5 d6 ef bd
       -0.086295076 -0.34934446 -0.1827817 -0.11710898
000370 12 b5 dc be 0e c6 5c be d7 f8 93 3e a4 3c 14 3e
       -0.43106896 -0.21559927 0.28900787 0.14476258
000380 f3 f8 f2 3d e9 ce f3 3e 2f 9d 2b be 1d 14 94 bd
       0.118638895 0.47618797 -0.1675918 -0.07230399
000390 fc be 08 3e 39 48 5a bd e4 d8 e3 3e 09 b6 ce be
       0.13354105 -0.053291533 0.44501412 -0.40373257
0003a0 dc aa fe 3e cb fe 16 bf 27 93 9a be a4 86 15 bf
       0.4973973 -0.58982533 -0.30190393 -0.5840857
0003b0 f8 75 d6 3d 42 00 85 be 60 37 07 3e 7f dd e2 be
       0.104717195 -0.2597676 0.13204718 -0.44309613
0003c0 33 12 b0 3e 40 39 7f 3e 36 75 68 be be 48 c6 3d
       0.34388885 0.24924183 -0.22700962 0.09681843
0003d0 e8 34 6e 3e 4c 5b aa 3c bd 59 95 3e 7c a2 c7 3e
       0.2326237 0.020795487 0.29170027 0.38991153
0003e0 fd b2 4e be f6 a1 5e 3f d0 11 fc 3e 26 12 f4 be
       -0.20185466 0.8696588 0.4923234 -0.47670096
0003f0 d4 5c d3 be 7c a0 a9 bd 57 1a 31 3d 35 e2 9c 3e
       -0.4128176 -0.08282563 0.04323801 0.30641332

network_body._body_endoder.seq_layers.2.bias f4 [128]
000000 e8 cc 91 ba d8 0c e9 b9 a6 5e 91 bb 37 ce b5 b8
       -0.0011123689 -0.00044450792 -0.004436332 -8.669163e-05
000010 9f c9 16 bb d5 9e 2f 39 10 d4 92 b8 97 62 2d 3b
       -0.002300836 0.0001674847 -7.001322e-05 0.002645647
000020 52 0b 83 b8 b2 3c f1 39 5e a0 0f ba cd 3f 90 ba
       -6.248675e-05 0.00046012324 -0.00054789137 -0.0011005342
000030 60 8c cc 38 a9 d3 90 ba 5a 0a c5 3b 2e 92 98 3a
       9.753625e-05 -0.0011049408 0.006013197 0.0011640245
000040 0a 07 16 3b c0 26 1b bb 2f a6 9b b8 0c 63 10 bb
       0.002289238 -0.002367422 -7.42193e-05 -0.0022031693
000050 cb 7b a9 b9 eb 49 1a 3a 35 9c 5a bb c1 b6 1a ba
       -0.00032326425 0.00058856484 -0.0033357267 -0.0005901866
000060 1a 4f 7d 3b bb 30 ee 39 9c e9 db b8 77 00 9b ba
       0.0038651885 0.00045431204 -0.00010486247 -0.00118257
000070 15 c9 2f ba 0d 9c 98 ba b5 fd 6a 39 13 1f fe b9
       -0.0006705684 -0.0011643186 0.00022410492 -0.00048469807
000080 5b 98 4f bb d8 3b ef b9 94 df 96 3a a6 8d 25 bb
       -0.0031676504 -0.0004563022 0.0011510723 -0.002526143
000090 d7 73 ac bb bd 33 19 b8 0f 91 41 3b b7 c8 22 3a
       -0.0052628326 -3.6526228e-05 0.0029535925 0.00062097184
0000a0 3b 9a 89 39 3f 4c 5e bb 58 35 12 b8 92 58 7a 3b
       0.00026245587 -0.0033919958 -3.4858793e-05 0.0038199765
0000b0 dd da 9b ba 39 2b 6a ba c8 41 c6 b9 18 a6 3c 39
       -0.0011890788 -0.0008932832 -0.00037814514 0.00017990952
0000c0 b1 88 7b b9 64 0e 9c 3b 5b 90 62 bb 48 d5 48 3b
       -0.00023988147 0.0047624577 -0.0034570906 0.0030644704
0000d0 3d 46 37 3b 39 ce 8c ba 42 fe dc ba d0 9b 3a b8
       0.002796545 -0.0010742611 -0.0016860443 -4.4490967e-05
0000e0 59 97 5b ba 9a 99 af ba 85 7b 32 bb c7 68 05 b8
       -0.00083767396 -0.0013397217 -0.0027234268 -3.1807253e-05
0000f0 f7 34 bd ba 6c 28 cc bb 7f ca 91 b9 78 22 9a ba
       -0.001443534 -0.0062304046 -0.00027807427 -0.001175954
000100 ce 3b 91 3a e0 ec 79 3a f8 89 8c 3a c9 be 5f b9
       0.0011080445 0.00095338933 0.001072227 -0.0002133801
000110 5e b8 7d 3a 16 df 95 39 b6 b2 74 3b ed db f6 3a
       0.0009678657 0.00028585707 0.0037337965 0.0018833854
000120 06 f5 16 b9 89 01 97 ba 01 41 b0 3a 2d cb 46 3b
       -0.00014396393 -0.0011520843 0.0013447107 0.0030333505
000130 2e 3e 5d 3b fe d0 36 3b bc bd 00 3a 4b b8 03 3b
       0.0033758986 0.0027895565 0.0004911085 0.002009886
000140 04 7c fe 39 49 25 d7 b9 f9 2f 4c 3b 4e 20 d8 39
       0.00048539054 -0.00041035775 0.0031156524 0.000412228
000150 1a ea 9b ba 64 6e 98 ba cf fe c9 3b ea f4 a0 bb
       -0.0011895329 -0.0011629579 0.0061644088 -0.0049120085
000160 f7 54 f1 b9 c2 03 85 3a 31 cf 40 ba 4b 5b db b9
       -0.00046030406 0.0010148215 -0.00073550927 -0.00041838954
000170 51 ef 17 3b e3 5f 3c ba 72 59 1c 3a 44 c3 2c ba
       0.0023183415 -0.0007185919 0.0005964256 -0.0006590376
000180 02 bf 8d 39 bc 26 b2 39 be 4c a4 3b 5d ae 58 39
       0.00027035928 0.00033979665 0.005014031 0.0002066432
000190 32 65 5d 3b bf ea a4 bb c4 0b 6a 38 0c c7 5a 3b
       0.003378224 -0.0050328667 5.5800905e-05 0.0033382801
0001a0 ea 22 52 bb ac 09 ac 3b d1 b1 5b 39 e4 1a 55 bb
       -0.0032064267 0.0052501764 0.0002095171 -0.0032517249
0001b0 29 e6 21 b9 a7 9c 53 bb 6b 99 92 bb 4c db 55 bb
       -0.00015439898 -0.0032289417 -0.0044738553 -0.0032631932
0001c0 2f 38 f4 b9 7b d2 88 ba ca f0 8e 3a bf fd 6c ba
       -0.00046581167 -0.0010438705 0.0010905501 -0.00090404967
0001d0 80 2f 72 bb d2 6e 44 ba 1b d3 51 37 44 8b bd 39
       -0.0036954582 -0.000749332 1.2506523e-05 0.0003615265
0001e0 ea 06 3e 3b ba ae a5 3b e8 a5 82 3b 5b 72 e3 ba
       0.002899582 0.0050562294 0.0039870627 -0.0017352806
0001f0 b6 3e 8d 3b aa 47 21 ba c5 43 79 3a 13 5f 17 bb
       0.0043104542 -0.00061523414 0.00095086946 -0.002309744

network_body._body_endoder.seq_layers.2.weight f4 [128, 128]
000000 f2 9b 61 be eb 13 fc 3c f7 ff 98 bb 66 a0 87 3e
       -0.22032145 0.030771216 -0.0046691853 0.26489562
000010 2c f8 03 be 86 a7 00 3e 40 85 5a 3e 4d a1 62 bd
       -0.12887639 0.12563905 0.21339893 -0.05532961
000020 ee 4c 31 be c3 d7 8a bd a1 67 32 be 45 e5 b7 bd
       -0.17314503 -0.067794345 -0.17422344 -0.089792766
000030 df 37 fe bc c1 b0 dd bc f8 08 4e 3c c6 11 1c be
       -0.0310325 -0.027061822 0.0125753805 -0.15241155
000040 31 10 59 3d 68 34 03 bb 53 18 cd 3d 16 d7 d8 3d
       0.052993957 -0.002002025 0.10014405 0.105878994
000050 09 19 85 bd 12 ff 47 3b 92 ef df 3d 48 73 53 bd
       -0.06498916 0.0030517024 0.10934366 -0.051623613
000060 da 27 c6 3d 9f 73 41 3a 29 c8 1b bd f7 64 c2 3d
       0.0967557 0.00073795946 -0.038032684 0.09491914
000070 67 d2 6f bd 6a 42 d8 bd 91 5c b1 bd b1 60 1a b9
       -0.058550265 -0.105595425 -0.08660234 -0.00014722605
000080 5e 5e dd bc e3 52 7b 3d 08 18 43 bd e1 0b 65 bc
       -0.027022537 0.061358344 -0.04763034 -0.013979883
000090 c5 cf 1b bd 41 6e 43 3c 9f 2b 19 3e 22 0d eb 3c
       -0.03803994 0.011928142 0.14958046 0.028692786
0000a0 a2 d3 5f 3d 2f 7b 52 bd 6b 0d 15 bc 9c 84 2b bd
       0.05464519 -0.05138701 -0.009097437 -0.041874513
0000b0 b8 22 0b 3e 04 2d ba bd 5f 07 85 3d b7 11 4a 3d
       0.13587463 -0.09090617 0.064955465 0.0493333
0000c0 35 df e0 3d 73 04 f6 bc 48 4f 09 3e c3 a9 4b bd
       0.10980073 -0.030031418 0.1340915 -0.049722444
0000d0 48 4d 4e 3c e9 24 ef bd 25 fe f2 bb 2d 52 c9 3d
       0.0125916675 -0.11676962 -0.0074155503 0.09830127
0000e0 40 7f ef bc 12 dd a1 bb 1d 1c 40 bd d4 85 e3 3d
       -0.029235482 -0.0049396837 -0.04690181 0.1110951
0000f0 02 b8 73 3d d9 28 81 3d be 8d e2 3d 56 5b 44 bd
       0.059501655 0.06306619 0.110621914 -0.047938667
000100 67 c4 2a 3d 11 2e 09 3e a5 c0 95 3d c7 a5 ac 3b
       0.04169121 0.13396479 0.07312135 0.0052687856
000110 f2 a1 6f bb f2 eb da bd aa 03 2c bd 05 6e 83 bc
       -0.0036565033 -0.10689534 -0.04199568 -0.016043672
000120 d7 96 c9 bd f1 60 66 bc 49 a8 e6 bb ef 2c 4a bd
       -0.098432235 -0.014061199 -0.007039104 -0.04935926
000130 45 b9 86 ba ef b7 27 bd 89 ca 0d 3e 7f 78 03 be
       -0.0010278603 -0.040946897 0.13846792 -0.12838934
000140 2c 15 84 3d 16 a5 b7 3d b4 8b 47 bb 9a 8c 35 3e
       0.06449351 0.089670345 -0.003044826 0.17729416
000150 04 41 8b 3d 44 ef 1e 3d a9 bc d7 3c b1 6c b0 3c
       0.0679951 0.0388024 0.026335077 0.021536203
000160 82 23 1f 3d f8 8c 14 bc 58 e0 c9 3d 96 a3 8d bd
       0.038852222 -0.009066813 0.09857243 -0.06915967
000170 50 8d 01 bd 7a 7d 41 be 88 8b 0a be d8 6e 01 be
       -0.031628907 -0.18895522 -0.1352979 -0.1263994
000180 9c 4f ee bd c2 e7 27 bd f3 84 9f bd f4 53 ec 3d
       -0.11636278 -0.040992506 -0.0778903 0.1153945
000190 84 1e 21 3d 85 40 62 3d 4b b7 96 bc 12 c7 3f be
       0.039335743 0.055237312 -0.018397948 -0.18728283
0001a0 99 bf e5 bd a9 f8 39 3e fc 8b e9 bc c6 75 2a 3c
       -0.11218185 0.18161263 -0.028509133 0.010404056
0001b0 3b 81 14 be eb b2 a0 bc 0f 80 17 3d 2c d5 23 be
       -0.14502423 -0.019616565 0.03698736 -0.15999287
0001c0 6a 8d 07 bd 0e 51 31 3e be 3d 5a 3d 2c 30 c2 3c
       -0.033093847 0.17316076 0.05328154 0.02370461
0001d0 17 53 89 3d fb e2 f8 bd 6a 66 d2 3d e0 77 7c 3d
       0.06705301 -0.12152668 0.1027344 0.06163776
0001e0 48 1d 3e 3c e7 dd 95 3c 8c c8 0f bc e4 c3 01 3d
       0.011603661 0.018294288 -0.008775841 0.031680956
0001f0 20 9f c0 3c 0b 90 9d 3c 09 33 66 3e 64 26 83 3d
       0.023513377 0.019233724 0.22480406 0.06403807
000200 15 8f af bc 68 58 90 3a d7 71 31 3e 21 d1 14 3e
       -0.021430532 0.0011012675 0.17328583 0.14532901
000210 c0 11 ba bd 4d 8d 6d bd b9 ab 2c 3d 1b 0b 64 3d
       -0.09085417 -0.057996083 0.042155955 0.055674654
000220 e0 2f ca 3b 7a af a4 bd 93 3d ae 3d 40 1a 05 bd
       0.006170258 -0.08041282 0.08507838 -0.032495737
000230 69 02 47 3c 53 14 00 3c 74 5b e2 3c 7c 3e db bd
       0.012146571 0.007817346 0.027631499 -0.10705277
000240 1e 8a ac 3d cf b5 51 be fd fa 18 3e 2f 75 6d 3d
       0.08424781 -0.2047951 0.14939494 0.057973083
000250 3a 28 8e bc db bf 36 be 98 bf e9 bb a4 92 b0 3d
       -0.017353166 -0.17846625 -0.0071334355 0.086217195
000260 de b5 5a 3d 0c 49 f2 3d 73 55 37 be de 65 d1 3c
       0.0533961 0.11830339 -0.1790369 0.02556127
000270 75 f2 6a 3c 0f 44 a3 3d 20 e6 6d bd d6 d5 31 bd
       0.014340033 0.079719655 -0.058080792 -0.04341682
000280 35 86 17 be 30 dd 17 3e 62 95 cf 3d 29 75 12 bc
       -0.1479729 0.1483047 0.101359144 -0.008939066
000290 58 77 4e bd 6c 83 05 bb fa 0e 8b bd 07 b3 b0 bd
       -0.050406784 -0.0020372523 -0.06789966 -0.08627897
0002a0 aa 6b 36 bd b8 a0 04 3e 62 38 2a be b8 1b 66 bd
       -0.04453627 0.12951934 -0.16623071 -0.05617878
0002b0 71 fb 03 bd b2 c3 76 3c 73 5c f9 bc 30 53 94 3d
       -0.032222215 0.015061306 -0.030439591 0.07242429
0002c0 9c a2 5d bd f1 c7 47 3d 2a a3 03 3d 64 ee bb 3b
       -0.054110155 0.048774663 0.032138027 0.0057352055
0002d0 04 34 8c bd 88 36 08 3d cb 1c 9c bd 8a 46 27 3d
       -0.06845859 0.03325513 -0.07622679 0.040838756
0002e0 93 2b 5a 3e 0d 7c 8a bc d0 a7 1f 3d 05 3e f5 3d
       0.21305685 -0.016904855 0.038978398 0.1197472
0002f0 03 fd c1 bc 7a 4f ac bd f2 62 43 3d d8 5d 0e bd
       -0.023680216 -0.084135965 0.047701783 -0.034757465
000300 ef 32 04 bd f5 03 ab 3b e8 5d 81 bc b0 9f 50 bd
       -0.032275137 0.0052189776 -0.015791848 -0.05093354
000310 63 6d 2b 3e 87 5d 56 bd 92 8d 24 bd bc fd 3a be
       0.16740946 -0.05233529 -0.040174074 -0.18260854
000320 ed 66 a5 3d b0 0b 21 3d e3 68 ec bd 33 b3 0d 3e
       0.08076272 0.039317787 -0.11543443 0.1383789
000330 b7 55 59 3e 84 9c 9e 3c 8c a6 93 3d e5 f8 32 3d
       0.21224104 0.019361742 0.07209501 0.043694396
000340 d9 a7 81 3c 05 8a 11 be ca de af bd e1 88 08 3e
       0.015827106 -0.14212807 -0.085874155 0.13333465
000350 35 82 b4 3d 85 5f 7e 3d c5 df 5d 3e 85 ab c0 3d
       0.088138975 0.062102813 0.21667393 0.09407715
000360 0c d9 8b 3d b4 88 6e 3d be 2a 88 3d 78 2b 2b bc
       0.06828508 0.05823584 0.066487774 -0.0104473755
000370 37 d8 3c bd e7 2d 08 3d 3c 80 67 3c bf 02 74 3c
       -0.046104636 0.0332469 0.014129695 0.014893233
000380 67 32 03 be 65 fa c6 3d 38 59 11 be 81 0b 25 be
       -0.12812196 0.09715728 -0.1419419 -0.1611767
000390 8e 4d ce bd 4c d0 82 bd 6e 10 11 3d eb 0b cb 3c
       -0.10073386 -0.06387386 0.03541606 0.024785956
0003a0 ca a4 6a 3d 9d cd fb bb ec 00 90 3d ea dc ce bd
       0.05728606 -0.007684423 0.07031426 -0.1010073
0003b0 59 c4 97 3d 5b 12 78 3d 62 ec cf 3c a7 9a d7 3d
       0.07410497 0.06056438 0.02538127 0.105275445
0003c0 32 66 a4 bd a7 c3 07 3e f1 a0 e1 bb 57 cd 2f 3d
       -0.08027305 0.13258229 -0.006885641 0.042920437
0003d0 95 c6 95 3c 46 72 07 be 7c 54 da 3d 04 77 64 3d
       0.018283168 -0.13227186 0.10660645 0.055777565
0003e0 79 25 3e bd 10 e9 2f 3d 78 ff a0 3d 37 39 ed 3b
       -0.046422455 0.042946875 0.07861227 0.0072394866
0003f0 8a 78 9a 3d 0a 37 d4 bd cc 39 3b 3a 2a b6 09 3b
       0.07542522 -0.1036206 0.00071420963 0.002101312
